policy/marvin_policy.pt (torch, 174326 bytes, 8 tensors)

weight f4 [128, 48]
0	0x3f205c28	0.6264062
1	0x3f2238f8	0.6336818
2	0xbd96fa21	-0.07371927
3	0xbcf53aba	-0.02993523
4	0x3e680a82	0.22660258
5	0xbe7c7b70	-0.24656463
6	0x3ee9280a	0.4553836
7	0xbe08552b	-0.13313739
8	0xbe666105	-0.22497948
9	0x3e96b5eb	0.29435667
10	0xbf23e7e1	-0.64025694
11	0xbedfae20	-0.43687534
12	0x3e2d2a36	0.16910633
13	0x3f0810d4	0.5315068
14	0x3df47b72	0.11937608
15	0xbe805d91	-0.25071386
16	0x3ed29c43	0.41134843
17	0x3d21c198	0.039491266
18	0xbe6b1c92	-0.22960117
19	0x3f25e4aa	0.6480204
20	0x3d9a9996	0.075488254
21	0xbe47759d	-0.1947846
22	0xbdfe2f5d	-0.124113776
23	0x3d4442fe	0.04791545
24	0xbbb677fb	-0.005568502
25	0x3ae27257	0.0017276508
26	0xbbfe021b	-0.007751716
27	0x3ca63d2d	0.020292843
28	0x3b53209e	0.0032215486
29	0xbcdaaf4f	-0.026694922
30	0xbb633d3e	-0.0034673954
31	0x3bececf7	0.007230397
32	0x3ca5993c	0.02021467
33	0x3b50234d	0.0031759322
34	0x3c0f1c25	0.0087347375
35	0xbb457b25	-0.0030133214
36	0xbd53ea30	-0.05173701
37	0x3e38a5da	0.18032017
38	0x3de054b6	0.10953657
39	0x3e008540	0.12550831
40	0xbc182ddd	-0.009288278
41	0x3e3c706b	0.18402259
42	0xbe08a520	-0.1334424
43	0xbdeb5059	-0.114899345
44	0x3d20b4db	0.039234977
45	0xbd60aeac	-0.05485408
46	0xbb63c7d8	-0.0034756567
47	0xbdabaeb0	-0.08382928
48	0xbea47240	-0.32118416
49	0xbde26399	-0.11054153
50	0x3f063cc7	0.5243649
51	0xbd5ac15a	-0.05340705
52	0x3cf36b09	0.029714124
53	0xbe64e9da	-0.22354832
54	0xbf904d01	-1.12735
55	0x3da40ed8	0.08010644
56	0xbe46769f	-0.19381188
57	0xbc9fdaa2	-0.019513432
58	0xbe21893d	-0.15775008
59	0x3ec111c9	0.37708881
60	0x3f04b25d	0.5183466
61	0x3eac201e	0.33618253
62	0x3ec0a66d	0.37626973
63	0xbe8b404e	-0.27197498
64	0x3ec60530	0.38675833
65	0xbf08ed46	-0.5348705
66	0xbe830021	-0.25586036
67	0xbe3f6192	-0.18689564
68	0x3d69657f	0.05698156
69	0x3cc737ad	0.02431854
70	0xbe9774e6	-0.29581374
71	0xbe2caece	-0.16863558
72	0xbc7043c3	-0.014664593
73	0xbc0948d0	-0.008379176
74	0xbcf3d9dc	-0.02976697
75	0x3acba5ae	0.0015537047
76	0xbc4ff722	-0.012693198
77	0xbbc13e45	-0.0058973157
78	0x3a88150a	0.0010382247
79	0xbd22ee20	-0.039777875
80	0xbd1dc3b2	-0.038516708
81	0xbd2fd411	-0.04292685
82	0x3c9f1ad4	0.019421972
83	0x3cb8ae98	0.02254419
84	0x3d9886a8	0.07447559
85	0x3e18753c	0.14888471
86	0xbe0e3bff	-0.13890074
87	0xbd714c57	-0.058910694
88	0x3d995213	0.074863575
89	0xbd88dd89	-0.066828795
90	0x3cc669ab	0.024220308
91	0xbdbf020a	-0.09326561
92	0xbdd36e40	-0.10323763
93	0xbe29f9b2	-0.16599157
94	0x3dcf1857	0.10112064
95	0x3da8b31d	0.08237288
96	0x3ee59dcc	0.44846952
97	0xbf3ec630	-0.7452116
98	0xbe8f7cb3	-0.28024825
99	0x3da30959	0.07960767
100	0xbe2007d1	-0.15627982
101	0xbdbf8976	-0.093523905
102	0xbe97865c	-0.29594696
103	0xbfaf86ca	-1.3713009
104	0x3e260ae3	0.1621509
105	0xbe972956	-0.29523724
106	0x3e547dac	0.20751065
107	0x3e8418ee	0.2580027
108	0xbec2af2b	-0.38024268
109	0x3d90e2e2	0.070745245
110	0x3f2a706b	0.66577786
111	0xbe81843d	-0.25296202
112	0x3e0d985a	0.13827649
113	0xbec273ac	-0.37978876
114	0xbe563b6f	-0.2092111
115	0x3f16a677	0.58847755
116	0xbe739f71	-0.23791291
117	0x3e277ca5	0.16356142
118	0x3e201954	0.15634662
119	0xbe999960	-0.29999828
120	0xbcf75709	-0.030192869
121	0xbb96b8ed	-0.0045996816
122	0xbd312cf5	-0.043255765
123	0x3d2c93bc	0.042133078
124	0x3c935c61	0.017988386
125	0x3a7a0b96	0.00095384696
126	0x3ce83f29	0.02835043
127	0xbd33170a	-0.043723144
128	0xbc6fdc43	-0.014639917
129	0xbc2a791e	-0.010404853
130	0x3d291dbd	0.041288126
131	0x3b639fac	0.0034732623
132	0x3c7c2173	0.015388834
133	0x3dc99943	0.098436855
134	0x3ddb504d	0.107086755
135	0xbd05b8b8	-0.032646865
136	0xbcf8822c	-0.030335508
137	0x3be3754f	0.0069414745
138	0xbd9ffa3b	-0.078113995
139	0x3b2177d7	0.002463808
140	0xbb89b5be	-0.0042025736
141	0x3d171ba3	0.03689159
142	0xbd9418cd	-0.07231293
143	0x3c656f4a	0.014003584
144	0xbdd626db	-0.1045663
145	0x3eb9ac2f	0.36264178
146	0x3dbadf5d	0.091246344
147	0xbd89fe2f	-0.06737935
148	0xbe63d731	-0.22250058
149	0xbe9174ab	-0.28409323
150	0x3c70b44d	0.014691425
151	0x3f8ea224	1.1143231
152	0x3e253bc0	0.16136074
153	0x3da984df	0.08277296
154	0xbe8c4229	-0.27394226
155	0xbdefbee6	-0.11706333
156	0xbf06f330	-0.52714825
157	0xbf7edf99	-0.9955993
158	0x3ec4bd65	0.38425747
159	0xbda1f170	-0.07907379
160	0x3ed2933a	0.4112795
161	0x3ec1551f	0.37760255
162	0xbdcca533	-0.09992447
163	0xbe9f40d4	-0.31104147
164	0xbe174fc3	-0.1477652
165	0x3e3473aa	0.17622247
166	0x3f065e42	0.52487576
167	0xbd4debb8	-0.050273627
168	0x3c1aab27	0.00944022
169	0xbca090ff	-0.01960039
170	0x3b0742d9	0.002063921
171	0x3c321d33	0.010871219
172	0xbcf3ab55	-0.029744783
173	0xbd3cc334	-0.046084598
174	0x3cb3bd25	0.021940777
175	0x3ad237f3	0.0016038403
176	0x3ce4b437	0.027917964
177	0x3d1788b1	0.036995593
178	0x3ca5c935	0.020237545
179	0x3cd924df	0.02650684
180	0xbdd54716	-0.10413949
181	0xbb4f62fa	-0.0031644688
182	0x3e6a3750	0.22872663
183	0x3e7fb285	0.24970444
184	0x3cbf1f2b	0.023330292
185	0xbe0f01ab	-0.1396548
186	0x3dd90788	0.105971396
187	0x3cec841b	0.028871587
188	0x3e363c11	0.17796351
189	0xbcaec274	-0.021332957
190	0x3d6c87d8	0.05774674
191	0xbc9355ab	-0.017985186
192	0xbedade64	-0.42747796
193	0x3e90fc0d	0.283173
194	0xbe3580e5	-0.1772495
195	0xbce9a591	-0.028521331
196	0xbf1428a9	-0.5787454
197	0x3ea73274	0.3265568
198	0xbfbd8ba2	-1.4808238
199	0x3fbb9e44	1.4657674
200	0xba14dbb8	-0.00056784926
201	0x3e52ac69	0.20573582
202	0x3e50a5df	0.20375775
203	0xbe08def1	-0.13366295
204	0xbe48c357	-0.19605766
205	0xbe7d9249	-0.24762835
206	0x3f625c51	0.88422114
207	0x3ec32461	0.38113692
208	0x3dfcfafb	0.12352558
209	0xbe814499	-0.25247648
210	0x3dd5d93b	0.10441824
211	0xbea0f245	-0.31434837
212	0x3e86bf26	0.2631771
213	0x3db9cf7f	0.0907278
214	0x3d2b38e6	0.04180231
215	0x3df4b9eb	0.119495235
216	0x3c56db57	0.013113818
217	0xba0dd599	-0.00054105517
218	0x3ce005e2	0.027346555
219	0x3d2fce60	0.042921424
220	0x3d18bd7f	0.037290093
221	0x3cffe302	0.031236175
222	0xbcbd078c	-0.023074888
223	0xbb61052f	-0.0034335365
224	0x3ccb28a4	0.024799652
225	0xbd634aa5	-0.05549111
226	0x3d2cbb51	0.042170826
227	0xbd0a95ac	-0.033834144
228	0xbec566f3	-0.38555107
229	0xbd990cc7	-0.0747314
230	0xbe4a193c	-0.19736189
231	0x3dccce2e	0.10000263
232	0x3e5bd818	0.21469152
233	0xbd92fc7c	-0.07177064
234	0x3d0062b8	0.031344146
235	0xbdb04d4d	-0.08608494
236	0x3ba4fbb7	0.0050348896
237	0xbd9e6659	-0.07734365
238	0x3db5f024	0.08883694
239	0x3ca9bfb7	0.0207213
240	0x3e1ba744	0.15200526
241	0x3ec730ad	0.38904324
242	0xbe013ddb	-0.12621252
243	0xbe86b5ba	-0.2631052
244	0xbe1f2c40	-0.15544224
245	0xbe8083b3	-0.2510048
246	0xbee09034	-0.43860018
247	0x3f922d3b	1.1420053
248	0x3e9bf10d	0.30457345
249	0x3e03a2b3	0.12855034
250	0x3e9abf6d	0.3022417
251	0x3cdbb650	0.026820332
252	0x3d41091c	0.047127828
253	0xbe405147	-0.18781005
254	0xbd349d1f	-0.044095155
255	0x3e79bb38	0.24387825

bias f4 [128]
0	0x3d23a630	0.03995341
1	0x3e6593b8	0.22419631
2	0xbcd690c2	-0.026192073
3	0x3cfa729f	0.030572234
4	0xbe05dc72	-0.13072374
5	0xbeacb1a4	-0.3372928
6	0x3d282670	0.04105228
7	0xbdd81bcc	-0.10552177
8	0xbe354935	-0.17703708
9	0x3e367733	0.17818908
10	0x3df3770e	0.11887942
11	0x3e9eddbc	0.31028545
12	0xbc70685a	-0.014673317
13	0xbd7ff931	-0.062493507
14	0x3ed4ec78	0.4158666
15	0xbdb01955	-0.08598582
16	0xbe7d5a4d	-0.24741478
17	0x3c9e9d13	0.019362008
18	0xbcef5b9d	-0.02921849
19	0x3cb621a5	0.02223284
20	0xbdd862b6	-0.105657026
21	0xbe0040a9	-0.12524666
22	0x3da3d018	0.07998675
23	0xbcc15a42	-0.023602609
24	0x3dc5aad8	0.096517265
25	0xbc28f26f	-0.010311707
26	0xbe82da06	-0.25556964
27	0x3e5800a9	0.21094002
28	0x3ea6bf7e	0.32567972
29	0x3e05b60a	0.13057724
30	0xbe251515	-0.16121323
31	0xbe1afdc2	-0.15135863
32	0x3d918928	0.071062386
33	0x3da203ea	0.07910903
34	0x3e0f17b7	0.1397389
35	0xbbab3721	-0.0052250777
36	0xbe1ab24c	-0.15107077
37	0x3e0bc819	0.1365055
38	0xbded306f	-0.115815036
39	0x3d3ed3cc	0.046588704
40	0xbe118cfa	-0.14213935
41	0x3e9872cb	0.2977508
42	0x3d81e500	0.063425064
43	0xbe7244c9	-0.23659052
44	0x3e640fc7	0.22271644
45	0x3e40ad65	0.18816145
46	0x3eaf5be8	0.34249806
47	0xbdc0d73e	-0.09416054
48	0x3e193cf8	0.14964664
49	0xbe364016	-0.17797884
50	0x3dfd18ba	0.12358232
51	0x3df6e73c	0.12055823
52	0xbdef1ec9	-0.11675794
53	0xbcffca9f	-0.031224547
54	0xbe02f753	-0.12789659
55	0xb93a2563	-0.0001775227
56	0xbeb1c496	-0.34720296
57	0xbd192550	-0.0373891
58	0x3e35ab5c	0.1774115
59	0xbd4bc3bb	-0.04974721
60	0x3d1a25f0	0.037633836
61	0x3cd44e8f	0.025916366
62	0xbe4ec2b9	-0.20191468
63	0x3e694548	0.22780335
64	0xbeb0d11f	-0.34534547
65	0x3da05802	0.07829286
66	0x3e5b5902	0.21420673
67	0xbe3ad403	-0.18244939
68	0x3d5a4171	0.053285066
69	0x3d80ae59	0.06283254
70	0x3e63e821	0.22256519
71	0xbe1e7d93	-0.1547759
72	0xbe030e74	-0.12798482
73	0xbdc8831c	-0.09790632
74	0xbe15db46	-0.14634427
75	0x3e3cedf8	0.18450153
76	0xbe46f2e5	-0.19428594
77	0xbd957cea	-0.07299216
78	0xbe0c707a	-0.13714781
79	0xbe0e548a	-0.13899437
80	0xbd9189fd	-0.07106397
81	0xbcd7eb1d	-0.026357228
82	0xbe154411	-0.14576747
83	0x3e543909	0.20724882
84	0x3e45c166	0.19312057
85	0xbc1a4153	-0.009414989
86	0xbea3748e	-0.31924862
87	0xbccda61f	-0.025103627
88	0x3cac6258	0.021042988
89	0x3eef0cc9	0.46689442
90	0xbe27f751	-0.16402937
91	0x3ed1c40c	0.40969884
92	0xbd55e52f	-0.05222052
93	0x3db66a2b	0.08906969
94	0x3d8a848e	0.06763564
95	0xbdeecdc5	-0.11660341
96	0xbd827262	-0.06369473
97	0xbd0d9c6b	-0.034573
98	0x3e82b612	0.25529534
99	0x3e6ba36e	0.23011562
100	0xbd7f206f	-0.06228679
101	0x3df4b475	0.11948482
102	0xbbb83f1a	-0.0056227567
103	0x3e3e90a3	0.18609862
104	0xbe07b7d6	-0.13253722
105	0x3d71b5bc	0.059011206
106	0x3d4c32f8	0.049853295
107	0x3e877eb4	0.26463854
108	0x3e65e28b	0.224497
109	0x3e0d4f69	0.13799824
110	0xbca7e5ae	-0.020495262
111	0xbd2034cb	-0.039112847
112	0xbbfeb517	-0.0077730524
113	0x3bf9a1c1	0.0076181595
114	0xbdb4039e	-0.087897524
115	0xbe24f603	-0.16109471
116	0x3dc32f10	0.09530461
117	0x3e0c66a7	0.13711034
118	0x3db60c9f	0.08889126
119	0x3e84f6fc	0.25969684
120	0x3d933616	0.071880504
121	0xbd90528f	-0.07046997
122	0xbe35e1cc	-0.17761916
123	0x3c13648d	0.008996141
124	0xbea65f5a	-0.32494622
125	0x3e3feae1	0.18741943
126	0xbe13c872	-0.14431933
127	0xbd9757f2	-0.07389821

weight f4 [128, 128]
0	0xbce53fa5	-0.02798445
1	0x3d60743e	0.054798357
2	0x3bca2da3	0.006169991
3	0x3e4ad618	0.19808233
4	0x3de79d0d	0.11309252
5	0x3d6485a1	0.0557915
6	0x3de315fa	0.11088176
7	0xbcea6a4c	-0.02861514
8	0x3d49398b	0.049127143
9	0x3d739fcb	0.059478562
10	0x3c6187de	0.013765303
11	0xbe180ef5	-0.14849456
12	0xbe201daf	-0.15636323
13	0x3dcb9dd7	0.09942215
14	0xbe183951	-0.14865614
15	0x3e70e8fd	0.23526378
16	0xbccffeec	-0.02539011
17	0x3da771b2	0.081759825
18	0xbd17ebc2	-0.03709007
19	0xbbee79eb	-0.0072777173
20	0xbdf2c7df	-0.11854529
21	0xbd706541	-0.058690313
22	0xbd3f914b	-0.04676942
23	0x3ddcc16b	0.10779079
24	0x3d0af90b	0.033928912
25	0xbbdf5f9e	-0.0068168184
26	0xbc530eed	-0.012881977
27	0xbd9bd724	-0.07609394
28	0x3df3dd74	0.11907473
29	0x3e23bc53	0.15989809
30	0xbdbe2712	-0.09284796
31	0x3c657368	0.014004566
32	0xbd60a7fe	-0.05484771
33	0xbcad4b2e	-0.021154013
34	0xbe40ba2e	-0.18821022
35	0xbe1c5100	-0.15265274
36	0xbd5ad359	-0.053424213
37	0x3e0235a1	0.1271577
38	0xbd7a62ea	-0.061129488
39	0x3dec5733	0.115400694
40	0x3c96a111	0.01838735
41	0x3d1d041e	0.038334005
42	0xbe3e32b1	-0.18574025
43	0x3e3af06c	0.18255776
44	0x3d9cf438	0.076637685
45	0xbc1868bb	-0.009302313
46	0x3cfb8da8	0.030707195
47	0xbae07053	-0.0017123319
48	0xbdd52480	-0.104073524
49	0xbde29258	-0.11063069
50	0x3df33b72	0.11876573
51	0xbd9cfbeb	-0.07665237
52	0xbdcdd3d0	-0.10050166
53	0xbe4b1b7f	-0.19834708
54	0xbd3c31fe	-0.045946114
55	0xbd8501eb	-0.064945064
56	0xbd492c45	-0.049114484
57	0x3e533a3a	0.2062768
58	0x3cdb4ccc	0.026770018
59	0xbe2725c8	-0.16323006
60	0x3e2d6e13	0.16936521
61	0xbd1a8671	-0.03772587
62	0xbc605ac5	-0.013693516
63	0x3d8758b3	0.06608715
64	0x3de195c9	0.110148974
65	0x3d3d7771	0.046256486
66	0x3d850fe9	0.06497175
67	0xbe444d18	-0.19170034
68	0x3ca525d4	0.02015964
69	0x3e40865b	0.18801253
70	0xbcc5229a	-0.02406435
71	0xbde5b864	-0.1121681
72	0xbdda8216	-0.10669343
73	0xbcfc3e7d	-0.030791515
74	0xbe359abd	-0.17734809
75	0x3dd850d8	0.10562295
76	0xbe488c9a	-0.19584885
77	0xbdd85761	-0.10563541
78	0x3dac5797	0.08415144
79	0x3cd493d1	0.02594939
80	0xbcec71b7	-0.028862817
81	0x3d47d93b	0.04879115
82	0xbce29bc6	-0.02766217
83	0xbe43aa3d	-0.1910791
84	0xbc32943d	-0.010899601
85	0x3d894542	0.06702663
86	0xbd75535c	-0.05989395
87	0xbc5f76c4	-0.013639156
88	0xbe452281	-0.19251443
89	0x3e03e68c	0.12880915
90	0x3e0014a6	0.12507877
91	0xbeb07912	-0.3446737
92	0xbdf925c7	-0.121654086
93	0xbbb0a599	-0.0053908345
94	0xbb5ce691	-0.0033706764
95	0x3dc32b27	0.09529715
96	0x3d8c022a	0.0683635
97	0x3e082d04	0.13298422
98	0xbe288cb5	-0.16459925
99	0x3e84d7b5	0.2594582
100	0x3ebbefdf	0.36706445
101	0xbcda0c0b	-0.02661707
102	0xbe04fcfe	-0.12987134
103	0x3d57ec43	0.05271555
104	0xbddcc74b	-0.107801996
105	0xbe11a408	-0.14222729
106	0x3d4de8a8	0.050270706
107	0x3d1e7d53	0.038693737
108	0xbdddbcc3	-0.10827019
109	0xbdebf265	-0.115208425
110	0xbe1ec132	-0.15503386
111	0x3e567b85	0.20945556
112	0xbdc81c34	-0.09771004
113	0x3c264e22	0.010150464
114	0xbe42420e	-0.1897051
115	0xbd51152b	-0.051045578
116	0xbc954f65	-0.018226335
117	0x3e91dd1a	0.28489
118	0xbf038e1e	-0.5138873
119	0xbdefb381	-0.117041595
120	0xbd6c1cad	-0.057644535
121	0x3caea218	0.021317527
122	0x3d927be3	0.07152536
123	0xbdef9677	-0.11698621
124	0xbdc4f42f	-0.09616887
125	0xbd4c0346	-0.04980781
126	0xbdc3291a	-0.09529324
127	0x3c3826b6	0.011239698
128	0x3dffb925	0.124864854
129	0xbda3a173	-0.07989778
130	0x3be7b291	0.0070708473
131	0x3d68aaf3	0.056803655
132	0xbe7835aa	-0.24239221
133	0xbd18d976	-0.037316762
134	0xbce500fa	-0.027954567
135	0x3d837d4a	0.06420381
136	0x3e959603	0.29216012
137	0x3d937a52	0.07201065
138	0x3e0ad663	0.13558345
139	0xbe95cf48	-0.29259706
140	0x3db0eda2	0.08639075
141	0x3dabfb45	0.08397535
142	0xbc9d00a1	-0.019165339
143	0xbd9b322d	-0.0757793
144	0xbc9c2996	-0.019062798
145	0xbe74af2a	-0.23894945
146	0x3d1593c2	0.036517866
147	0x3dbe5d61	0.09295154
148	0x3de9bec5	0.114133395
149	0xbcd18a7c	-0.02557873
150	0xbd736da1	-0.059430722
151	0x3d156dbe	0.03648161
152	0x3d48438b	0.04889254
153	0x3d88c2af	0.06677758
154	0x3e1c080c	0.15237445
155	0xbd2e1cef	-0.042508062
156	0x3ca3aeb9	0.019980775
157	0xbc24432d	-0.010025782
158	0x3d09e9c4	0.033670202
159	0xbd4ca1c4	-0.04995896
160	0x3c674a83	0.014116886
161	0x3cda3e97	0.026641173
162	0x3c4f1b3d	0.012640771
163	0x3e364310	0.1779902
164	0x3e204e7e	0.15654942
165	0x3dbc8a75	0.09206096
166	0xbd86ea50	-0.0658766
167	0xbcec7731	-0.028865429
168	0x3cf7b355	0.03023688
169	0xbd66dc90	-0.05636269
170	0x3d8be80f	0.06831371
171	0xbc2fae69	-0.010722735
172	0x3cc296dc	0.023753576
173	0xbd82e72b	-0.06391748
174	0x3db94126	0.09045629
175	0x3d15b78a	0.03655199
176	0xbdc0ad6c	-0.094080776
177	0xbe97b84f	-0.29632804
178	0xbd835857	-0.06413334
179	0x3d80cb2d	0.06288753
180	0x3ca5dc6f	0.020246712
181	0x3e048d58	0.12944543
182	0xbd83c12d	-0.0643333
183	0xbc5a2e25	-0.013316666
184	0x3cf3e613	0.029772794
185	0xbd96aeb7	-0.07357543
186	0x3d1a38a4	0.037651673
187	0xbd3e249f	-0.046421643
188	0x3e4ab040	0.19793797
189	0xbbe4d49c	-0.006983353
190	0x3dd991fb	0.10623547
191	0x398a7325	0.000264072
192	0x3d7461cb	0.059663575
193	0xbd0586e3	-0.03259934
194	0x3de19a40	0.11015749
195	0x3e27b911	0.16379191
196	0x3be5d5f6	0.0070140315
197	0xbc3e8e41	-0.011630596
198	0x3da0c671	0.0785035
199	0xbd26bbbf	-0.040706392
200	0xbd55a798	-0.052161783
201	0x3dc64af8	0.09682268
202	0x3c910910	0.017704517
203	0xbe2676a9	-0.16256203
204	0x3c8486db	0.016177585
205	0x3dd0fee6	0.10204868
206	0x3d719bd8	0.058986515
207	0xbd28b6de	-0.04119002
208	0x3d3278b9	0.04357216
209	0xbe216f60	-0.15765142
210	0xbd9eba73	-0.07750406
211	0xbd2c3b8f	-0.042048987
212	0xbd780d30	-0.06055945
213	0xbd1462f3	-0.036227178
214	0x3e12898e	0.14310285
215	0x3dc12642	0.09431125
216	0x3d16884c	0.036751077
217	0xbcbb7698	-0.022883698
218	0xbc4bd3fc	-0.012440678
219	0x3ec9fd47	0.39451048
220	0xbe67d1da	-0.22638646
221	0xbe4022cf	-0.18763278
222	0xbe2eb8c5	-0.17062671
223	0xbe3e513e	-0.18585679
224	0x3d69fdb0	0.0571267
225	0xbdcaa307	-0.09894376
226	0x3d6bd75f	0.05757844
227	0x3c9ac5d5	0.018893162
228	0x3d9fe690	0.07807648
229	0x3c6044a3	0.013688239
230	0xbda3b919	-0.07994289
231	0xbc14cff6	-0.009082785
232	0x3de3e3d0	0.11127436
233	0xbc268fb0	-0.010166094
234	0xbd12f2a7	-0.035875943
235	0x3c7f5cc0	0.015586078
236	0xbdd14597	-0.10218351
237	0x3d2c251d	0.04202758
238	0x3d0b902c	0.03407304
239	0x3d84532f	0.064611785
240	0x3c530dbf	0.012881695
241	0x3b8bbdde	0.0042645773
242	0xbdb2b777	-0.087263994
243	0x3d2943a0	0.041324258
244	0x3c84e2fe	0.01622152
245	0xbe0166ba	-0.12636843
246	0xbd1c7dfa	-0.038206078
247	0xbd9ce52f	-0.07660901
248	0x3de2de04	0.11077502
249	0x3bda2f1e	0.006658449
250	0x3d023d86	0.031796955
251	0x3d7db95f	0.06194436
252	0xbdb07dcb	-0.08617743
253	0x3d0a4cfa	0.033764817
254	0x3b087c2f	0.0020825972
255	0xbe2d29c9	-0.16910471

bias f4 [128]
0	0x3da2e6a1	0.07954145
1	0x3d04ad7c	0.03239201
2	0xbdcf393c	-0.101183385
3	0x3cecd5b8	0.028910503
4	0xbe48e06f	-0.19616865
5	0xbd855750	-0.06510794
6	0x3c9ab8e5	0.018886993
7	0xbea1363d	-0.31486693
8	0xbc0a2a5b	-0.00843295
9	0xbb9e8d5a	-0.0048386278
10	0xbe875c1a	-0.26437455
11	0x3cdbd8d7	0.026836796
12	0xbb7d5295	-0.003865396
13	0xbebf90d3	-0.3741518
14	0xbe0d2b2b	-0.13785999
15	0xbcbd9c82	-0.023145918
16	0xbe4669ef	-0.19376348
17	0xbcf90a9c	-0.030400567
18	0xbe1e91c9	-0.154853
19	0xbe4cc2c7	-0.19996177
20	0x394bd8a0	0.00019440288
21	0x3d86a37a	0.065741494
22	0xbeb7c1ac	-0.35889947
23	0xbe9e260d	-0.30888405
24	0xbc7d053c	-0.0154431425
25	0xbe385c68	-0.18004
26	0x3e192b95	0.14958031
27	0x3e476b27	0.19474469
28	0xbcf1d234	-0.029519178
29	0x3d69927c	0.057024464
30	0xbd24fee5	-0.04028215
31	0xbda24352	-0.079229966
32	0x3d8460aa	0.0646375
33	0xbcb7efbb	-0.02245318
34	0xbd3c09dc	-0.04590784
35	0xbe0a48ed	-0.13504381
36	0xbd4e96be	-0.050436728
37	0xbe471931	-0.19443204
38	0x3d842548	0.06452423
39	0xbd8cda64	-0.06877592
40	0x3dbba5a8	0.09162456
41	0x3d5e3b97	0.054256048
42	0x3dbdaee9	0.09261877
43	0xbdcb8868	-0.09938127
44	0xbdaca3cf	-0.084296815
45	0xbd8aad54	-0.06771341
46	0xbd8df729	-0.06931908
47	0x3cbda112	0.023148093
48	0xbe8cc81b	-0.27496418
49	0xbeb134ae	-0.34610504
50	0xbded7b0c	-0.11595735
51	0x3c3bb07c	0.011455651
52	0xbdab6de2	-0.08370568
53	0xbca07147	-0.019585265
54	0xbd22e698	-0.039770693
55	0xbe4037d1	-0.18771292
56	0xbe614b02	-0.2200127
57	0x3e0438b5	0.12912257
58	0xbddbc3c2	-0.10730697
59	0xbd022a4a	-0.03177861
60	0x3d901892	0.070359364
61	0x3dd9e380	0.10639095
62	0x3e17085d	0.14749284
63	0xbe194217	-0.14966618
64	0x3d34b800	0.04412079
65	0xbdacb433	-0.08432808
66	0xbe152e52	-0.14568451
67	0xbe807d9f	-0.2509584
68	0x3d34b490	0.04411751
69	0x3de7be5b	0.11315604
70	0x3d689af4	0.0567884
71	0x3d78cc9a	0.060742
72	0xbd926fd8	-0.07150239
73	0xbdbf4027	-0.09338408
74	0x3d77efbf	0.060531374
75	0xbd080aec	-0.03321354
76	0xbcc43c08	-0.023954406
77	0x3e031094	0.12799293
78	0xbd8b2a4c	-0.06795177
79	0xbdbb21f8	-0.091373384
80	0xbd454b7a	-0.048167683
81	0xbd11a49d	-0.035557378
82	0xbe803004	-0.25036633
83	0xbdc22382	-0.09479429
84	0xbe069535	-0.13142855
85	0xbdd43e35	-0.103634275
86	0xbde643ed	-0.112434246
87	0x3d993f68	0.07482797
88	0xbd8dc282	-0.06921865
89	0x3ce1fdfe	0.027586933
90	0x3de6966a	0.11259158
91	0xbe4d3aed	-0.2004201
92	0xbdad65d0	-0.08466685
93	0x3d7c37e9	0.061576758
94	0xbd270d6f	-0.040784296
95	0xbc526323	-0.012841019
96	0x3de7d34d	0.11319599
97	0xbbcfa4b6	-0.0063367737
98	0x3daceb78	0.084433496
99	0xbc310b59	-0.010805928
100	0x3c6bfbf1	0.014403329
101	0xbd8cb0a5	-0.0686963
102	0x3dd551cb	0.104159914
103	0xbc8d1f53	-0.01722685
104	0xbe092d34	-0.1339615
105	0xbd1a7400	-0.037708282
106	0xbe038f05	-0.12847526
107	0xbd653695	-0.055960257
108	0x3ca5f009	0.02025606
109	0xbe4ce5dd	-0.20009561
110	0xbde39fec	-0.11114487
111	0xbd172df7	-0.03690907
112	0xbd72a035	-0.059234817
113	0xbdb0a324	-0.086248666
114	0xbcac74d1	-0.021051796
115	0xbdf2450b	-0.11829575
116	0xbec779e7	-0.38960192
117	0x3e2212e3	0.15827517
118	0x3c892b54	0.016744293
119	0x3c5853a3	0.013203534
120	0xbca837d8	-0.02053444
121	0xbd804868	-0.062638104
122	0x3e0a913e	0.13531968
123	0xbc5d9c17	-0.013525984
124	0xbd9d7e24	-0.07690075
125	0x3d111fa9	0.035430584
126	0xbc8cfe40	-0.01721108
127	0x3bf2a12d	0.0074044676

weight f4 [128, 128]
0	0xbc52e4e5	-0.0128719555
1	0xbc5aa2a5	-0.013344442
2	0x3e1a490d	0.15066929
3	0xbd0c2d2b	-0.034222763
4	0x3d149ed9	0.0362843
5	0x3d749362	0.059710868
6	0xbcf4197c	-0.029797308
7	0x3dea4e3a	0.11440702
8	0xbd9c4272	-0.07629861
9	0xbdb3fd08	-0.08788496
10	0xbcdeb2a9	-0.027184801
11	0xbd658b55	-0.05604108
12	0x3cfa2c13	0.030538594
13	0xbbcea163	-0.00630586
14	0xbe414759	-0.18874873
15	0x3b041ee4	0.0020160014
16	0xbe586e57	-0.21135841
17	0x3d8a9c53	0.06768098
18	0x3b907601	0.0044085984
19	0xbcf944dd	-0.030428344
20	0xbb9fb2cb	-0.0048736087
21	0xbe5203c8	-0.20509255
22	0x3e0f9d5a	0.14024869
23	0xbd00d43f	-0.031452414
24	0x3db98900	0.09059334
25	0x3e21e0eb	0.15808456
26	0xbdae7e0a	-0.08520134
27	0xbd810e0c	-0.06301507
28	0xbe013dca	-0.12621227
29	0xbc5fea3f	-0.013666688
30	0x3d9a730d	0.075414754
31	0x3dabb445	0.08383993
32	0xbd97c481	-0.07410527
33	0xbcb4093d	-0.021977061
34	0x3cb59d66	0.02216978
35	0x3d0daef7	0.034590688
36	0xbd1be6df	-0.038061973
37	0xbc96ff94	-0.018432416
38	0x3d51cb2a	0.051219143
39	0x3c14fa26	0.009092843
40	0x3c7b79bd	0.015348849
41	0xbcf174d3	-0.029474651
42	0xbdee361d	-0.11631415
43	0xbc7703b5	-0.015076567
44	0x3db7ebee	0.08980547
45	0x3db26843	0.087112926
46	0x3e03a9d4	0.12857753
47	0x3dfc972c	0.12333521
48	0x3e0fa39f	0.1402726
49	0x3d8ef2e6	0.06979923
50	0x3d8c2455	0.06842867
51	0x3e7aeaba	0.24503604
52	0xbd1cb2e4	-0.03825654
53	0xbdbfe723	-0.09370258
54	0xbde87cb4	-0.1135191
55	0x3df352ba	0.11881013
56	0xbdd34803	-0.103164695
57	0xbd1ae6d9	-0.03781781
58	0x3d184d8b	0.037183326
59	0x3d81bee5	0.06335238
60	0x3d2fde01	0.04293633
61	0xbce28e5a	-0.02765577
62	0xbda5eb19	-0.08101482
63	0x3ddd97b8	0.10819954
64	0xbe58ba6b	-0.21164863
65	0xbd8f8e22	-0.070095316
66	0x3e187af2	0.1489065
67	0x3dfda801	0.1238556
68	0xbd3f88bf	-0.04676127
69	0xbc9ff8b0	-0.019527763
70	0x3d747517	0.059681978
71	0xbcee2f94	-0.029075421
72	0x3ca9d75d	0.020732576
73	0xbd0c8ce0	-0.034314036
74	0x3e0aec31	0.13566662
75	0x3cbac57c	0.022799246
76	0xbdfb8d4e	-0.12282811
77	0xbe98fc24	-0.29879868
78	0xbd8af82c	-0.06785616
79	0xbd84dd81	-0.06487561
80	0xbe416dbe	-0.1888952
81	0xbdf47656	-0.11936633
82	0x3d213aa3	0.03936256
83	0x3e31ee51	0.17376067
84	0x3d449cbf	0.048001047
85	0xbd342774	-0.043982938
86	0xbd704ee7	-0.058668997
87	0xbc173cee	-0.009230835
88	0xbe2a3c70	-0.16624618
89	0x3de71369	0.11282999
90	0x3b81b181	0.0039579277
91	0x3e49e3bf	0.19715784
92	0xbbd707cb	-0.0065622083
93	0x3dc7d20c	0.0975686
94	0x3de4c102	0.11169626
95	0x3c7e1387	0.015507585
96	0xbd848fdb	-0.06472751
97	0xbe8d3551	-0.2757974
98	0x3d3da29a	0.046297647
99	0x3e3a1f97	0.18176113
100	0x3d926aae	0.07149254
101	0xbde8cb45	-0.113668956
102	0xba086621	-0.00052032067
103	0x3e08c9cf	0.13358234
104	0xbd04f480	-0.032459736
105	0x3c344ec1	0.0110051045
106	0x3d771711	0.060324732
107	0x3e0236a9	0.12716164
108	0xbd497fb0	-0.049194038
109	0x3c6424d3	0.013924795
110	0x3e077a35	0.13230212
111	0xbba87be9	-0.0051417244
112	0xbe21c8e4	-0.1579929
113	0x3d269a70	0.040674627
114	0x3dbd9c19	0.09258289
115	0x3e5fcc4d	0.21855278
116	0xbb17526d	-0.00230899
117	0x3aded8bd	0.0017001849
118	0x3bd046e5	0.0063561075
119	0xbe818650	-0.25297785
120	0xbe23d5d4	-0.15999538
121	0x3e132589	0.14369787
122	0xbda44646	-0.08021216
123	0xbe3557b9	-0.17709245
124	0x3dadd951	0.084887154
125	0xbdd37884	-0.10325721
126	0xbd9a11bf	-0.07522916
127	0xbf1dc2ce	-0.61625373
128	0xbd1856d9	-0.0371922
129	0x3d35c1ca	0.044374265
130	0x3b4b9ce5	0.0031068858
131	0x3de68281	0.112553604
132	0x3d6b7d9a	0.05749283
133	0x3a928611	0.0011178871
134	0xbd178be3	-0.03699864
135	0xbd4aaac7	-0.049479272
136	0xbe04acff	-0.12956618
137	0x3da4e9a0	0.08052373
138	0x3c65f8a9	0.014036336
139	0x3e3aa9b8	0.18228805
140	0xbdad799b	-0.0847046
141	0x3dd3ff53	0.103514336
142	0x3da442b6	0.080205366
143	0x3c0598d1	0.00815411
144	0x3b081993	0.0020767197
145	0xbc14990b	-0.009069691
146	0x3d0dbfec	0.03460686
147	0xbd03895c	-0.032113418
148	0x3d52d290	0.05147034
149	0xbb2ffeba	-0.002685471
150	0x3d4c51bc	0.049882635
151	0x3ce4ece7	0.027944995
152	0xbc8d42ac	-0.017243706
153	0x3d74f2c8	0.059801847
154	0x3d4b43ab	0.04962508
155	0x3d958d6f	0.07302367
156	0xbdd6d8b5	-0.10490552
157	0x3be106c3	0.006867261
158	0xbd33aa22	-0.043863423
159	0x3d489b9e	0.048976533
160	0x3db10682	0.086438194
161	0xbe2ba212	-0.16761044
162	0x3c872a45	0.016499648
163	0x3d68cb61	0.056834582
164	0x3bf1d82f	0.0073805074
165	0x3c5927cf	0.01325412
166	0xbbd7a26b	-0.006580641
167	0xbe7025a5	-0.2345186
168	0xbd24c9c3	-0.040231477
169	0xbd0990f4	-0.033585504
170	0x3d0f7550	0.035023987
171	0x3ddbbb68	0.10729104
172	0x38738a66	5.806461e-05
173	0x3d21c1d9	0.03949151
174	0x3d71b2e8	0.05900851
175	0x3c75acd0	0.014994815
176	0x3db78898	0.089616
177	0xbdbb0184	-0.091311485
178	0x3cff8c24	0.031194754
179	0x3b6fef57	0.0036611164
180	0x3dc30f3d	0.09524391
181	0x3d9d7802	0.07688905
182	0xbda5137c	-0.08060357
183	0x3d7470fd	0.059678067
184	0xbd071ffb	-0.032989483
185	0x3d9b6588	0.07587725
186	0xbde563a8	-0.112006485
187	0x3dcc574b	0.09977587
188	0x3de3e64e	0.111279115
189	0xbdb930b9	-0.09042496
190	0xbe152848	-0.14566147
191	0x3d5fceaa	0.05464045
192	0xbda1297a	-0.07869239
193	0xbbd033b0	-0.006353818
194	0xbd8cd41d	-0.06876395
195	0xbc3d9be5	-0.011572813
196	0x3da8b872	0.08238305
197	0x3d79c321	0.060977105
198	0x3d43578c	0.047690913
199	0x3d2d1ca6	0.04226365
200	0xbd11e59f	-0.035619374
201	0xbb87e5fc	-0.0041472893
202	0x3dae4b81	0.08510495
203	0x3d0c8dd6	0.034314953
204	0x3d2113b4	0.03932543
205	0xbd9faa64	-0.07796171
206	0x3d2a3033	0.041549873
207	0xbd56f9f1	-0.052484456
208	0x3dc6e22d	0.09711108
209	0xbd825f87	-0.06365877
210	0x3cf5392a	0.029934485
211	0xbd891859	-0.06694097
212	0x3e058718	0.13039815
213	0xbd7b5400	-0.061359406
214	0x3d0989a5	0.033578534
215	0x3d2efe7d	0.042723168
216	0xbca85734	-0.020549394
217	0x3dbde5a3	0.09272315
218	0xbc3e2097	-0.01160445
219	0x3d4baed8	0.04972729
220	0x3d175e9e	0.03695547
221	0xbdd1f1bc	-0.10251185
222	0x3e2f362d	0.1711051
223	0xbc173503	-0.009228948
224	0xbc5eb956	-0.013593992
225	0xbdb2c37e	-0.087286934
226	0x3c5d0e8b	0.013492237
227	0xbdf158d1	-0.117845185
228	0x3e475724	0.19466835
229	0x3c0b51e7	0.008503414
230	0xbc7b8ab2	-0.015352892
231	0xbc728b07	-0.0148036545
232	0x3df4e224	0.119571954
233	0x3e2aea6c	0.16690987
234	0xbc408bfa	-0.011752123
235	0xbd002b6e	-0.031291418
236	0xbd39e88e	-0.045387797
237	0xbd81aa4c	-0.0633131
238	0xbd8a6761	-0.06757999
239	0x3d80ab5e	0.06282686
240	0xbca01283	-0.019540077
241	0xbd93ba5b	-0.07213279
242	0xbd2b4f58	-0.041823715
243	0x3d9fbe52	0.077999726
244	0xbc10007f	-0.008789181
245	0x3d94c87f	0.07264804
246	0x3d94748e	0.072487935
247	0xbd55a410	-0.052158415
248	0xbd8598bd	-0.06523273
249	0x3ceccd56	0.028906506
250	0xbd8b0d61	-0.06789661
251	0xbd9cb0a9	-0.07650883
252	0x3dccc7d4	0.09999052
253	0xbdbf9c8a	-0.09356029
254	0xbbadd2b0	-0.005304657
255	0xbc9c70f1	-0.019096823

bias f4 [128]
0	0xbdac9899	-0.08427543
1	0x3e178631	0.14797284
2	0xbbf85d2f	-0.0075794677
3	0xbc8f38ac	-0.017483078
4	0xbd3ef62b	-0.046621483
5	0xbdf7831a	-0.120855525
6	0xbd2afc6f	-0.041744646
7	0xbe213a23	-0.15744834
8	0xbe4657a2	-0.19369367
9	0xbdc11708	-0.09428221
10	0xbd4413da	-0.047870494
11	0xbe33fa16	-0.17575869
12	0xbc89d367	-0.016824437
13	0xbce65506	-0.028116714
14	0xbe3e7a55	-0.18601353
15	0xbd9bb1bd	-0.0760226
16	0xbd7b51b3	-0.06135721
17	0x3bf89d92	0.007587143
18	0x3c941940	0.018078446
19	0x3cf151dd	0.02945798
20	0xbd9a5df8	-0.07537454
21	0xbdbeca4c	-0.09315929
22	0xbe81af77	-0.25329182
23	0xbd905805	-0.070480384
24	0xbd616c6d	-0.055035044
25	0xbdfa05ab	-0.12208112
26	0x3e1d882e	0.1538398
27	0x3d261084	0.040543094
28	0xbd9f1c7d	-0.077691056
29	0xbd82d217	-0.06387728
30	0xbdec60bc	-0.11541888
31	0xbe26a9d6	-0.16275725
32	0xbd61946d	-0.05507319
33	0x3c6e9de8	0.014564015
34	0xbd7a555e	-0.06111657
35	0xbde9e135	-0.11419908
36	0xbd2b5f49	-0.041838918
37	0x3e49b64b	0.19698445
38	0x3c8870e4	0.016655393
39	0x3dd8e6f0	0.10590923
40	0x3d9031e8	0.07040769
41	0xbddd1027	-0.107940964
42	0xbe0c52f6	-0.13703522
43	0x3da54ab7	0.08070891
44	0xbe321a87	-0.17392932
45	0xbccb5f90	-0.024825841
46	0x3c8cfad5	0.01720945
47	0x3ca523c4	0.020158656
48	0x3dc2bfe5	0.09509257
49	0x3cebfdca	0.02880754
50	0xbe075ab8	-0.132182
51	0xbc7ebafc	-0.01554751
52	0xbc0701d6	-0.008240184
53	0x3bd58685	0.00651628
54	0x3cc26112	0.023727927
55	0xbd6d16ce	-0.057883076
56	0xbe1c9069	-0.15289463
57	0xb90899cf	-0.00013027269
58	0x3dbc4e5c	0.09194633
59	0xbdd067f8	-0.101760805
60	0xbdda5420	-0.10660577
61	0xbe354887	-0.17703448
62	0xbdbf15ea	-0.09330352
63	0xbda40678	-0.08009046
64	0x3cd88613	0.02643112
65	0xbce62e21	-0.028098168
66	0xbda0c8be	-0.078507885
67	0x3d9380b8	0.072022855
68	0xbdccce79	-0.10000319
69	0xbd8ba946	-0.06819396
70	0xbdc45568	-0.095866024
71	0xbe4358f2	-0.19076899
72	0x3d95a437	0.07306712
73	0x3ba69f49	0.0050849062
74	0xbd72fdb3	-0.059323978
75	0xbd8d0d66	-0.06887321
76	0xbde68d77	-0.11257451
77	0x3da2b02e	0.0794376
78	0x3d85abfe	0.065269455
79	0x3c81a4ef	0.015825717
80	0x3d8f700c	0.07003793
81	0xbd7aee2c	-0.061262295
82	0x3dea7539	0.1144814
83	0xbda4a88b	-0.080399595
84	0xbc4b398b	-0.012403856
85	0xbd2a5556	-0.04158529
86	0xbcc15e12	-0.023604427
87	0x3d298360	0.041385055
88	0xbe03ab95	-0.12858422
89	0xbe0cdda4	-0.13756424
90	0x3e2d36fc	0.16915506
91	0xbbc6aca0	-0.006063059
92	0x3d92d65b	0.07169791
93	0xbdabffb9	-0.083983846
94	0x3e49bf9f	0.19702004
95	0x3d5fc743	0.05463339
96	0xbe81c65a	-0.25346643
97	0x3be5198a	0.00699157
98	0xbe626eb9	-0.2211255
99	0x3cc007bc	0.023441188
100	0x3db20573	0.086924456
101	0x3b901d81	0.0043980484
102	0x3e101ee5	0.14074285
103	0xbc1ca7dc	-0.009561505
104	0xbd89e7cb	-0.06733664
105	0x3d9e17ed	0.07719407
106	0x3df7566e	0.12077032
107	0xbcedfd12	-0.029051337
108	0x3cb584de	0.022158083
109	0x3d156675	0.036474664
110	0xbdda4775	-0.106581606
111	0xbd351c1d	-0.044216264
112	0x3cb065be	0.02153289
113	0x3dc219af	0.09477555
114	0x3dc301db	0.09521838
115	0x3cd67fa3	0.026183909
116	0x3d9f9f93	0.07794108
117	0xbda59396	-0.080847904
118	0x3de388e9	0.11110098
119	0xbd8c8d72	-0.06862916
120	0xbc78f08a	-0.015194068
121	0xbe5efc0a	-0.21775833
122	0xbe19ea04	-0.15030676
123	0xbd05287d	-0.032509316
124	0xbe1045d4	-0.14089137
125	0xbe2df929	-0.16989578
126	0xbdf35f8a	-0.11883457
127	0xbe03955d	-0.12849946

weight f4 [12, 128]
0	0x3cd37681	0.025813343
1	0xbae0b1a0	-0.001714278
2	0x3c765bd6	0.015036544
3	0xbdd33975	-0.103136934
4	0xbcfbbec3	-0.03073061
5	0x3d8064e7	0.062692456
6	0x3c598571	0.013276444
7	0x3daff250	0.08591139
8	0xbd4fff2e	-0.050780468
9	0xbe07dd10	-0.13267922
10	0x3c5811e7	0.013187862
11	0x3ca2cccc	0.019873045
12	0x3d00382c	0.03130357
13	0xbd8e3ed1	-0.06945575
14	0xbc5228d5	-0.012827118
15	0x3da6ec1e	0.081505045
16	0x3cbf482b	0.023349842
17	0x3d17fd63	0.037106883
18	0xbd852261	-0.06500698
19	0x3dd72f1f	0.105070345
20	0x3c7cd396	0.015431305
21	0x3ca85ecd	0.020553017
22	0xbcfa448d	-0.030550266
23	0x3d0245be	0.031804793
24	0x3da4bdde	0.08044027
25	0xbcbca10a	-0.023026008
26	0xbbc5c7bd	-0.0060357735
27	0xbdf0a1ff	-0.11749648
28	0xbd20ccda	-0.03925786
29	0x3d017472	0.03160519
30	0xbdf184c8	-0.11792904
31	0x3cacd754	0.02109877
32	0xbcdc6814	-0.026905097
33	0xbddeb85b	-0.10875007
34	0x3c81a21e	0.015824374
35	0xbd8f60f7	-0.070009165
36	0x3e088150	0.13330579
37	0xbcf6a323	-0.030107087
38	0xbcb0957a	-0.021555651
39	0x3d3b1245	0.04567172
40	0xbca12e81	-0.019675495
41	0x3d9f4613	0.077770375
42	0xbe057132	-0.13031462
43	0x3d52dba9	0.051479015
44	0x3c9c20d3	0.01905862
45	0x3c7f1d2f	0.015570923
46	0xbce870e9	-0.028374152
47	0x3d0a6a30	0.033792675
48	0x3c834f48	0.016029015
49	0x3da75382	0.08170225
50	0x3e5345bb	0.20632069
51	0xbc17e70f	-0.009271397
52	0x3dbe9680	0.09306049
53	0xbdd02584	-0.101634055
54	0x3bb829d4	0.0056202207
55	0x3d6d004a	0.057861604
56	0xbdf35e5d	-0.11883233
57	0xbcf90034	-0.030395605
58	0xbd23032d	-0.03979795
59	0x3cfaa34e	0.030595448
60	0x3d08cc83	0.033398163
61	0xbd664ef2	-0.056227632
62	0x3d4f12fd	0.050555218
63	0x3d5f1e10	0.05447203
64	0x3cef09b1	0.029179426
65	0xbbc76315	-0.0060848095
66	0x3a821967	0.0009925783
67	0x3ccde402	0.025133137
68	0x3d67ae91	0.056562964
69	0x3d511646	0.051046632
70	0xbe15efe1	-0.14642288
71	0xbdb0d12a	-0.08633645
72	0x3cb454a1	0.02201301
73	0xbd2fc6ee	-0.042914324
74	0xbd2578cd	-0.040398408
75	0xbd859792	-0.0652305
76	0x3e14245f	0.14467
77	0xbbddace2	-0.006764994
78	0x3da747dd	0.08168004
79	0xbb994b10	-0.0046781376
80	0xbbaad69d	-0.005213572
81	0xbd80039b	-0.06250688
82	0xbd4b0e1c	-0.049574003
83	0x3e00cb8a	0.12577644
84	0xbd261ba9	-0.040553723
85	0x3cc523b5	0.024064878
86	0xbd7ad6df	-0.061240073
87	0xbd818eae	-0.06326042
88	0x3dbc7695	0.09202305
89	0xbe1c721a	-0.15277901
90	0x3d7cee86	0.06175091
91	0x3c5c8495	0.013459344
92	0xbbc467dc	-0.0059938263
93	0x3c5223c3	0.012825909
94	0xbd5382d9	-0.051638458
95	0x3d33ec74	0.04392667
96	0x3d9cc32e	0.07654415
97	0xbcd3893c	-0.025822274
98	0xbd1d7e61	-0.038450602
99	0xbce32da4	-0.027731724
100	0xbc056eed	-0.008144123
101	0xbde0ea46	-0.10982184
102	0xbc5961c3	-0.013267937
103	0x3cf70080	0.030151606
104	0x3ce69ef4	0.028151967
105	0xbc1250ca	-0.008930394
106	0x3c8b7524	0.01702363
107	0x3ba64550	0.0050741807
108	0x3d85e8b2	0.06538524
109	0x3d2782d9	0.04089627
110	0x3d046aa0	0.032328248
111	0xbe1f4b2c	-0.1555602
112	0xbb504f25	-0.0031785455
113	0xbc429de7	-0.011878467
114	0xbcc20c2e	-0.023687448
115	0xbd85c434	-0.065315634
116	0xbcf63ca4	-0.030058213
117	0xbdaca275	-0.08429424
118	0x3c6b6fa6	0.014369881
119	0xbc906ec6	-0.017630946
120	0xbc9e1195	-0.019295493
121	0x3b878159	0.0041352925
122	0x3d66c692	0.056341715
123	0xbd5b4dea	-0.0535411
124	0xbde80d47	-0.113306575
125	0x3d66dee4	0.05636491
126	0x3dc39a34	0.09550896
127	0x3dbabd80	0.091181755
128	0xbd8a84f7	-0.06763642
129	0xbd2d0d4a	-0.042249
130	0x3c606269	0.013695338
131	0x3c7abd3b	0.015303905
132	0x3dec6319	0.11542339
133	0xbdb029f5	-0.08601753
134	0xbd65800b	-0.056030314
135	0x3d23df26	0.040007733
136	0x3d88e1e3	0.066837095
137	0x3dc9ad4e	0.09847508
138	0xbd106b04	-0.035258308
139	0xbd071961	-0.032983188
140	0xbcd3e538	-0.025866136
141	0x3d0d54cd	0.0345047
142	0x3d09a999	0.033609007
143	0x3d734791	0.059394423
144	0x3c7098ec	0.014684897
145	0x3e131a29	0.14365448
146	0xbdd3e228	-0.1034587
147	0xbdb55fb4	-0.088561445
148	0xbd51cb54	-0.0512193
149	0xbbe260c6	-0.006908509
150	0x3cd40fbd	0.02588641
151	0xbda9821a	-0.08276768
152	0x3d93d790	0.0721885
153	0x3d957e86	0.07299523
154	0x3d18ce24	0.037305966
155	0x3d968040	0.073486805
156	0xbd285b8f	-0.041102942
157	0x3c286fe3	0.010280582
158	0xbd6f68be	-0.0584495
159	0x3df28c44	0.1184316
160	0x3c557a12	0.013029592
161	0x3db06f22	0.08614947
162	0x3d24edc2	0.040265806
163	0x3cb30cc3	0.021856671
164	0x3a177275	0.00057772483
165	0xbcc6d971	-0.024273606
166	0x3d26c2c0	0.04071307
167	0x3c8ac5fd	0.016940111
168	0x3c06da6e	0.008230789
169	0xbca59739	-0.02021371
170	0xbd215122	-0.039384015
171	0xbd20694b	-0.039162915
172	0xbda2e4a5	-0.07953767
173	0x3b27b2a9	0.0025588667
174	0xbd6b77f0	-0.05748743
175	0xbd26cf1a	-0.04072485
176	0x3ba32def	0.004979841
177	0x3d9ae462	0.07563092
178	0x3da2c198	0.07947081
179	0x3d52d050	0.051468194
180	0x3d7db378	0.061938733
181	0xbe193dc1	-0.14964963
182	0xbd0d0046	-0.03442409
183	0xbb771596	-0.0037702075
184	0xbcd0b384	-0.025476225
185	0x3d0d707c	0.0345311
186	0x3d52939b	0.0514103
187	0x3d23893a	0.03992579
188	0xbd19a348	-0.037509233
189	0xbe09ef11	-0.13470103
190	0x3e038e5d	0.12847276
191	0x3cf87582	0.03032947
192	0x3d8375e9	0.06418974
193	0xbe17bda1	-0.14818431
194	0x3d50c9ac	0.05097358
195	0x3c879a46	0.016553055
196	0x3cfc7e14	0.030821837
197	0x3d8b80b2	0.06811656
198	0x3e505657	0.20345436
199	0x3cf72229	0.030167656
200	0x3c23a249	0.009987422
201	0xbcb664a9	-0.022264795
202	0x3deab017	0.11459368
203	0x3c070bc8	0.008242555
204	0x3d88aa8d	0.06673155
205	0x3d2e304b	0.042526525
206	0x3d573d84	0.0525489
207	0xbc1a4de4	-0.009417985
208	0xbd74cb0e	-0.05976396
209	0x3da3222a	0.07965501
210	0xbd1b3358	-0.037890762
211	0xbd8ae9df	-0.067828886
212	0xbdedf0de	-0.116182074
213	0xbd83b863	-0.06431653
214	0x3d795294	0.06086977
215	0x3d09dc77	0.033657517
216	0x3d74e216	0.059785925
217	0xbb1be666	-0.0023788451
218	0x3b12399e	0.0022312175
219	0x3ab1edaa	0.0013574858
220	0x3cd629ae	0.026142921
221	0x3d03741f	0.032093164
222	0xbbed1a71	-0.007235818
223	0x3d417e10	0.047239363
224	0x3dcba214	0.09943023
225	0x3d89aa43	0.06721928
226	0x3aca574e	0.0015437396
227	0x3d0e22be	0.0347011
228	0x3d3ad667	0.045614626
229	0xbe4c9ec5	-0.19982441
230	0xbd080191	-0.03320462
231	0xbd8c31a4	-0.06845406
232	0x3ab920e0	0.0014124177
233	0xba612d6a	-0.0008589836
234	0xbd636dfa	-0.055524804
235	0xbda00fa5	-0.07815484
236	0xbc86eecc	-0.01647129
237	0xbd5b5a17	-0.053552713
238	0x3d461cd3	0.048367333
239	0x3dfd37a5	0.12364129
240	0xbdb631e1	-0.088962324
241	0xbd85f7e3	-0.06541421
242	0xbd41dfdc	-0.04733263
243	0xbd363592	-0.044484682
244	0xbc3d0995	-0.011537929
245	0xbd608326	-0.054812573
246	0xbc85f5ec	-0.016352616
247	0xbc6e9f6e	-0.014564378
248	0xbd0a8bfc	-0.033824906
249	0xbdd697f9	-0.10478205
250	0xbc3a8e20	-0.011386424
251	0xbcb5bbc3	-0.022184258
252	0x3dc178e4	0.09446886
253	0x3ce919b5	0.02845464
254	0xbc941fbd	-0.01808154
255	0xbc306cfb	-0.0107681705

bias f4 [12]
0	0xbdc92a8b	-0.098225676
1	0x3cddec24	0.02709014
2	0x3d4bec73	0.049786042
3	0x3d83828d	0.06421385
4	0xbdb2bcba	-0.08727403
5	0xbb39fb5b	-0.002837858
6	0x3d09d092	0.033646174
7	0xbd4ebd94	-0.050473765
8	0x3e0e5b78	0.1390208
9	0xbe553aa6	-0.20823154
10	0xbdaed219	-0.08536167
11	0x3e900fae	0.28136963
