policy/marvin_policy1.pt (torch, 174326 bytes, 8 tensors)

weight f4 [128, 48]
0.62740153 0.6545057 -0.092172846 -0.012282411 0.1871901 -0.21596172 0.5467297 -0.118231036
-0.21388948 0.29222545 -0.74949783 -0.44469485 0.22065195 0.5834151 0.18020867 -0.22947598
0.47738358 0.10379973 -0.2274217 0.76750356 0.02591536 -0.20789497 -0.13607752 -0.0026782923
0.0052229646 0.0021587284 0.004978498 0.010943517 0.0078090504 -0.0064315237 -0.011882248 0.005973497
0.0064161425 0.003736376 -0.014622309 0.00053216156 -0.042236228 0.1667556 0.12465672 0.099881046
-0.006033953 0.15631463 -0.1130684 -0.11514727 0.045540117 -0.06439529 -0.015252208 -0.09004422
-0.30847883 -0.1491115 0.5687233 -0.0412599 0.057968207 -0.26672018 -1.2083671 0.37687057
-0.19608139 -0.018587114 -0.18031706 0.42867574 0.5614396 0.3744616 0.40144297 -0.25801334
0.44647062 -0.57094896 -0.3125487 -0.19478841 0.054037306 0.029297063 -0.3559415 -0.21734951
-0.012890241 0.012656542 -0.022414517 -0.0168066 -0.024913989 -0.020152736 -0.0011751428 -0.04038987
-0.027657446 -0.051570352 0.026240997 -0.010685463 0.059290852 0.12903501 -0.15017006 -0.025682827
0.0669164 -0.072939865 0.085449114 -0.050298605 -0.10406698 -0.16575116 0.09680803 0.08496531
0.4605451 -0.7722534 -0.27041566 0.05222863 -0.21845138 -0.117545225 -0.25360906 -1.5079231
0.16528775 -0.34277147 0.2581086 0.2977196 -0.46095458 0.12093528 0.7255989 -0.28596786
0.16434205 -0.48008287 -0.30292615 0.7304465 -0.21892469 0.21149632 0.15074362 -0.36996517
-0.0015715415 -0.0033769917 -0.048481815 0.024363762 0.026700856 0.026581336 0.013252733 -0.015397503
0.011402558 0.0027548627 0.025410138 -0.0029361935 0.063296594 0.1335157 0.03687732 0.002537281
-0.00877564 0.016825067 -0.092396654 -0.0019144316 -0.016554052 0.03579743 -0.05621996 0.004037113
-0.123050064 0.3599365 0.044533525 -0.08877255 -0.20618056 -0.29155216 -0.068390556 1.0167199
0.16668011 0.070848405 -0.32555798 -0.14884095 -0.5530515 -1.0412723 0.44190744 -0.13567303
0.51094526 0.38224718 -0.09820451 -0.33488366 -0.16975495 0.20887104 0.59209836 -0.008271087
0.0107229175 -0.01296192 0.009187281 0.0043328987 -0.01425918 -0.029586924 -0.00023530604 -0.026364202
0.026934251 0.015607871 0.015114923 0.04134533 -0.09691365 0.025490025 0.2553357 0.20907696
0.02625725 -0.16667996 0.13153313 0.04932834 0.17617822 -0.0201547 0.045645278 -0.02235999
-0.45717025 0.30022576 -0.11887712 -0.0599026 -0.64822614 0.31064743 -1.4770992 1.82648
0.04344885 0.2355402 0.21490861 -0.13029578 -0.21464045 -0.2542365 0.9545958 0.39441326
0.18824038 -0.2652997 0.043139894 -0.3852393 0.28986123 0.16245379 0.10570314 0.09489168
0.025942624 0.0207023 0.027481606 0.043910917 0.03225739 0.010810501 -0.0016481503 0.0073194546
0.05146329 -0.038539723 0.025036713 -0.031117171 -0.3183438 -0.103982344 -0.22977637 0.07222883
0.24763481 -0.049640145 0.033742942 -0.11037833 0.01851831 -0.061065394 0.05258 0.011002022
0.109818526 0.36161095 -0.04005853 -0.20559946 -0.14209518 -0.1827723 -0.5525038 1.6581801
0.36520964 0.11564722 0.3370988 0.12891161 0.06660785 -0.19464698 -0.11992914 0.24182831
00000000: 639d 203f b08d 273f 1ec5 bcbd 2a3c 49bc
00000010: c3ae 3f3e 1225 5dbe 7af6 0b3f 1d23 f2bd
00000020: d805 5bbe 939e 953e 17df 3fbf 0baf e3be
00000030: 96f2 613e b15a 153f 9f88 383e c0fb 6abe
00000040: 9f6b f43e f494 d43d 3ce1 68be 1d7b 443f
00000050: 734c d43c 6be2 54be e857 0bbe 4a86 2fbb
00000060: 6725 ab3b 7479 0d3b ab22 a33b 704c 333c
00000070: 10e3 ff3b 88bf d2bb c3ad 42bc 53bd c33b
00000080: 813e d23b fddd 743b 6992 6fbc c280 0b3a
00000090: e5ff 2cbd fbc1 2a3e 064c ff3d 6f8e cc3d
000000a0: 77b8 c5bb f110 203e 6890 e7bd 55d2 ebbd
000000b0: 4688 3a3d aee1 83bd 66e4 79bc 1b69 b8bd
000000c0: f0f0 9dbe afb0 18be da97 113f 2400 29bd
000000d0: 1270 6d3d 8c8f 88be c6ab 9abf 2ef5 c03e
000000e0: 8fc9 48be 0144 98bc 09a5 38be 637b db3e
000000f0: 81ba 0f3f 6eb9 bf3e ef89 cd3e 531a 84be
00000100: cc97 e43e b629 12bf 6206 a0be 9d76 47be
00000110: 3956 5d3d 6500 f03c f73d b6be df90 5ebe
00000120: 9731 53bc 625d 4f3c a69e b7bc ffad 89bc
00000130: 6c18 ccbc 5a17 a5bc 4007 9aba d96f 25bd
00000140: de91 e2bc 6f3b 53bd 5cf7 d63c 1512 2fbc
00000150: f7da 723d c121 043e 2ec6 19be cb64 d2bc
00000160: 770b 893d 7f61 95bd f2ff ae3d e905 4ebd
00000170: 1221 d5bd acba 29be 4a43 c63d 4b02 ae3d
00000180: 91cc eb3e 66b2 45bf ec73 8abe b0ed 553d
00000190: b8b1 5fbe 8dbb f0bd 0cd9 81be a003 c1bf
000001a0: 3141 293e be7f afbe cf26 843e b46e 983e
000001b0: 3d02 ecbe ebac f73d d9c0 393f 616a 92be
000001c0: 4849 283e 6ccd f5be 2319 9bbe 8bfe 3a3f
000001d0: cb2d 60be 7e92 583e 895c 1a3e 136c bdbe
000001e0: 2ffc cdba 8550 5dbb de94 46bd 8396 c73c
000001f0: c1bb da3c 1ac1 d93c fe21 593c cf45 7cbc
00000200: cbd1 3a3c ed8a 343b ec28 d03c 276d 40bb
00000210: a5a1 813d 57b8 083e ac0c 173d 8348 263b
00000220: b4c7 0fbc b9d4 893c 753a bdbd aaed faba
00000230: 5d9c 87bc 53a0 123d e746 66bd c249 843b
00000240: ac01 fcbd 9949 b83e c968 363d 62ce b5bd
00000250: ff20 53be 5346 95be 5910 8cbd e123 823f
00000260: 31ae 2a3e f818 913d 89af a6be c369 18be
00000270: c894 0dbf 6948 85bf b141 e23e dfed 0abe
00000280: 4fcd 023f e7b5 c33e 721f c9bd df75 abbe
00000290: 3ed4 2dbe 4ae2 553e c293 173f 7483 07bc
000002a0: 2daf 2f3c 3c5e 54bc 4086 163c fdfa 8d3b
000002b0: 569f 69bc 4760 f2bc 7cbc 76b9 bdf9 d7bc
000002c0: 38a5 dc3c 28b8 7f3c 95a4 773c b959 293d
000002d0: aa7a c6bd 75d0 d03c 5cbb 823e 4518 563e
000002e0: 7219 d73c 27ae 2abe 9fb0 063e 830c 4a3d
000002f0: 1068 343e 781b a5bc 8bf6 3a3d 4c2c b7bc
00000300: 3812 eabe 31b7 993e d975 f3bd 6e5c 75bd
00000310: 26f2 25bf 2e0d 9f3e 9611 bdbf 19ca e93f
00000320: 6cf7 313d 7331 713e 0111 5c3e 426c 05be
00000330: b5ca 5bbe 492b 82be 6460 743f 89f0 c93e
00000340: 16c2 403e 5dd5 87be 75b3 303d 163e c5be
00000350: b168 943e 495a 263e e37a d83d 9256 c23d
00000360: a085 d43c df97 a93c 1b21 e13c efdb 333d
00000370: 5320 043d 871e 313c bf06 d8ba 09d8 ef3b
00000380: 2ccb 523d d4db 1dbd cb19 cd3c 70e9 febc
00000390: f5fd a2be b2f4 d4bd 7f4a 6bbe b5ec 933d
000003a0: fb93 7d3e 7753 4bbd 0a36 0a3d 090e e2bd
000003b0: b6b3 973c b51f 7abd 205e 573d d341 343c
000003c0: 89e8 e03d 1225 b93e 6a14 24bd aa88 52be
000003d0: 6681 11be a928 3bbe e470 0dbf 3f3f d43f
000003e0: c2fc ba3e 73d8 ec3d 3798 ac3e 6801 043e
000003f0: b269 883d 8a51 47be 699d f5bd d7a1 773e

bias f4 [128]
0.031482596 0.22808409 -0.03163833 0.014680097 -0.17258406 -0.40062404 0.04903423 -0.12176471
-0.20292269 0.15837215 0.13617079 0.28780088 0.013380031 -0.0864039 0.46729833 -0.09779569
-0.2815858 0.026604716 -0.05245162 0.03248057 -0.11281414 -0.16603462 0.063543364 -0.08055821
0.07131143 -0.015509746 -0.3006159 0.23378944 0.34937277 0.1553946 -0.1752591 -0.18077025
0.02133434 0.03723195 0.14348394 -0.008613298 -0.1787381 0.11954452 -0.13376848 0.033573516
-0.15676786 0.3046514 0.055817463 -0.2992147 0.22019513 0.22107492 0.3233207 -0.125529
0.124785855 -0.26286387 0.13139415 0.10516634 -0.19392245 -0.012286426 -0.13455518 -0.03071003
-0.38210273 -0.06612866 0.17503063 -0.06697794 -0.012637217 0.04101383 -0.22327186 0.21984558
-0.4124788 0.06894373 0.20231305 -0.18201344 0.037900977 0.088664986 0.21924232 -0.16139425
-0.16806963 -0.13087751 -0.1557048 0.18689053 -0.23314738 -0.07829196 -0.1549303 -0.20201452
-0.08432783 -0.033113267 -0.13083981 0.21870594 0.18649879 -0.020451607 -0.40088788 -0.055380914
0.044599764 0.50550145 -0.1787212 0.4192753 -0.050498463 0.098002225 0.06968233 -0.13723166
-0.0939679 -0.069134705 0.30159703 0.23667984 -0.12045074 0.08126783 -0.049980614 0.18761024
-0.17176504 0.03206636 0.043182578 0.26495668 0.2519712 0.12944113 -0.043378495 -0.066514656
-0.0022355895 0.028762015 -0.12207209 -0.16421053 0.092259325 0.13226256 0.08334382 0.27712166
0.0776364 -0.14712907 -0.20579253 0.01425481 -0.40579724 0.16780648 -0.15937424 -0.06566639
00000000: e5f3 003d e08e 693e 3297 01bd ca84 703c
00000010: e0b9 30be 981e cdbe 1ed8 483d c75f f9bd
00000020: f7ca 4fbe 4f2c 223e 5b70 0b3e a35a 933e
00000030: eb37 5b3c 87f4 b0bd ba41 ef3e 1b49 c8bd
00000040: 042c 90be 22f2 d93c 83d7 56bd 590a 053d
00000050: 1a0b e7bd fb04 2abe 0623 823d b4fb a4bd
00000060: ba0b 923d 971c 7ebc 54ea 99be 8066 6f3e
00000070: fde0 b23e c31f 1f3e 1f77 33be d61b 39be
00000080: 5bc5 ae3c 8780 183d 74ed 123e ca1e 0dbc
00000090: 1f07 37be c2d3 f43d 9bfa 08be 6284 093d
000000a0: c187 20be 45fb 9b3e daa0 643d ab32 99be
000000b0: d57a 613e 7761 623e 4a8a a53e ad8a 00be
000000c0: ba8f ff3d 1896 86be 308c 063e 7361 d73d
000000d0: 9b93 46be 014d 49bc d5c8 09be 9a93 fbbc
000000e0: f8a2 c3be 776e 87bd 3b3b 333e bb2b 89bd
000000f0: 540c 4fbc 1efe 273d 61a1 64be 331f 613e
00000100: 6c30 d3be 5f32 8d3d 272b 4f3e bb61 3abe
00000110: 0e3e 1b3d fd95 b53d 0f81 603e 8944 25be
00000120: 721a 2cbe c104 06be 1471 1fbe 3b60 3f3e
00000130: 30be 6ebe 8957 a0bd 0ca6 1ebe e5dc 4ebe
00000140: 12b4 acbd c7a1 07bd dffa 05be 73f4 5f3e
00000150: 8af9 3e3e 218a a7bc 2d41 cdbe 19d7 62bd
00000160: 3eae 363d 8b68 013f b102 37be 41ab d63e
00000170: 7ad7 4ebd 64b5 c83d 9cb5 8e3d 7586 0cbe
00000180: 3e72 c0bd 7f96 8dbd ed6a 9a3e 335c 723e
00000190: e1ae f6bd c06f a63d 79b8 4cbd e61c 403e
000001a0: 2de3 2fbe 0458 033d 37e0 303d 67a8 873e
000001b0: 5e02 813e 378c 043e a6ad 31bd d638 88bd
000001c0: f882 12bb 519e eb3c ef00 fabd ce26 28be
000001d0: 75f2 bc3d d66f 073e 2ab0 aa3d e4e2 8d3e
000001e0: d5ff 9e3d 01a9 16be 47bb 52be 028d 693c
000001f0: a8c4 cfbe 76d5 2b3e 0033 23be 1a7c 86bd

weight f4 [128, 128]
-0.01132448 0.052401878 -0.011218261 0.22877656 0.20711021 0.10422473 0.117478214 -0.03395804
0.114995 0.030958751 0.011686104 -0.19591744 -0.20922999 0.10426454 -0.19970956 0.2944302
0.017382264 0.047806785 -0.03837382 0.008034281 -0.21090685 -0.05498475 0.0041151196 0.101681896
0.03196238 0.017949209 -0.041342698 -0.13292678 0.035762075 0.1761246 -0.074955925 0.065126136
-0.04034556 -0.045085423 -0.25539896 -0.18186735 -0.05398969 0.12938122 -0.052399285 0.12617777
0.051819433 0.01867631 -0.14940345 0.2018314 0.16231546 0.017334174 0.066255935 0.020338688
-0.11371071 -0.14443782 0.13438979 -0.09100571 -0.115372136 -0.18626429 -0.015020666 -0.07793657
-0.046352457 0.18104514 0.04645075 -0.14833905 0.18635449 -0.0368317 -0.004077756 0.047323212
0.05264463 0.06806288 0.084539756 -0.17551263 -0.007883202 0.20118172 -0.084726386 -0.11737046
-0.13020945 -0.037847206 -0.17086118 0.1331483 -0.2355278 -0.13607115 0.04067729 0.058759533
-0.056695182 0.092276394 -0.02017511 -0.21403788 -0.032784723 0.056510296 -0.114437535 0.0025716445
-0.2758887 0.21488705 0.14048868 -0.3688535 -0.10867384 -0.06574397 0.0047154315 0.07978651
0.0829499 0.17616096 -0.1580489 0.20909396 0.38754782 0.009870446 -0.15747496 0.04242902
-0.09868143 -0.13683948 0.049152065 0.053393085 -0.1011692 -0.19069411 -0.20186055 0.23093957
-0.09839658 -0.03009294 -0.22156675 -0.06626413 0.004015867 0.39056078 -0.6271489 -0.05559263
-0.055489734 0.09800594 0.11142503 -0.11085282 -0.07288709 -0.049650088 -0.054476116 0.041038956
0.11905103 -0.06522581 -0.00040872974 0.040015075 -0.20503682 -0.02203529 -0.039241664 0.059312776
0.29367852 0.06830593 0.13942116 -0.3057512 0.08366655 0.08761685 -0.00770378 -0.030838067
-0.028587395 -0.22607075 0.028779136 0.08063253 0.09394175 -0.003577577 -0.08464376 0.026196394
0.06527739 0.056625474 0.16285221 -0.05196095 0.0057150773 -0.024051793 0.052986722 -0.046179734
0.0070237406 0.017591601 0.030648846 0.21030274 0.15391134 0.10015853 -0.070875555 -0.026851576
0.033248913 -0.05192202 0.037326995 -0.015186236 0.068693586 -0.060903672 0.072103254 0.024064597
-0.06275227 -0.3331617 -0.060984403 0.06359045 0.0050267084 0.14245445 -0.06690472 -0.011368154
0.04471194 -0.08047113 0.0023720996 -0.052990377 0.19933619 -0.025310177 0.10723055 -0.001048172
0.03501292 -0.050562877 0.10491673 0.14744027 -0.007985535 -0.019294903 0.09935473 -0.039526306
-0.03972799 0.10305199 0.009392612 -0.18263885 0.01966053 0.099595785 0.068356544 -0.02420945
0.04302536 -0.15509987 -0.0848647 -0.031160431 -0.048385795 -0.04381717 0.1710804 0.08004314
0.037308056 -0.06560146 -0.024182118 0.40235743 -0.2311869 -0.20248178 -0.1693933 -0.18233901
0.06578776 -0.044525933 0.06507326 0.011293666 0.057259843 0.041810866 -0.1074213 -0.027075307
0.11242206 0.012818372 -0.05685297 0.026956193 -0.0796416 0.025016302 0.04302529 0.050237693
0.014830627 -0.0008766133 -0.115918815 0.042410504 0.01480967 -0.1166345 -0.032222472 -0.053239368
0.09951348 0.021061584 0.02362132 0.06856527 -0.120155476 0.030303152 -0.0078284 -0.18363039
00000000: 508a 39bc 5aa3 563d cccc 37bc 6744 6a3e
00000010: b314 543e c673 d53d 6b98 f03d 9617 0bbd
00000020: 8082 eb3d 359d fd3c 1377 3f3c 959e 48be
00000030: 6340 56be a688 d53d aa80 4cbe 8ebf 963e
00000040: 4065 8e3c 0cd1 433d de2d 1dbd 38a2 033c
00000050: f7f7 57be b037 61bd 20d8 863b 993e d03d
00000060: fcea 023d 380a 933c f656 29bd f51d 08be
00000070: 417b 123d 025a 343e 7e82 99bd da60 853d
00000080: 6341 25bd 7eab 38bd a7c3 82be 6f3b 3abe
00000090: 4b24 5dbd 837c 043e a2a0 56bd bf34 013e
000000a0: 9d40 543d 10ff 983c 38fd 18be e4ac 4e3e
000000b0: 0636 263e 6600 8e3c 31b1 873d 529d a63c
000000c0: 29e1 e8bd 82e7 13be 7a9d 093e 3461 babd
000000d0: 3a48 ecbd 11bc 3ebe 3d19 76bc 359d 9fbd
000000e0: 13dc 3dbd e663 393e 2443 3e3d 31e6 17be
000000f0: b6d3 3e3e d6dc 16bd b29e 85bb fcd5 413d
00000100: e5a1 573d 8d64 8b3d 2e23 ad3d 95b9 33be
00000110: 8c28 01bc 9502 4e3e 0785 adbd ec5f f0bd
00000120: a055 05be ac05 1bbd 3cf6 2ebe 0758 083e
00000130: 332e 71be 3c56 0bbe 3b9d 263d d6ad 703d
00000140: 3539 68bd 68fb bc3d 4646 a5bc bf2c 5bbe
00000150: 4649 06bd 5777 673d 3a5e eabd 0989 283b
00000160: 4941 8dbe 5a0b 5c3e 44dc 0f3e 5eda bcbe
00000170: 6490 debd c6a4 86bd e883 9a3b 1c67 a33d
00000180: a3e1 a93d 8a63 343e 92d7 21be ba1c 563e
00000190: ab6c c63e a7b7 213c 1e41 21be 0dca 2d3d
000001a0: 7d19 cabd a61f 0cbe ad53 493d b5b2 5a3d
000001b0: cc31 cfbd 5145 43be 88b4 4ebe 6c7b 6c3e
000001c0: 2584 c9bd 7885 f6bc 65e2 62be 7db5 87bd
000001d0: 8997 833b 95f7 c73e d58c 20bf 19b5 63bd
000001e0: 3449 63bd 57b7 c83d ce32 e43d ce06 e3bd
000001f0: d445 95bd e45d 4bbd 5922 5fbd 7718 283d
00000200: 07d1 f33d 1c95 85bd c74a d6b9 d9e6 233d
00000210: 2cf5 51be 5a83 b4bc debb 20bd f4f1 723d
00000220: 085d 963e fbe3 8b3d 6cc4 0e3e 6c8b 9cbe
00000230: 5e59 ab3d 7770 b33d fe6f fcbb 1da0 fcbc
00000240: 1d30 eabc 177f 67be 39c2 eb3c ab22 a53d
00000250: 8864 c03d c875 6abb b559 adbd d299 d63c
00000260: 27b0 853d 1df0 673d bbc2 263e 01d5 54bd
00000270: 8b45 bb3b 4408 c5bc 9b08 593d f626 3dbd
00000280: 6827 e63b 431c 903c 4a13 fb3c 9a59 573e
00000290: ef9a 1d3e ea1f cd3d 3427 91bd d6f7 dbbc
000002a0: 0330 083d 2fac 54bd 31e4 183d b1cf 78bc
000002b0: 39af 8c3d 2176 79bd dfaa 933d 1e23 c53c
000002c0: 4384 80bd 2c94 aabe c8ca 79bd b63b 823d
000002d0: 16b7 a43b 94df 113e 5805 89bd 7e41 3abc
000002e0: de23 373d 0cce a4bd 3a75 1b3b 700c 59bd
000002f0: c91e 4c3e 4a57 cfbc b19b db3d d162 89ba
00000300: b569 0f3d 051b 4fbd 95de d63d 95fa 163e
00000310: c3d5 02bc 5810 9ebc 7e7a cb3d 56e6 21bd
00000320: d1b9 22bd ec0c d33d 78e3 193c ae05 3bbe
00000330: 1f0f a13c e0f8 cb3d 84fe 8b3d e652 c6bc
00000340: 5c3b 303d 80d2 1ebe 8bcd adbd 2944 ffbc
00000350: 2f30 46bd a279 33bd b32f 2f3e a8ed a33d
00000360: 55d0 183d 0f5a 86bd 9419 c6bc cb01 ce3e
00000370: 42bc 6cbe 6257 4fbe 7075 2dbe 14b7 3abe
00000380: bcbb 863d d360 36bd 2145 853d 1209 393c
00000390: 4c89 6a3d df41 2b3d b3ff dbbd 09cd ddbc
000003a0: 893d e63d 2604 523c a9de 68bd 3cd3 dc3c
000003b0: 231b a3bd fdee cc3c 493b 303d 0ac6 4d3d
000003c0: 28fc 723c 86cc 65ba d866 edbd a3b6 2d3d
000003d0: 42a4 723c 12de eebd b6fb 03bd 8611 5abd
000003e0: b9cd cb3d 5889 ac3c 8081 c13c f36b 8c3d
000003f0: 1314 f6bd 513e f83c b042 00bc 9b09 3cbe

bias f4 [128]
0.073725 0.027607363 -0.13194671 0.022623623 -0.20230655 -0.06983133 0.0074641784 -0.35876533
-0.028047523 -0.0043993965 -0.27480355 0.01688055 -0.011683135 -0.4456132 -0.14782393 -0.054300092
-0.22677022 -0.012088502 -0.19213802 -0.22370155 0.0052185445 0.05842812 -0.4479548 -0.3462358
-0.030145809 -0.22672562 0.13741384 0.20033471 -0.06413876 0.045761295 -0.051470015 -0.094852306
0.062190138 -0.03044245 -0.05433845 -0.14650312 -0.053924862 -0.26379108 0.050021898 -0.086316064
0.0974417 0.042369723 0.069125675 -0.14244933 -0.075397834 -0.0717597 -0.091477044 0.013944346
-0.34162453 -0.39274424 -0.12294166 0.023734443 -0.11068509 -0.027034374 -0.09641771 -0.20400411
-0.24306174 0.12792511 -0.116101995 -0.051417127 0.058592 0.11367549 0.15160812 -0.19372417
0.04628246 -0.09394354 -0.14104527 -0.25710884 0.033145487 0.084581055 0.053888217 0.063656636
-0.09768229 -0.095424 0.028812217 -0.045085095 -0.06257003 0.11942931 -0.05662407 -0.10709748
-0.060561217 -0.050681602 -0.32718474 -0.12898786 -0.15651686 -0.13861246 -0.11888193 0.05856513
-0.06031066 0.03563403 0.11975733 -0.25160843 -0.10051739 0.044989966 -0.03090303 -0.022510437
0.12328756 -0.0065982025 0.076230675 -0.03582455 0.024123356 -0.12057161 0.11834792 -0.01043157
-0.14909098 -0.05727216 -0.17226945 -0.064743534 0.027271964 -0.25658944 -0.14105679 -0.04986777
-0.08166858 -0.11874252 -0.0051402566 -0.13123165 -0.4396489 0.13407011 0.010519944 0.014840402
-0.039751448 -0.072174616 0.13678205 -0.022232868 -0.10654643 0.038897853 -0.020895028 0.00336926
00000000: 22fd 963d d628 e23c 0a1d 07be 2d55 b93c
00000010: 7329 4fbe ba03 8fbd 1196 f43b 17b0 b7be
00000020: ebc3 e5bc d028 90bb 0db3 8cbe 1449 8a3c
00000030: 9f6a 3fbc 6a27 e4be 285f 17be c669 5ebd
00000040: 7436 68be da0e 46bc d4bf 44be 0512 65be
00000050: 5300 ab3b 5352 6f3d 555a e5be d245 b1be
00000060: 58f4 f6bc c32a 68be 37b6 0c3e 8b24 4d3e
00000070: 2f5b 83bd 3270 3b3d 39d2 52bd ed41 c2bd
00000080: 16bb 7e3d 7262 f9bc ff91 5ebd ea04 16be
00000090: 51e0 5cbd a00f 87be c3e3 4c3d 7ac6 b0bd
000000a0: 848f c73d e08b 2d3d c391 8d3d 3dde 11be
000000b0: 2e6a 9abd c0f6 92bd 5158 bbbd d476 643c
000000c0: 69e9 aebe c615 c9be d6c8 fbbd bc6e c23c
000000d0: ddae e2bd 3177 ddbc a676 c5bd 74e6 50be
000000e0: 2de5 78be cdfe 023e e2c6 edbd c49a 52bd
000000f0: 2afe 6f3d b2ce e83d 293f 1b3e a15f 46be
00000100: ad92 3d3d 7865 c0bd 2c6e 10be c5a3 83be
00000110: 90c3 073d d538 ad3d e4b9 5c3d 695e 823d
00000120: a70d c8bd a86d c3bd 9907 ec3c 26ab 38bd
00000130: b724 80bd 5b97 f43d a4ee 67bd ec55 dbbd
00000140: 0a0f 78bd 8397 4fbd c284 a7be 6515 04be
00000150: f545 20be 6df0 0dbe 5f78 f3bd fde1 6f3d
00000160: 5008 77bd fdf4 113d 5543 f53d d2d2 80be
00000170: 10dc cdbd 6647 383d 5a28 fdbc cf67 b8bc
00000180: 307e fc3d bc35 d8bb d41e 9c3d c3bc 12bd
00000190: 589e c53c 40ee f6bd 6560 f23d 2de9 2abc
000001a0: 4eab 18be 3696 6abd 6767 30be 4298 84bd
000001b0: 7469 df3c b15f 83be 3171 10be 2642 4cbd
000001c0: db41 a7bd 472f f3bd 996f a8bb 9761 06be
000001d0: a919 e1be ad49 093e d85b 2c3c 2825 733c
000001e0: 6ad2 22bd 49d0 93bd 9810 0c3e b421 b6bc
000001f0: 0435 dabd 5b53 1f3d 0d2c abbc cece 5c3b

weight f4 [128, 128]
-0.012543788 -0.0075942213 0.10456485 -0.038727384 0.0456842 0.013637649 0.013925699 0.13194844
-0.1008377 -0.099113256 -0.029000228 -0.05878131 0.058735397 -0.036132623 -0.20497376 -0.019855926
-0.23923245 0.06976323 -0.007391995 -0.037816983 -0.06731421 -0.19299285 0.090347104 -0.012926625
0.06855219 0.1978062 -0.061442222 -0.07288524 -0.117224604 -0.006112385 0.11970144 0.06022973
-0.10290253 -0.008067875 0.040640447 0.041651137 -0.032575376 0.004947013 0.060874876 0.015663072
0.057232726 -0.052976023 -0.07390063 -0.031111784 0.08064586 0.07279303 0.17339276 0.13625102
0.18600678 0.08136557 0.1092858 0.24230678 -0.08347588 -0.090573095 -0.09432947 0.11189645
-0.09684528 -0.023893364 0.057277106 0.03948988 0.069869936 -0.020375038 -0.049807005 0.07341296
-0.158295 -0.065672025 0.15162888 0.10575072 -0.04475774 -0.048386108 0.04011638 -0.051625457
0.023140347 -0.105993785 0.11486813 -0.00532038 -0.13493435 -0.29058528 -0.06794979 -0.030008268
-0.1539052 -0.15503176 0.06005871 0.1852693 0.052896783 -0.03796146 -0.024196625 -0.021448491
-0.18012719 0.122422926 -0.012355623 0.26176187 -0.04124924 0.08169434 0.091690294 0.0038914396
-0.04055317 -0.31292373 0.039277315 0.19505033 0.064727634 -0.11136263 0.013700961 0.1403177
-0.0010748225 0.040952954 0.06155181 0.085116096 -0.053861097 0.004132881 0.14555776 0.022170754
-0.14877361 0.055916354 0.09131381 0.19416632 0.004738472 0.05408668 -0.012389518 -0.26251185
-0.21977697 0.1625862 -0.08632592 -0.19414037 0.10623155 -0.09154301 -0.046255387 -0.77389735
-0.044625264 0.04556501 0.027210282 0.112210825 0.07247284 -0.03154957 -0.014141666 -0.03892641
-0.10658227 0.08511722 0.014092643 0.19646843 -0.10163142 0.09143005 0.09202962 -0.0069481684
-0.019739449 -0.0024207698 0.024434002 -0.016997056 0.035590447 -0.0003238111 0.029179597 0.03118581
-0.03840472 0.093037434 0.07604017 0.079052076 -0.11998973 -2.6412097e-05 -0.0451972 0.036977306
0.07320611 -0.16709477 0.0010897858 0.04199028 0.020921906 0.027231975 -0.007846551 -0.19870989
-0.018443864 -0.034626503 0.05535933 0.12146922 -0.0051205205 0.037640665 0.07489861 0.002917227
0.10410387 -0.06986893 0.0048599057 0.031385977 0.09381748 0.080518655 -0.054726947 0.06119576
-0.0030374913 0.08740424 -0.078835815 0.10688612 0.10751438 -0.06676317 -0.1924011 0.058914017
-0.058402315 0.015520073 -0.057667647 -0.013928192 0.10375371 0.061272945 0.036482457 0.05375884
-0.01582978 -0.0018674147 0.09259386 0.05574077 0.037098646 -0.071660236 0.033395153 -0.058679033
0.0949874 -0.06003531 0.014113262 -0.06210749 0.10146298 -0.0602455 -0.004755274 0.06085525
-0.019561818 0.101517715 -0.0030167708 0.045577057 0.035905067 -0.12240974 0.16968392 -0.004099283
0.0076618847 -0.0941811 0.010758954 -0.14139687 0.20241031 0.028205289 0.0053333417 -0.034274608
0.123361856 0.14958964 -0.009453167 -0.03269824 -0.057132952 -0.050585125 -0.082258575 0.079845436
-0.029546853 -0.058105968 -0.037008893 0.061799157 -0.014543082 0.06302622 0.06945764 -0.050162897
-0.07641238 0.01836289 -0.06492142 -0.08679779 0.08974908 -0.10540055 -0.014208007 -0.029764205
00000000: 7684 4dbc f2d8 f8bb 1926 d63d 9ba0 1ebd
00000010: 5b1f 3b3d 7270 5f3c 9d28 643c 7e1d 073e
00000020: ff83 cebd e4fb cabd e391 edbc acc4 70bd
00000030: 8794 703d cdff 13bd a4e4 51be e5a8 a2bc
00000040: 5af9 74be 06e0 8e3d 8c38 f2bb fbe5 1abd
00000050: 08dc 89bd eb9f 45be e707 b93d 32ca 53bc
00000060: 1765 8c3d b58d 4a3e d7aa 7bbd db44 95bd
00000070: 7413 f0bd 674a c8bb 0726 f53d 73b3 763d
00000080: 90be d2bd 1f2f 04bc 9976 263d 629a 2a3d
00000090: c26d 05bd 8e1a a23b ef57 793d d84f 803c
000000a0: dd6c 6a3d 63fd 58bd 3759 97bd 24de febc
000000b0: a829 a53d 8314 953d df8d 313e 6385 0b3e
000000c0: 9078 3e3e fea2 a63d 3cd1 df3d 451f 783e
000000d0: 67f5 aabd 637e b9bd cf2f c1bd f729 e53d
000000e0: d156 c6bd 04bc c3bc 669b 6a3d 24c0 213d
000000f0: f817 8f3d 8de9 a6bc 6e02 4cbd 8959 963d
00000100: 1618 22be 0e7f 86bd 9a44 1b3e d593 d83d
00000110: e453 37bd 8330 46bd 1351 243d 3775 53bd
00000120: d390 bd3c 4513 d9bd fb3f eb3d 9556 aebb
00000130: 3b2c 0abe 98c7 94be 4229 8bbd e6d3 f5bc
00000140: 5399 1dbe a5c0 1ebe 1f00 763d 3cb7 3d3e
00000150: 4caa 583d 7a7d 1bbd 0038 c6bc bfb4 afbc
00000160: 4373 38be dfb8 fa3d 3d6f 4abc a705 863e
00000170: f7f4 28bd 5d4f a73d 1fc8 bb3d 8607 7f3b
00000180: 151b 26bd 8a37 a0be 40e1 203d 46bb 473e
00000190: ec8f 843d 1712 e4bd ff79 603c 71af 0f3e
000001a0: 0fe1 8cba 49be 273d c01d 7c3d 5951 ae3d
000001b0: 749d 5cbd 1e6d 873b 180d 153e 719f b53c
000001c0: 1c58 18be 8c08 653d bc02 bb3d 89d3 463e
000001d0: 2f45 9b3b ff89 5d3d 68fd 4abc f467 86be
000001e0: 370d 61be ff7c 263e a5cb b0bd bccc 46be
000001f0: ed8f d93d e77a bbbd 4a76 3dbd 231e 46bf
00000200: fbc8 36bd 60a2 3a3d 19e8 de3c cace e53d
00000210: a46c 943d 1f3a 01bd 72b2 67bc 4d71 1fbd
00000220: ce47 dabd f051 ae3d d4e4 663c 052f 493e
00000230: 2224 d0bd ae3f bb3d 077a bc3d 76ad e3bb
00000240: a0b4 a1bc c7a5 1ebb d129 c83c 693d 8bbc
00000250: 4ac7 113d 31c5 a9b9 0d0a ef3c 6279 ff3c
00000260: 454e 1dbd 698a be3d f3ba 9b3d 0ee6 a13d
00000270: 2dbd f5bd 8c8f ddb7 b320 39bd 8475 173d
00000280: 16ed 953d e41a 2bbe 25d7 8e3a 00fe 2b3d
00000290: 6b64 ab3c 9715 df3c d28e 00bc 9b7a 4bbe
000002a0: 9617 97bc 85d4 0dbd 77c0 623d dbc4 f83d
000002b0: 0aca a7bb 192d 1a3d 7164 993d f32e 3f3b
000002c0: 6934 d53d 7117 8fbd d83f 9f3b 958e 003d
000002d0: 6123 c03d f7e6 a43d 5d29 60bd 68a8 7a3d
000002e0: a610 47bb ff00 b33d ac74 a1bd 1ce7 da3d
000002f0: 8030 dc3d 21bb 88bd cb04 45be d34f 713d
00000300: 4437 6fbd e747 7e3c e934 6cbd 1233 64bc
00000310: d37c d43d 57f9 7a3d a16e 153d 3b32 5c3d
00000320: 74ad 81bc 0ac4 f4ba daa1 bd3d 6f50 643d
00000330: c0f4 173d 9ac2 92bd 5bc9 083d 6d59 70bd
00000340: c188 c23d 96e7 75bd 503b 673c 6c64 7ebd
00000350: d3cb cf3d fcc3 76bd 21d2 9bbb 5b43 793d
00000360: 1b40 a0bc 85e8 cf3d 04b5 45bb 02af 3a3d
00000370: 3111 133d f5b1 fabd 9fc1 2d3e 4753 86bb
00000380: 8c10 fb3b 05e2 c0bd 5346 303c 57ca 10be
00000390: a644 4f3e c70e e73c 50c3 ae3b 8863 0cbd
000003a0: 24a5 fc3d 072e 193e 75e1 1abc 97ee 05bd
000003b0: 3e04 6abd 5932 4fbd 2f77 a8bd 0186 a33d
000003c0: 3e0c f2bc 8600 6ebd a396 17bd 1d21 7d3d
000003d0: 1b46 6ebc e413 813d cf3f 8e3d 9c77 4dbd
000003e0: 187e 9cbd c66d 963c 85f5 84bd 0ac3 b1bd
000003f0: 5ece b73d 3edc d7bd b3c8 68bc 10d4 f3bc

bias f4 [128]
-0.1034335 0.15883078 -0.0401027 -0.03032876 -0.06764436 -0.11641179 -0.050209258 -0.1668183
-0.22162142 -0.09180415 -0.0777107 -0.20213422 -0.025190914 -0.042772975 -0.22614393 -0.07486545
-0.064453155 0.005152732 0.01336248 0.030640101 -0.075100645 -0.10087364 -0.32732683 -0.1164566
-0.04345959 -0.14273089 0.1693507 0.022601116 -0.07901028 -0.07397518 -0.119336486 -0.1942297
-0.058250524 0.027338982 -0.06376053 -0.13455522 -0.036979135 0.2026856 0.000541095 0.10480897
0.07393333 -0.12658405 -0.14195833 0.07993985 -0.22237056 -0.040008377 0.014826001 0.016981935
0.0954131 0.038248274 -0.13043667 -0.016330864 -0.030264737 -0.0003800252 0.03712112 -0.07250833
-0.19234708 0.0007847663 0.10119312 -0.094312124 -0.10220401 -0.2009239 -0.09800035 -0.1012976
0.022913948 -0.052369285 -0.07345242 0.0869779 -0.12846105 -0.075478345 -0.09480457 -0.21868336
0.097244516 -0.0054311785 -0.083088316 -0.08064815 -0.13626449 0.07952002 0.06140429 -0.0027181476
0.07355007 -0.10394443 0.11107462 -0.07507894 -0.031764336 -0.06979111 -0.030734122 0.048362974
-0.1403785 -0.1507549 0.17632434 0.00029150586 0.08159867 -0.07753036 0.20248999 0.06391251
-0.27427116 0.0038814903 -0.252956 0.02065382 0.09275381 0.0002570257 0.14868036 -0.008882864
-0.08532049 0.09763315 0.12847807 -0.04433248 -0.0059263385 0.03300582 -0.11781387 -0.069979146
0.0026250838 0.11450522 0.10283605 0.010357723 0.07377362 -0.075748995 0.10336917 -0.09947685
-0.022211667 -0.24799575 -0.1769581 -0.021755235 -0.19906104 -0.17654471 -0.12725887 -0.16328865
00000000: f1d4 d3bd 89a4 223e bb42 24bd 0574 f8bc
00000010: 2089 8abd 4e69 eebd 39a8 4dbd 6bd2 2abe
00000020: baf0 62be d003 bcbd ca26 9fbd 46fc 4ebe
00000030: 2d5d cebc b732 2fbd 4692 67be 0f53 99bd
00000040: 0400 84bd 40d8 a83b 4eee 5a3c f300 fb3c
00000050: 5ece 99bd d796 cebd 6297 a7be cc80 eebd
00000060: af02 32bd 0c28 12be 456a 2d3e fa25 b93c
00000070: 24d0 a1bd 4d80 97bd b066 f4bd 27e4 46be
00000080: 1a98 6ebd 00f6 df3c e194 82bd d8c8 09be
00000090: 6f77 17bd d08c 4f3e 45d8 0d3a 16a6 d63d
000000a0: 5c6a 973d 409f 01be 865d 11be 81b7 a33d
000000b0: 1cb5 63be d3df 23bd c1e8 723c b31d 8b3c
000000c0: f267 c33d 39aa 1c3d 3191 05be 4ec8 85bc
000000d0: c1ed f7bc 1e3e c7b9 510c 183d 3f7f 94bd
000000e0: a2f6 44be c6b8 4d3a 573e cf3d b726 c1bd
000000f0: 5650 d1bd ffbe 4dbe 68b4 c8bd 1e75 cfbd
00000100: 08b6 bb3c 2d81 56bd 396e 96bd 7821 b23d
00000110: 4b8b 03be 6494 9abd e628 c2bd 88ee 5fbe
00000120: 2228 c73d 07f8 b1bb 352a aabd db2a a5bd
00000130: eb88 0bbe 64db a23d 1183 7b3d f322 32bb
00000140: 6ba1 963d d1e0 d4bd 177b e33d fdc2 99bd
00000150: 521b 02bd a4ee 8ebd 20c6 fbbc 4118 463d
00000160: 62bf 0fbe 7e5f 1abe 5e8e 343e 41d5 9839
00000170: 341d a73d 3dc8 9ebd 8959 4f3e 90e4 823d
00000180: 456d 8cbe 9a60 7e3b 7383 81be 3332 a93c
00000190: b6f5 bd3d 68c1 8639 aa3f 183e 6f89 11bc
000001a0: 82bc aebd e4f3 c73d c18f 033e f995 35bd
000001b0: bb31 c2bb 1c31 073d 6648 f1bd 3a51 8fbd
000001c0: 9909 2c3b b681 ea3d b59b d23d 70b3 293c
000001d0: a016 973d 4a22 9bbd 37b3 d33d 85ba cbbd
000001e0: 3ef5 b5bc 99f2 7dbe 8134 35be 0938 b2bc
000001f0: a8d6 4bbe 23c8 34be 2650 02be 2435 27be

weight f4 [12, 128]
0.03903955 -0.0022455677 0.012069676 -0.100001 -0.019899923 0.05428123 0.023023205 0.083327994
-0.051181182 -0.1250307 0.0023893674 0.027133323 0.042608466 -0.062079474 -0.030490255 0.073657095
0.02756102 0.03217318 -0.041484978 0.104184344 0.022215556 0.011786014 -0.045858674 0.020105075
0.071213745 -0.017734284 -0.0022975868 -0.120442815 -0.03879328 0.028848192 -0.09595687 0.020727234
-0.017053049 -0.10991666 0.017491838 -0.035710618 0.13867196 -0.032126896 -0.023103297 0.050599977
-0.018587999 0.082180336 -0.1334233 0.051785473 0.0074089775 -0.0073998566 -0.037358224 0.021809455
0.027170924 0.05568281 0.19121058 -0.007102728 0.09412699 -0.13669975 -0.0051928386 0.06575964
-0.11569141 -0.034147136 -0.03556259 0.03808814 0.037475757 -0.058985114 0.037468378 0.051436957
0.025658706 0.006042842 -0.0057522543 0.025218667 0.06132992 0.05536063 -0.18222713 -0.07057788
0.019523207 -0.05961844 -0.051229045 -0.061923236 0.13758504 -0.0038775564 0.07273601 0.0020688938
-0.00075040496 -0.07742483 -0.046251502 0.1221055 -0.033135056 0.04298631 -0.06377263 -0.0628232
0.09878177 -0.12797998 0.061031915 0.023262247 -0.0034911947 0.0018281103 -0.050090794 0.045594364
0.08540011 -0.03760689 -0.022013893 -0.029594406 -0.009549765 -0.09812684 -0.016789204 0.028489223
0.043174203 -0.005364256 0.019648377 0.027776137 0.062240392 0.049762554 0.033939045 -0.15897132
-0.0078499345 -0.020427339 -0.01931725 -0.05921447 -0.02616465 -0.0855971 0.020304555 -0.021124309
-0.016672922 -0.0222012 0.066229925 -0.057397522 -0.12622736 0.057413105 0.11328943 0.072335996
-0.06224928 -0.042237926 -0.0051065 0.03382273 0.09319974 -0.07524793 -0.05168616 0.06271105
0.073657796 0.08895982 -0.029928297 -0.031747192 -0.014614175 0.017308047 0.038153857 0.05115198
0.017988523 0.11614726 -0.093533404 -0.094214804 -0.046126667 -0.025003979 0.028539667 -0.08682557
0.053051054 0.072295696 0.039202344 0.03066025 -0.055300515 0.010385669 -0.055811863 0.10829222
0.006750284 0.08499373 0.040434934 0.01904277 -0.0009791127 -0.021263 0.025151335 0.015263154
0.0034491615 -0.021686355 -0.026495837 -0.044557855 -0.06774648 -0.020365031 -0.05810442 -0.0075982246
0.0052705463 0.07301616 0.081736885 0.04722223 0.063533 -0.14347856 -0.03173778 0.002691425
-0.034323975 0.028022375 0.051235843 0.023390807 -0.043499224 -0.12936555 0.13049579 0.010455112
0.062811024 -0.14860275 0.05219805 0.017850548 0.033296324 0.05398923 0.21837406 0.018783681
0.004519374 -0.026603835 0.12517323 0.017565768 0.063813284 0.04739172 0.05169632 -0.009554627
-0.056704994 0.06724811 -0.040111758 -0.050424926 -0.110662445 -0.06372 0.066004306 0.01924623
0.05072278 -0.009979366 -0.00016094034 0.011891194 0.020069752 0.04895413 -0.006917644 0.046975296
0.10011977 0.05066834 -0.012286342 0.04689406 0.047224525 -0.21329139 -0.038586397 -0.0645252
0.0040063215 5.3112202e-05 -0.05169823 -0.07424652 -0.02396331 -0.0638201 0.055998787 0.10820074
-0.08553146 -0.05242799 -0.045965225 -0.049344294 -0.007017389 -0.054984853 -0.017816475 -0.016188473
-0.030331373 -0.103830315 0.0024512527 -0.014914662 0.1164286 0.014745497 0.007379166 0.011494304
00000000: efe7 1f3d 602a 13bb e4bf 453c 53cd ccbd
00000010: 2a05 a3bc ff55 5e3d 299b bc3c dea7 aa3d
00000020: 5ca3 51bd 0c08 00be ef96 1c3b b446 de3c
00000030: 3786 2e3d 0c47 7ebd b3c6 f9bc 88d9 963d
00000040: a6c7 e13c 06c8 033d 27ec 29bd 9a5e d53d
00000050: 66fd b53c 201a 413c 4ed6 3bbd 66b3 a43c
00000060: 83d8 913d 7d47 91bc 1c93 16bb b9aa f6bd
00000070: b4e5 1ebd 0b53 ec3c 0985 c4bd 29cc a93c
00000080: d6b2 8bbc fc1b e1bd 0b4b 8f3c 4c45 12bd
00000090: 0600 0e3e 7e97 03bd 2043 bdbc ec41 4f3d
000000a0: dc45 98bc 2a4e a83d 1ea0 08be 011d 543d
000000b0: 02c7 f23b 7f7a f2bb f004 19bd bea9 b23c
000000c0: 8f95 de3c a813 643d b5cc 433e 00be e8bb
000000d0: a7c5 c03d 05fb 0bbe b028 aabb fdac 863d
000000e0: 9eef ecbd dedd 0bbd 14aa 11bd 4f02 1c3d
000000f0: 2e80 193d 609a 71bd 7178 193d 8faf 523d
00000100: 3532 d23c 0803 c63b 687d bcbb 6197 ce3c
00000110: 1535 7b3d d4c1 623d c099 3abe 238b 90bd
00000120: 22ef 9f3c 7732 74bd 8cd5 51bd 38a3 7dbd
00000130: 18e3 0c3e 9a1e 7ebb 9ef6 943d 4796 073b
00000140: d3b6 44ba e990 9ebd 3772 3dbd 7312 fa3d
00000150: a0b8 07bd 6a12 303d 3a9b 82bd 73a9 80bd
00000160: 194e ca3d 2f0d 03be 9afc 793d 7890 be3c
00000170: 87cc 64bb 349d ef3a 012c 4dbd 28c1 3a3d
00000180: 41e6 ae3d af09 1abd 7b56 b4bc f86f f2bc
00000190: 9e76 1cbc baf6 c8bd 8389 89bc 3b62 e93c
000001a0: 6fd7 303d a4c6 afbb a2f5 a03c c88a e33c
000001b0: c8ef 7e3d d2d3 4b3d ab03 0b3d 61c9 22be
000001c0: 039d 00bc 3c57 a7bc 363f 9ebc df8a 72bd
000001d0: 4057 d6bc 884d afbd bd55 a63c e30c adbc
000001e0: a795 88bc 4adf b5bc 8ea3 873d aa19 6bbd
000001f0: bf41 01be 012a 6b3d 4a04 e83d e524 943d
00000200: 1af9 7ebd ad01 2dbd 6d54 a7bb b489 0a3d
00000210: 81df be3d 961b 9abd deb4 53bd a76e 803d
00000220: e6d9 963d 9130 b63d 302c f5bc 5809 02bd
00000230: 4b70 6fbc 9bc9 8d3c 3847 1c3d bd84 513d
00000240: ab5c 933c 9dde ed3d 718e bfbd b1f3 c0bd
00000250: 51ef 3cbd 25d5 ccbc 05cc e93c 9bd1 b1bd
00000260: 104c 593d c40f 943d a392 203d 342b fb3c
00000270: cb82 62bd a728 2a3c fb9a 64bd 50c8 dd3d
00000280: 7d31 dd3b 3111 ae3d 1a9f 253d 95ff 9b3c
00000290: 9255 80ba be2f aebc 2c0a ce3c 4f12 7a3c
000002a0: 540b 623b 95a7 b1bc cc0d d9bc 4c82 36bd
000002b0: abbe 8abd 91d4 a6bc e6fe 6dbd 87fa f8bb
000002c0: 8cb4 ac3b 7f89 953d ab65 a73d 196c 413d
000002d0: 971d 823d 0bec 12be 79ff 01bd 9e62 303b
000002e0: 4c97 0cbd 2e8f e53c addc 513d 149e bf3c
000002f0: 3e2c 32bd 6778 04be b0a0 053e eb4b 2b3c
00000300: 11a3 803d 522b 18be 9fcd 553d 503b 923c
00000310: ba61 083d d023 5d3d 739d 5f3e 3ce0 993c
00000320: 4217 943b 49f0 d9bc 692d 003e 16e6 8f3c
00000330: 8ab0 823d d21d 423d 85bf 533d 038b 1cbc
00000340: 7f43 68bd 61b9 893d 3a4c 24bd 5e8a 4ebd
00000350: fea2 e2bd a27f 82bd 442d 873d 45aa 9d3c
00000360: b1c2 4f3d 7f80 23bc 18c2 28b9 48d3 423c
00000370: 5269 a43c 2084 483d 67ad e2bb 2b69 403d
00000380: 980b cd3d 9b89 4f3d a74c 49bc fc13 403d
00000390: 816e 413d 0f69 5abe c50c 1ebd ca25 84bd
000003a0: 7647 833b cbc4 5e38 86c1 53bd 8f0e 98bd
000003b0: b44e c4bc 1db4 82bd fc5e 653d 5998 dd3d
000003c0: 1e2b afbd bbbe 56bd 0846 3cbd 3e1d 4abd
000003d0: 20f2 e5bb cc37 61bd dbf3 91bc b09d 84bc
000003e0: 8079 f8bc fda4 d4bd 32a5 203b a05c 74bc
000003f0: 1e72 ee3d 1997 713c eecc f13b 9b52 3c3c

bias f4 [12]
-0.097636245 0.024456266 0.04757102 0.06395372 -0.08827233 -0.0028306397 0.029658657 -0.040626973
0.14640664 -0.23786749 -0.082274355 0.293953
00000000: 83f5 c7bd 8258 c83c d4d9 423d 2bfa 823d
00000010: 20c8 b4bd 4182 39bb b6f6 f23c 7868 26bd
00000020: 9feb 153e 8993 73be 757f a8bd 0281 963e
