policy/marvin_policy.pt (torch, 174326 bytes, 8 tensors)

weight f4 [128, 48]
0.25957018 -0.0787991 -1.0494448 0.18898098 0.5294325 0.1134501 -0.14987499 0.17553107
-0.08722171 -0.35407844 -0.06924733 -0.14838292 0.5581846 -0.34955433 -0.48115915 -0.16559877
0.78528553 0.5395607 0.23062196 -0.09767726 0.07264062 -0.19850412 -0.14829615 0.20019843
0.010696965 0.054027785 0.037614167 -0.024891559 -0.017210593 -0.016587114 -0.04215561 0.0477722
-0.004285855 -0.032242823 0.036636177 0.048937976 0.2025089 0.24008611 -0.0035606208 0.02900978
0.21033372 0.052542172 0.102342926 -0.24978952 -0.08287451 -0.124838285 -0.043480955 -0.11444799
0.4875294 0.058980558 0.3689263 0.049396053 0.11652058 -0.28235978 0.25372094 0.018409414
0.009209799 -0.5161531 -0.5766171 0.043438636 0.38822252 0.01201607 -0.40867206 0.005121001
-0.03916516 -0.09038863 0.08790561 -0.27121288 0.15543437 -0.13206235 -0.19898766 0.02163219
0.006085602 0.034017764 -0.036069628 0.00885494 -0.022416003 -0.024722185 0.0016937538 -0.039582826
0.05098416 -0.0143868495 0.04352388 -0.026725264 0.009031075 -0.23105507 -0.24221978 -0.30746076
0.08116077 -0.011396737 0.123963475 -0.36575857 -0.13928027 -0.123719774 0.08453001 0.12565248
0.45840436 -0.26501006 -0.40838596 0.04430644 0.36074185 0.20885943 -0.14810747 0.28037125
-0.039089736 -0.495135 0.26332182 -0.1786742 0.013318619 -0.09647054 0.74840254 -0.29064357
0.09841627 -0.014502722 -0.29792848 -0.038997535 -0.16859706 0.010883093 0.10781366 -0.07789662
-0.01667505 -0.002951446 -0.023153964 -0.033137545 0.0396982 0.0009089592 -0.014643475 0.019700415
-0.06371524 0.017844744 0.017882345 0.061986316 0.13001981 -0.14048406 0.31784 0.19203731
-0.10722358 -0.17414165 -0.092047065 -0.06693219 0.072671965 0.12914696 0.047997683 0.08746316
-0.36574942 0.37872794 0.29722244 -0.07073219 -0.18704785 -0.14163141 0.12515518 -0.11081341
0.15143128 0.5091199 -0.25484473 0.11946855 -0.62655383 -0.34507886 0.1540723 0.36313012
0.045544647 0.31812176 -0.5290859 -0.60746753 0.092732795 0.13110676 0.12606844 0.024432065
-0.019590454 -0.027602201 0.020131988 -0.016720086 -0.013608468 0.020846026 0.055854805 0.028347231
0.010570908 -0.014895777 0.015080444 -0.020841945 -0.25864434 0.0168398 0.086650655 0.37240547
0.19127545 -0.06673538 0.09865326 -0.023462746 0.17679031 0.057355806 -0.026700232 -0.01607145
-0.12238822 0.7427462 -0.5074773 -0.1648544 0.060600124 0.025575943 0.101647675 -0.23216675
0.051491756 -0.24514824 -0.015864175 -0.28524244 -0.43895474 -0.1585747 0.18958192 0.34274188
-0.10495099 -0.15007515 0.4211208 0.030676754 0.13882229 0.13225833 0.16016902 0.0014529629
0.060699735 -0.010485642 0.057907403 0.022193959 0.0058490154 0.023625722 0.0063558985 -0.021231404
0.008137655 0.03186148 -0.022953644 0.025613926 -0.44228342 -0.122865945 -0.22802123 0.11631433
0.26383683 0.15996075 0.16894825 -0.0410923 0.0639865 0.0069988095 0.03386601 0.032825027
0.14135592 -0.12584701 -0.533834 -0.16177605 0.08038926 -0.021793218 -0.16762379 -0.10195796
0.2103084 -0.25428388 -0.17295775 0.21475309 -0.0041555213 -0.19689585 0.3051326 0.10332384
00000000: 62e6 843e 6c61 a1bd 3554 86bf 3b84 413e
00000010: e388 073f 8758 e83d d478 19be 6bbe 333e
00000020: 4ca1 b2bd c549 b5be 8bd1 8dbd b1f1 17be
00000030: 30e5 0e3f c9f8 b2be 7e5a f6be b992 29be
00000040: 7908 493f a620 0a3f 2a28 6c3e 040b c8bd
00000050: 9bc4 943d aa44 4bbe f2da 17be d100 4d3e
00000060: 5342 2f3c 3d4c 5d3d 5011 1a3d 62e9 cbbc
00000070: 3bfd 8cbc b3e1 87bc 5cab 2cbd c8ac 433d
00000080: 5c70 8cbb 0d11 04bd d10f 163d 3073 483d
00000090: 7e5e 4f3e 22d9 753e 4e59 69bb eba5 ed3c
000000a0: b961 573e 7636 573d 2b99 d13d d3c8 7fbe
000000b0: 1cba a9bd 37ab ffbd 1619 32bd b563 eabd
000000c0: 749d f93e 9995 713d e8e3 bc3e 8453 4a3d
000000d0: 58a2 ee3d 7691 90be b6e7 813e 57cf 963c
000000e0: b2e4 163c 9c22 04bf 2e9d 13bf b6ec 313d
000000f0: 1ac5 c63e 0ddf 443c 773d d1be 12ce a73b
00000100: a66b 20bd ad1d b9bd db07 b43d 6adc 8abe
00000110: 302a 1f3e 5a3b 07be 6cc3 4bbe fe35 b13c
00000120: bb69 c73b 3656 0b3d bfbd 13bd 4f14 113c
00000130: c4a1 b7bc 2e86 cabc f200 de3a 9a21 22bd
00000140: c4d4 503d d2b6 6bbc 1946 323d f1ee dabc
00000150: 13f7 133c b399 6cbe 7608 78be 7f6b 9dbe
00000160: 9e37 a63d 61b9 3abc 90e0 fd3d b544 bbbe
00000170: 7d9f 0ebe cb60 fdbd 121e ad3d 0bab 003e
00000180: fab3 ea3e 66af 87be f717 d1be ab7a 353d
00000190: 28b3 b83e 3fdf 553e 7ca9 17be d28c 8f3e
000001a0: 8f1c 20bd 5682 fdbe 1ed2 863e 5ff6 36be
000001b0: 5636 5a3c 5992 c5bd 4f97 3f3f 3ccf 94be
000001c0: 788e c93d d39c 6dbc 158a 98be e1bb 1fbd
000001d0: b5a4 2cbe 004f 323c 68cd dc3d 4388 9fbd
000001e0: 1d9a 88bc 0c6d 41bb 62ad bdbc 3cbb 07bd
000001f0: 949a 223d 3847 6e3a 30eb 6fbc c462 a13c
00000200: 237d 82bd 242f 923c ff7d 923c 5de5 7d3d
00000210: ea23 053e 0edb 0fbe edbb a23e 6ea5 443e
00000220: 0998 dbbd 3052 32be 2c83 bcbd be13 89bd
00000230: 0ad5 943d 1a3f 043e 3899 443d e31f b33d
00000240: 8243 bbbe a1e8 c13e 8a2d 983e 0adc 90bd
00000250: 7989 3fbe d307 11be ae28 003e 24f2 e2bd
00000260: cd10 1b3e af55 023f 027b 82be edab f43d
00000270: d565 20bf 2dae b0be 21c5 1d3e 31ec b93e
00000280: 068d 3a3d dbe0 a23e 2c72 07bf fe82 1bbf
00000290: b1ea bd3d da40 063e 1618 013e c125 c83c
000002a0: 297c a0bc 031e e2bc d7eb a43c 90f8 88bc
000002b0: 0df6 5ebc 49c5 aa3c 02c8 643d 7438 e83c
000002c0: 9a31 2d3c 6b0d 74bc f713 773c babc aabc
000002d0: 086d 84be 9ff3 893c e675 b13d eeab be3e
000002e0: b6dd 433e 8fac 88bd b80a ca3d f234 c0bc
000002f0: 8508 353e eced 6a3d 72ba dabc 46a8 83bc
00000300: ada6 fabd 9d24 3e3f 08ea 01bf 98cf 28be
00000310: d637 783d a484 d13c a82c d03d 1fbd 6dbe
00000320: 05e9 523d 2408 7bbe 96f5 81bc 4c0b 92be
00000330: adbe e0be 6861 22be c321 423e dd7b af3e
00000340: 8bf0 d6bd 4dad 19be 259d d73e d14d fb3c
00000350: 6e27 0e3e ba6e 073e 5903 243e 5871 be3a
00000360: 49a0 783d f8cb 2bbc 5030 6d3d 1bd0 b53c
00000370: 19a9 bf3b bb8a c13c 2445 d03b 7bed adbc
00000380: cd53 053c 2f81 023d 4809 bcbc 4cd4 d13c
00000390: f972 e2be 24a1 fbbd 667e 69be 3536 ee3d
000003a0: 9f15 873e c0cc 233e c500 2d3e 6650 28bd
000003b0: 5b0b 833d 4556 e53b 16b7 0a3d 8973 063d
000003c0: 9bbf 103e 0ade 00be 58a9 08bf 9fa8 25be
000003d0: 20a3 a43d b187 b2bc 92a5 2bbe 56cf d0bd
000003e0: 165b 573e 7f31 82be d61b 31be 3ce8 5b3e
000003f0: 0a2b 88bb 119f 49be 573a 9c3e 739b d33d

bias f4 [128]
0.004587246 0.3074903 0.014639112 0.12635013 -0.14011088 -0.19053262 0.15876074 -0.08373965
-0.28066185 -0.08149017 0.09401454 0.18041189 -0.07375189 -0.17156455 0.3734576 -0.20006189
-0.008012334 0.042772997 -0.17062488 -0.08707146 -0.18235222 -0.024152027 0.080705024 -0.04924825
-0.14060172 0.16727266 -0.062144723 0.19108286 0.21709326 0.14126793 0.10984159 -0.24306893
0.2590291 0.011217598 0.06518213 -0.12306866 -0.027297154 -0.015990064 0.2881029 -0.06051859
-0.12303882 0.18714152 0.032181665 -0.11728805 0.21014954 -0.037339676 0.21836126 -0.018685166
0.07109028 -0.1824696 0.17530172 -0.06551408 0.1069577 -0.3317271 -0.32602337 -0.18822278
-0.212227 0.0012610281 0.016096905 0.104695715 0.046633914 -0.026792645 -0.31301844 0.11163537
-0.19369347 0.10713213 0.20082043 -0.3960049 0.065036535 -0.15745859 0.086234756 -0.00051635323
-0.28663915 0.09881226 0.021170465 0.16360314 0.27484158 -0.029899739 -0.14571755 -0.13598448
-0.09422982 -0.11505873 -0.099193305 0.05706408 0.09540102 -0.034564264 -0.22984295 0.14891364
-0.06495796 0.28974113 -0.32986185 0.48581097 -0.08482887 0.02496312 0.016496755 -0.040051777
0.24573629 0.17167607 0.30162168 0.17397767 -0.08743759 0.018518884 0.06794554 0.22452901
-0.005137945 0.05641969 -0.022315985 0.29470697 0.13301222 0.07215557 0.11938048 0.020525815
-0.010807469 -0.10838102 -0.21465082 -0.10898845 0.060862105 0.010813527 0.22794807 0.22753678
-0.18055788 0.047182765 -0.19382061 0.0335838 -0.2543809 0.33453706 -0.3538695 -0.046514872
00000000: 9c50 963b 5e6f 9d3e e3d8 6f3c ee61 013e
00000010: 3a79 0fbe fc1a 43be 2d92 223e b27f abbd
00000020: e9b2 8fbe 51e4 a6bd b28a c03d e5bd 383e
00000030: 3b0b 97bd 9eae 2fbe d635 bf3e 06dd 4cbe
00000040: 2a46 03bc bd32 2f3d 4ab8 2ebe 8652 b2bd
00000050: 8aba 3abe 79da c5bc ad48 a53d 88b8 49bd
00000060: e6f9 0fbe 8649 2b3e 778b 7ebd 3aab 433e
00000070: b24d 5e3e 8aa8 103e a1f4 e03d 10e7 78be
00000080: 769f 843e 04ca 373c 357e 853d 6c0b fcbd
00000090: 489e dfbc 98fd 82bc 3982 933e 57e2 77bd
000000a0: c7fb fbbd 07a2 3f3e ecd0 033d b834 f0bd
000000b0: 7131 573e 7df1 18bd 189a 5f3e a211 99bc
000000c0: c897 913d 50d9 3abe 4b82 333e 3f2c 86bd
000000d0: a30c db3d 22d8 a9be 89ec a6be 79bd 40be
000000e0: 0952 59be 1549 a53a a8dd 833c b56a d63d
000000f0: 3403 3f3d 407c dbbc f443 a0be 16a1 e43d
00000100: 9557 46be 1768 db3d dfa3 4d3e 27c1 cabe
00000110: e031 853d d33c 21be d99b b03d e15b 07ba
00000120: 5ec2 92be 155e ca3d af6d ad3c 9587 273e
00000130: 09b8 8c3e 4cf0 f4bc fb36 15be 843f 0bbe
00000140: 90fb c0bd e9a3 ebbd dc25 cbbd 06bc 693d
00000150: 9c61 c33d 4293 0dbd f35b 6bbe d17c 183e
00000160: ae08 85bd f358 943e a7e3 a8be 37bc f83e
00000170: c2ba adbd 757f cc3c 3424 873c 550d 24bd
00000180: 4ba2 7b3e dacb 2f3e 286e 9a3e 3427 323e
00000190: 7b12 b3bd eab4 973c 0827 8b3d efea 653e
000001a0: 355c a8bb 5518 673d 03d0 b6bc d5e3 963e
000001b0: 5b34 083e 4dc6 933d c17d f43d c125 a83c
000001c0: cf11 31bc def6 ddbd 6dcd 5bbe 5635 dfbd
000001d0: 8b4a 793d 382b 313c 386b 693e 67ff 683e
000001e0: 2ae4 38be b742 413d e978 46be 2b8f 093d
000001f0: 373e 82be 7148 ab3e 622e b5be 6186 3ebd

weight f4 [128, 128]
-0.040817615 -0.019133525 0.03849064 0.0859715 -0.05899926 -0.020047281 0.0014871904 -0.0086713955
0.0067625414 -0.04697805 -0.0013156522 -0.12531513 -0.06392101 0.11246098 -0.058197796 0.14654961
0.0015520792 0.095633894 -0.0017058778 -0.06679252 0.050788876 -0.013629124 -0.0407135 0.12347082
0.03675899 0.0380984 0.05321575 -0.05849238 0.10339475 0.1577591 -0.039691005 0.08860575
0.014068925 -0.030919084 -0.041600525 0.1548469 -0.0070539787 -0.009196728 -0.2743944 0.14423619
-0.02818412 -0.00710454 0.04254148 0.14359975 -0.13141468 0.22350414 0.020736964 -0.01027085
0.029007774 0.04013028 -0.09146545 0.11567612 -0.040114254 -0.017003262 -0.012221374 0.035405837
-0.14972374 0.05496675 0.053794608 -0.16735378 0.13351321 -0.024759486 0.02064939 0.23939584
0.21962002 0.099424444 0.00031282433 0.1097257 0.029266518 -0.09585724 -0.03538623 -0.13728432
0.045271803 -0.08595772 -0.08953033 0.09437733 -0.12104562 -0.25339764 0.0808551 -0.14745043
-0.22043096 0.033407703 -0.09042884 -0.2691796 0.04285956 0.037490964 -0.030822167 -0.1370688
0.0036091304 -0.048876476 0.056282237 -0.15131682 -0.06687827 -0.04917784 -0.0174837 -0.04419811
0.19613561 0.07051339 -0.022484673 0.07674676 0.035240326 0.09073982 -0.025064943 0.13502441
-0.14865404 -0.014800079 0.06186867 0.102604635 -0.01631477 0.006944804 0.07091786 0.13359833
-0.042514175 0.15885325 0.035844635 0.06201062 -0.090444885 -0.03305704 -0.0044338303 -0.14384167
0.10275637 -0.024700945 0.017231764 -0.10953875 0.11223676 -0.064513706 1.590809e-06 -0.13536295
-0.08129369 -0.06445223 -0.05161772 0.05742082 0.0031497283 -0.08698652 -0.086513184 0.04116161
-0.01356925 0.08804801 0.11238124 -0.12001452 0.13663761 0.0047716214 0.010865959 0.046173118
-0.11360561 -0.3696756 -0.038989175 0.05816985 0.12026534 0.025405753 -0.109302506 0.020775106
0.03916461 0.076095 0.10609159 0.06423681 -0.059267778 0.10147003 0.008722921 0.00013542626
0.11248583 -0.0688829 0.024336847 0.19400957 0.13097616 0.058894977 -0.077551834 -0.045312494
-0.02123836 -7.2071765e-05 0.15037192 -0.06948271 0.0771246 0.010036564 0.025045173 -0.13158378
-0.05257159 -0.083767794 -0.04203296 -0.08002164 0.13377249 0.08654459 0.08460381 0.014412708
-0.0032258772 -0.020383006 0.08589804 -0.018750295 0.073236816 0.042568173 0.02166488 0.03400821
0.11390985 0.020995619 0.04493194 0.1579716 0.030791754 -0.09168972 -0.06421425 -0.22304557
-0.04454332 -0.0075002345 0.035843387 -0.073077396 -0.042598326 0.17327292 0.027181674 -0.15029708
0.04274946 -0.1059478 0.06656777 -0.15443249 -0.03696218 -0.028232828 0.14384522 0.06172791
-0.12910889 -0.00057531893 0.026087642 0.21619125 -0.11353491 -0.020186633 -0.21892862 0.063855655
0.011278453 -0.027610777 0.04379766 0.11464406 -0.05978686 0.0384608 -0.14116034 0.02307615
0.06476545 -0.0058931136 0.06467424 0.043838665 -0.029655498 -0.064408064 0.09492677 -0.0068419077
-0.12060309 0.11282874 0.016769484 0.07411282 0.06265768 -0.06527093 -0.29304248 -0.03144529
0.09168503 0.028214414 0.053120095 0.045070983 0.06557029 0.041191366 -0.02062341 -0.12612104
00000000: 5f30 27bd e9bd 9cbc 5da8 1d3d d311 b03d
00000010: 35a9 71bd 323a a4bc d4ed c23a 7812 0ebc
00000020: 4f98 dd3b 0e6c 40bd f671 acba 9c52 00be
00000030: 05e9 82bd f151 e63d d060 6ebd 1a11 163e
00000040: 236f cb3a b4db c33d c397 dfba 84ca 88bd
00000050: ff07 503d b04c 5fbc 33c3 26bd 45de fc3d
00000060: 9890 163d 110d 1c3d c2f8 593d b595 6fbd
00000070: a0c0 d33d 9a8b 213e 0993 22bd ee76 b53d
00000080: 5981 663c 054a fdbc 5065 2abd 3090 1e3e
00000090: 1025 e7bb dfad 16bc 6c7d 8cbe a7b2 133e
000000a0: 62e2 e6bc 33cd e8bb fa3f 2e3d d00b 133e
000000b0: 9291 06be 45de 643e 91e0 a93c 1147 28bc
000000c0: b6a1 ed3c a65f 243d 3d52 bbbd 9ae7 ec3d
000000d0: d84e 24bd 6d4a 8bbc 283c 48bc b605 113d
000000e0: 2e51 19be d124 613d bc57 5c3d ca5e 2bbe
000000f0: b0b7 083e 68d4 cabc e928 a93c 2f24 753e
00000100: 12e4 603e 0b9f cb3d 9202 a439 deb7 e03d
00000110: 56c0 ef3c cd50 c4bd 27f1 10bd 4394 0cbe
00000120: ed6e 393d 9a0a b0bd ad5b b7bd e748 c13d
00000130: c4e6 f7bd 56bd 81be 5c97 a53d 3ffd 16be
00000140: a7b8 61be 84d6 083d c132 b9bd e9d1 89be
00000150: 828d 2f3d 2090 193d c57e fcbc c35b 0cbe
00000160: 2987 6c3b b332 48bd 3488 663d ccf2 1abe
00000170: 79f7 88bd b46e 49bd fa39 8fbc 1409 35bd
00000180: c6d7 483e 5369 903d c731 b8bc 682d 9d3d
00000190: 2958 103d ccd5 b93d ff54 cdbc d743 0a3e
000001a0: c438 18be 087c 72bc 016a 7d3d 6122 d23d
000001b0: 8da6 85bc 3d91 e33b 623d 913d 00ce 083e
000001c0: 5823 2ebd 6daa 223e d3d1 123d d9fe 7d3d
000001d0: 2b3b b9bd d266 07bd aa49 91bb 3b4b 13be
000001e0: ef71 d23d a359 cabc a129 8d3c da55 e0bd
000001f0: 63dc e53d c31f 84bd c883 d535 969c 0abe
00000200: 4e7d a6bd 88ff 83bd 1a6d 53bd 1832 6b3d
00000210: ac6b 4e3b fd25 b2bd d32d b1bd 1499 283d
00000220: 8f51 5ebc 8452 b43d 2328 e63d 2cca f5bd
00000230: bbea 0b3e 435b 9c3b 2307 323c 0620 3d3d
00000240: 0faa e8bd 1f46 bdbe 1db3 1fbd 8243 6e3d
00000250: ad4d f63d ba1f d03c fed9 dfbd 8e30 aa3c
00000260: 126b 203d b2d7 9b3d 8c46 d93d 978e 833d
00000270: c5c2 72bd 85cf cf3d 95ea 0e3c 3601 0e39
00000280: f95e e63d 7a12 8dbd 115e c73c 72aa 463e
00000290: 9d1e 063e dc3b 713d 7fd3 9ebd 9899 39bd
000002a0: 12fc adbc 3c25 97b8 19fb 193e f34c 8ebd
000002b0: 81f3 9d3d 6770 243c 892b cd3c e6bd 06be
000002c0: 4f55 57bd 738e abbd c12a 2cbd 63e2 a3bd
000002d0: a8fb 083e 4a3e b13d c344 ad3d 4723 6c3c
000002e0: 3d69 53bb 43fa a6bc 50eb af3d 389a 99bc
000002f0: 2ffd 953d f75b 2e3d 8c7a b13c 314c 0b3d
00000300: 9149 e93d 01ff ab3c 8e0a 383d 4fc3 213e
00000310: fd3e fc3c d2c7 bbbd c382 83bd 0f66 64be
00000320: 0e73 36bd 87c4 f5bb 84d0 123d 9aa9 95bd
00000330: 957b 2ebd 756e 313e 1aac de3c 7ae7 19be
00000340: 0f1a 2f3d 29fb d8bd af54 883d 8d23 1ebe
00000350: a865 17bd 8848 e7bc 294c 133e 68d6 7c3d
00000360: 1f35 04be 00d1 16ba c0b5 d53c 3d61 5d3e
00000370: fe84 e8bd 705e a5bc d32e 60be c1c6 823d
00000380: 43c9 383c ff2f e2bc 2d65 333d 81ca ea3d
00000390: 11e3 74bd 1289 1d3d 568c 10be 320a bd3c
000003a0: c0a3 843d 051b c1bb ee73 843d 2c90 333d
000003b0: 16f0 f2bc 60e8 83bd f768 c23d 1532 e0bb
000003c0: c1fe f6bd c112 e73d 2860 893c 76c8 973d
000003d0: ab52 803d c4ac 85bd aa09 96be c7cc 00bd
000003e0: 5cc5 bb3d ea21 e73c 7594 593d 5a9c 383d
000003f0: b749 863d 47b8 283d 6df2 a8bc e025 01be

bias f4 [128]
-0.13877249 0.07067576 -0.19127928 -0.069300584 -0.16579436 -0.16662169 -0.021763818 -0.24285698
-0.11288115 -0.0015526925 -0.3317281 -0.04202596 -0.045071296 -0.5302013 -0.14436817 0.048049416
-0.15301868 -0.022743594 -0.20432654 -0.25549832 0.0012507492 0.14806727 -0.13376753 -0.58055764
0.06226915 -0.39595982 0.1603789 0.044464286 -0.15400381 0.055748608 -0.17122123 -0.062420815
-0.045885686 -0.04555314 -0.11974047 -0.16397317 0.01477158 -0.24265963 0.08444027 -0.12007518
0.083805844 0.07219346 -0.28424457 -0.08365213 -0.10710819 -0.2009884 -0.034896445 -0.08490029
-0.30902055 -0.46740276 -0.15955907 -0.02227862 -0.18392654 -0.046615917 0.16426232 -0.1607718
-0.18675719 0.07007218 -0.10487811 -0.046451505 -0.09238094 0.17090769 0.047979776 -0.13273904
0.04801217 -0.11435678 -0.27507123 -0.3661505 -0.15262641 0.009446284 0.041123312 0.09422027
-0.07424669 0.043979872 -0.042768955 -0.085575104 -0.17045552 0.13798758 -0.06161971 -0.2580459
0.009645717 -0.03652904 -0.31658474 -0.005502168 -0.20176125 -0.33453014 -0.12958692 0.0026287648
-0.07479812 0.018188689 0.04883744 -0.12259696 -0.05550776 0.12223212 -0.09677205 -0.18587714
0.11842646 0.0007386349 0.07972421 0.14292197 -0.10261992 -0.13036436 0.19895789 0.024562597
-0.088523634 -0.121279135 -0.06576888 0.015028345 0.017924383 -0.28203788 -0.13961323 -0.15943497
-0.075473316 -0.21625197 -0.12349958 -0.14503504 -0.4182668 0.062021222 0.10773038 -0.050062485
-0.012196274 0.004502218 0.073641054 -0.0203325 -0.1493206 -0.11417614 -0.09740784 -0.046073794
00000000: 601a 0ebe 74be 903d b7de 43be 77ed 8dbd
00000010: ffc5 29be e09e 2abe 094a b2bc 80af 78be
00000020: 3b2e e7bd b783 cbba 44d8 a9be 6a23 2cbd
00000030: ae9c 38bd 46bb 07bf 40d5 13be 77cf 443d
00000040: eeb0 1cbe c650 babc fa3a 51be add0 82be
00000050: 2ef0 a33a f29e 173e 5bfa 08be 6d9f 14bf
00000060: f00d 7f3d 3fbb cabe 5e3a 243e 2f20 363d
00000070: 2db3 1dbe a758 643d 9e54 2fbe f8ac 7fbd
00000080: a1f2 3bbd ee95 3abd 7e3a f5bd 95e8 27be
00000090: 7f04 723c c47b 78be 05ef ac3d fae9 f5bd
000000a0: 66a2 ab3d 2ada 933d 8188 91be cf51 abbd
000000b0: 8a5b dbbd e7cf 4dbe 93ef 0ebd 34e0 adbd
000000c0: f137 9ebe 6a4f efbe 7463 23be a781 b6bc
000000d0: 3d57 3cbe 55f0 3ebd 6234 283e 5da1 24be
000000e0: 473d 3fbe 0182 8f3d 56ca d6bd ef43 3ebd
000000f0: 3832 bdbd 6d02 2f3e 7186 443d beec 07be
00000100: 69a8 443d e333 eabd 23d6 8cbe 1478 bbbe
00000110: 194a 1cbe 96c4 1a3c eb70 283d 8ff6 c03d
00000120: a60e 98bd 3d24 343d 802e 2fbd 0042 afbd
00000130: e48b 2ebe 9e4c 0d3e f364 7cbd 981e 84be
00000140: 1209 1e3c 7a9f 15bd 6517 a2be 884b b4bb
00000150: 809a 4ebe 8947 abbe 6fb2 04be 5b47 2c3b
00000160: c22f 99bd 7200 953c c409 483d 1d14 fbbd
00000170: 1b5c 63bd d554 fa3d 6d30 c6bd 9456 3ebe
00000180: 9289 f23d f3a0 413a 7246 a33d 235a 123e
00000190: 652a d2bd 3c7e 05be 9ebb 4b3e 8037 c93c
000001a0: e14b b5bd 3261 f8bd d6b1 86bd 7339 763c
000001b0: 28d6 923c 4567 90be c5f6 0ebe ec42 23be
000001c0: c191 9abd 2871 5dbe 59ed fcbd 1184 14be
000001d0: 1127 d6be f709 7e3d bfa1 dc3d 520e 4dbd
000001e0: e1d2 47bc 5887 933b 1fd1 963d 5890 a6bc
000001f0: 80e7 18be 2ed5 e9bd c37d c7bd e0b7 3cbd

weight f4 [128, 128]
0.11863975 -0.20056318 0.07404313 0.025588641 -0.13108262 0.09318575 -0.1488564 0.1112811
0.07788987 -0.06405915 0.25143024 -0.05071204 -0.08978492 0.007388388 -0.007891631 -0.16209233
-0.21704724 -0.042309172 0.08020361 0.03757863 -0.09997081 -0.0720458 0.01915625 0.0641097
0.0951459 0.06608638 0.08084076 -0.017621242 -0.030765766 -0.08320527 0.04365084 0.21558762
-0.06679432 -0.17213611 0.16804704 -0.012027496 -0.05578822 0.05263372 0.09577895 0.04079094
-0.22251283 -0.27915275 0.086927705 0.039189406 0.010799842 -0.31368113 -0.06424714 0.060507495
0.0625503 -0.02249087 0.0964405 0.052707937 -0.0018312098 -0.056580316 -0.21637392 0.04749362
0.06979869 0.08396216 0.10148486 0.047852673 -0.23744752 -0.026304163 0.013826926 0.047885284
-0.06588598 0.040747732 0.22335088 0.11152469 0.06443999 -0.18715447 0.07266162 -0.0671068
0.14566398 -0.121903986 0.027688066 -0.10397324 0.16891874 -0.29792055 -0.073106594 -0.16814043
-0.17177881 -0.37164983 -0.058615632 -0.14608113 -0.38083977 0.07474955 -0.089243434 -0.061626557
0.020368889 -0.071577705 0.06363989 0.041670967 -0.08586563 0.06101813 -0.11025208 -0.06356025
-0.10215514 -0.050045457 -0.06134651 0.08028225 0.036844343 0.03338001 0.017622137 0.194872
0.12493537 0.08749395 0.062317017 0.046230324 -0.12343064 0.024759483 -0.089431375 -0.0136688845
0.13111065 -0.066662386 0.07900281 0.027233984 0.06126929 0.117436714 -0.039897464 0.1458657
-0.16804023 0.09002668 0.058865044 -0.20775685 0.28172112 -0.022554407 0.024689838 -0.061381903
-0.044802543 0.004945702 -0.13051414 -0.00749254 0.032203574 0.04178742 -0.11013572 -0.05734506
-0.03458346 0.08017115 0.025493516 0.19688915 -0.16127232 0.08713996 0.12031717 -0.0051644724
-0.012605727 0.08235876 0.06703836 -0.033821117 0.12115802 -0.008248138 -0.043913722 -0.032815527
0.020782918 0.0035989364 0.01664434 0.1505635 0.026090384 -0.015565235 0.006034231 0.011878885
0.09271161 -0.044660233 -0.023631254 0.010135424 -0.09400702 0.00079010107 0.17868452 -0.068625376
0.025588676 -0.038790558 -0.091361955 0.09124535 0.021613374 -0.028544271 0.027384888 -0.004820065
0.07633648 -0.12266249 -0.013289059 -0.02097387 0.091223195 -0.022218866 -0.006414964 0.067185536
-0.08354927 -0.017066887 -0.0682953 0.02041991 0.1467175 -0.1203045 -0.08537193 0.04933839
0.13585986 -0.0944471 -0.06604445 -0.050500836 0.10646182 0.024211237 0.11982777 0.048339315
-0.079944916 -0.023029964 -0.013103253 -0.01553112 -0.055693604 -0.0052404623 0.031559218 -0.081958234
-0.0066108634 -0.013549924 -0.08152595 -0.09276122 -0.0037777952 -0.051125836 0.00026579687 0.026143242
0.023773119 0.13711965 -0.042667568 0.14663431 0.019925574 -0.0033100178 0.018822178 -0.021456307
0.060359396 -0.07768259 0.060214143 -0.031511463 -0.010221529 0.010326067 -0.05532117 -0.015770653
0.007672718 0.16401166 -0.05746869 0.0046734624 -0.055120204 -0.012797176 -0.06640685 0.10686871
-0.0736146 -0.08284711 -0.026192566 0.107795686 -0.07967408 0.079316534 0.005100203 -0.013041432
-0.011703919 -0.004440675 0.062861174 -0.11784984 0.02368419 0.011785553 0.057322472 -0.0023848421
00000000: 66f9 f23d 6f60 4dbe eda3 973d 459f d13c
00000010: 863a 06be 2cd8 be3d d06d 18be 58e7 e33d
00000020: b984 9f3d 7231 83bd 77bb 803e 6eb7 4fbd
00000030: 28e1 b7bd 4a1a f23b e64b 01bc 88fb 25be
00000040: a241 5ebe 624c 2dbd ca41 a43d 0dec 193d
00000050: 7fbd ccbd c08c 93bd 91ed 9c3c f24b 833d
00000060: dbdb c23d 4c58 873d d78f a53d 6c5a 90bc
00000070: 7d08 fcbc 8667 aabd 39cb 323d 00c3 5c3e
00000080: 76cb 88bd 7344 30be 8614 2c3e f90e 45bc
00000090: 3082 64bd 7596 573d c127 c43d 6714 273d
000000a0: 67da 63be 1ced 8ebe 2707 b23d 1285 203d
000000b0: d2f1 303c d09a a0be 0194 83bd b5d6 773d
000000c0: 5f1a 803d c63e b8bc 9982 c53d 47e4 573d
000000d0: 3405 f0ba c3c0 67bd 2091 5dbe ac88 423d
000000e0: 9ef2 8e3d 5af4 ab3d 4bd7 cf3d 2a01 443d
000000f0: 7125 73be d47b d7bc 558a 623c 5c23 443d
00000100: 3bef 86bd 18e7 263d 18b6 643e 0f67 e43d
00000110: 1df9 833d 6ca5 3fbe 9ecf 943d 4a6f 89bd
00000120: f028 153e cca8 f9bd 15d2 e23c ecef d4bd
00000130: 09f9 2c3e 0b89 98be e9b8 95bd 012d 2cbe
00000140: c9e6 2fbe e348 bebe f216 70bd 4b96 15be
00000150: 6efd c2be 4b16 993d 43c5 b6bd 216c 7cbd
00000160: a8dc a63c 5597 92bd a155 823d 2daf 2a3d
00000170: 52da afbd 26ee 793d d8cb e1bd e02b 82bd
00000180: b736 d1bd 77fc 4cbd 7a46 7bbd 056b a43d
00000190: 18ea 163d 7ab9 083d 4d5c 903c 878c 473e
000001a0: 1ede ff3d 0730 b33d 2140 7f3d 025c 3d3d
000001b0: 34c9 fcbd 66d4 ca3c cc27 b7bd 75f3 5fbc
000001c0: df41 063e 4a86 88bd 3acc a13d ce19 df3c
000001d0: 82f5 7a3d a982 f03d 866b 23bd d15d 153e
000001e0: bd12 2cbe e85f b83d 791c 713d 36be 54be
000001f0: c03d 903e 05c4 b8bc 5842 ca3c 976b 7bbd
00000200: df82 37bd 8e0f a23b 80a5 05be fb83 f5bb
00000210: e5e7 033d 4929 2b3d d68e e1bd a7e2 6abd
00000220: 63a7 0dbd c630 a43d c7d7 d03c 4f9d 493e
00000230: 9224 25be 6f76 b23d d968 f63d bc3a a9bb
00000240: 4088 4ebc b6ab a83d 684b 893d 0388 0abd
00000250: b221 f83d 3323 07bc e0de 33bd 9369 06bd
00000260: f040 aa3c 22dc 6b3b b659 883c 512d 1a3e
00000270: 80bb d53c 5405 7fbc ccba c53b a89f 423c
00000280: 96df bd3d a6ed 36bd 5596 c1bc 0d0f 263c
00000290: c186 c0bd c91e 4f3a 13f9 363e 768b 8cbd
000002a0: 589f d13c d9e2 1ebd fa1b bbbd d8de ba3d
000002b0: 880e b13c add5 e9bc 4656 e03c a3f1 9dbb
000002c0: 4d56 9c3d 7936 fbbd 5aba 59bc 65d1 abbc
000002d0: 3ad3 ba3d 5704 b6bc 9e34 d2bb 9298 893d
000002e0: e11b abbd dbcf 8bbc 68de 8bbd a847 a73c
000002f0: 1d3d 163e 3562 f6bd 7ad7 aebd 0d17 4a3d
00000300: d91e 0b3e 7b6d c1bd 5042 87bd f7d9 4ebd
00000310: a808 da3d a556 c63c 4368 f53d 72ff 453d
00000320: 29ba a3bd 56a9 bcbc 07af 56bc 3d76 7ebc
00000330: fa1e 64bd 2fb8 abbb 3d44 013d b8d9 a7bd
00000340: f19f d8bb 8000 5ebc 14f7 a6bd 98f9 bdbd
00000350: e394 77bb 5369 51bd a75a 8b39 5a2a d63c
00000360: d8bf c23c 1869 0c3e 30c4 2ebd 4e27 163e
00000370: f53a a33c e2ec 58bb f830 9a3c 23c5 afbc
00000380: 6a3b 773d 0d18 9fbd 1ba3 763d 2a12 01bd
00000390: 3378 27bc aa2e 293c 7398 62bd 7531 81bc
000003a0: 6c6b fb3b acf2 273e 4a64 6bbd d823 993b
000003b0: b9c5 61bd 3fab 51bc 5100 88bd fbdd da3d
000003c0: 40c3 96bd bfab a9bd cb91 d6bc fcc3 dc3d
000003d0: 2a2c a3bd b570 a23d 9b1f a73b bbab 55bc
000003e0: cbc1 3fbc 1583 91bb 5cbd 803d 425b f1bd
000003f0: 5905 c23c 3118 413c f8ca 6a3d 034b 1cbb

bias f4 [128]
-0.2243873 0.17307472 -0.07428201 -0.12830022 0.073218904 -0.15005122 0.049273975 -0.19711259
-0.10956491 -0.07515099 -0.08884145 -0.14677432 0.022313802 -0.083294034 -0.22877237 -0.13504332
-0.12927939 -0.04024722 -0.022325896 0.057728775 -0.033252653 -0.029357985 -0.058410503 -0.030820904
-0.10304757 -0.2070202 0.12778696 -0.08700518 -0.07591764 -0.05307463 -0.10727058 -0.13290295
0.019327525 0.014420599 -0.089438505 -0.1651752 -0.3217966 0.19196106 -0.070022434 0.07902253
0.12417543 -0.040556025 -0.40911946 0.013460079 -0.12729105 -0.062731065 -0.057863973 -0.008519107
0.025360709 0.029853202 -0.03294984 -0.101847574 -0.0354341 0.042208012 0.023212057 -0.10270186
-0.15098535 -0.05403069 0.071218535 -0.18632805 -0.13733114 -0.36084235 -0.11339452 -0.10954132
-0.08159464 -0.035613865 -0.11484157 0.06968023 -0.12129295 -0.07782985 -0.114522606 -0.3301401
0.013716186 -0.07940195 -0.0927809 -0.16996944 -0.23968711 0.045592844 0.067304954 0.052575618
0.022170603 -0.07026491 0.04819739 -0.12723581 -0.11860482 -0.07544723 -0.16140404 -0.10713336
-0.16998933 -0.105464 0.14317782 -0.09864177 0.050751176 -0.13812986 0.098760396 0.07509059
-0.09601598 -0.02696089 -0.16512847 -0.12330896 0.04052809 -0.08528994 0.07648933 -0.0025488036
-0.08800296 0.09275605 0.14281072 -0.03709708 -0.03187065 -0.026305966 -0.27639958 -0.039905753
-0.019513808 0.05863512 0.032323543 0.009195413 0.062079497 -0.055200465 0.063635476 -0.06495471
-0.06361354 -0.21665429 -0.13856085 -0.07140067 0.015715612 -0.17495644 -0.08313783 -0.10352266
00000000: c9c5 65be 803a 313e 2b21 98bd 2261 03be
00000010: cbf3 953d 07a7 19be 82d3 493d e2d7 49be
00000020: 9163 e0bd c3e8 99bd 82f2 b5bd 024c 16be
00000030: 6fcb b63c 1096 aabd 4e43 6abe cc48 0abe
00000040: d161 04be 45da 24bd cce4 b6bc 0275 6c3d
00000050: ef33 08bd 2880 f0bc da3f 6fbd 1f7c fcbc
00000060: 9b0a d3bd 1afd 53be 96da 023e c62f b2bd
00000070: b57a 9bbd c964 59bd aeb0 dbbd b617 08be
00000080: c254 9e3c 6044 6c3c 892b b7bd b023 29be
00000090: 86c2 a4be 7191 443e ec67 8fbd 90d6 a13d
000000a0: b04f fe3d 131e 26bd 1b78 d1be aa87 5c3c
000000b0: 9658 02be 2579 80bd c602 6dbd b993 0bbc
000000c0: 43c1 cf3c b48e f43c 69f6 06bd 7695 d0bd
000000d0: 5923 11bd 4fe2 2c3d 3627 be3c 5a55 d2bd
000000e0: e79b 1abe 494f 5dbd 06db 913d c8cc 3ebe
000000f0: 89a0 0cbe 54c0 b8be 633b e8bd 3357 e0bd
00000100: 171b a7bd d8df 11bd 0f32 ebbd 82b4 8e3d
00000110: 7068 f8bd 4265 9fbd d48a eabd 2008 a9be
00000120: dbb9 603c 7d9d a2bd ea03 bebd 780c 2ebe
00000130: 8a70 75be 90bf 3a3d 2ed7 893d 8859 573d
00000140: 209f b53c 0de7 8fbd a06a 453d 1b4a 02be
00000150: 15e7 f2bd 1484 9abd 1a47 25be bc68 dbbd
00000160: af11 2ebe 82fd d7bd 359d 123e b204 cabd
00000170: 77e0 4f3d ea71 0dbe e442 ca3d 18c9 993d
00000180: 07a4 c4bd 16dd dcbc 7017 29be 6889 fcbd
00000190: c800 263d 7eac aebd 70a6 9c3d d409 27bb
000001a0: e53a b4bd e2f6 bd3d f93c 123e 1cf3 17bd
000001b0: cc8a 02bd 9c7f d7bc 3f84 8dbe 3774 23bd
000001c0: 6cdb 9fbc 612b 703d b165 043d 5ca8 163c
000001d0: 1247 7e3d e219 62bd 5153 823d fa06 85bd
000001e0: d147 82bd 9fda 5dbe e5e2 0dbe 843a 92bd
000001f0: 07be 803c c827 33be 2b44 aabd b003 d4bd

weight f4 [12, 128]
0.03255062 0.019082114 0.017015154 0.049571425 0.0686338 0.02420886 -0.01924214 0.030334005
-0.10262729 -0.054333035 -0.08582511 0.019258693 -0.046540488 -0.0022655346 0.030680353 0.046378452
-0.010766664 -0.016097803 -0.07813204 0.0379335 -0.023979036 -0.019372243 0.064776525 0.08424857
-0.050648425 -0.025445241 0.0034902086 -0.10453343 0.049949683 0.10046282 0.021149278 0.023270313
-0.032638095 -0.026079932 -0.017347822 -0.008822068 0.07418589 -0.02018115 0.07650389 0.06865919
0.05026772 0.043523803 -0.12178523 0.08323257 -0.018712724 -0.1004135 -0.01208925 -0.029280072
0.045282234 0.059821937 0.102650784 -0.037417166 0.045074925 -0.07885533 0.008728594 0.058918204
-0.055886347 0.013136313 -0.08754549 -0.060064554 0.03183105 -0.025864344 -0.013365811 0.041997556
-0.017043158 0.009426978 0.018580627 0.014547544 -0.030748911 -0.024364546 -0.19679077 -0.07845339
-0.043876227 -0.09613153 0.027629703 -0.10541416 0.053635154 -0.013231695 -0.009848095 -0.0015444272
-0.0071259807 0.0350395 -0.025336934 0.043382026 -0.17777261 0.03871103 0.09881253 -0.027452128
0.07184261 -0.018885184 0.0584442 0.019872947 0.04680451 -0.07593818 -0.05932121 0.029914182
0.07067366 0.03180587 0.05352857 -0.020206193 -0.0073376275 -0.043949287 0.028318578 -0.041139636
0.068668164 -0.00559652 0.014637487 -0.019870449 -0.029328732 0.03733896 -0.015184232 -0.02100163
-0.0049335207 0.01556208 -0.0116886 -0.09207253 -0.107480966 -0.11302691 0.0545517 -0.049343873
-0.07302775 -0.07525618 0.028976677 -0.02911421 -0.054651316 0.11732732 -0.011935321 0.043080244
-0.06604889 -0.031127019 0.085275166 -0.025724284 0.06333218 -0.007984757 -0.0033142627 0.036586463
-0.041796494 0.03060979 -0.051541146 -0.06834735 -0.0064810747 0.022478493 0.047698606 0.122964434
-0.015926532 0.029608618 -0.035799477 -0.036436554 -0.01985038 0.009914374 -0.05345059 0.024512064
0.03943336 0.07149125 0.04000493 0.081563 -0.047510244 -0.02045797 -0.029980857 0.03460667
0.029098095 0.05319592 0.018355552 0.027086208 0.125906 -0.011254139 -0.038977098 0.0015013921
-0.005743791 -0.024415867 -0.054672863 0.015520888 -0.14748101 0.04521215 -0.08639482 -0.070228234
-0.009987774 0.03880016 0.013754579 0.12883551 -0.035129942 -0.05293967 -0.032862086 -0.07318793
-0.0891952 0.03725214 0.007401233 0.0024368365 -0.009672242 -0.085593514 -0.065525115 0.08849719
0.08408804 -0.05776704 0.09503009 -0.010554026 0.080720805 0.059219614 0.13898881 0.10496954
-0.005326808 -0.014701997 0.023566615 -0.028633872 0.013912459 0.03076851 0.061204523 0.015230294
-0.032633353 0.06245583 -0.015872108 -0.065226845 -0.07091127 0.0026245576 0.044972245 0.0645758
0.064665526 -0.041391872 0.02276287 -0.09444631 0.039752543 0.18102932 0.020376176 0.0027821134
0.029617105 0.06499891 0.056252256 -0.061608955 0.0353759 -0.14948303 -0.00076969044 -0.01193616
0.006310461 0.009945485 -0.03599743 -0.0674715 0.008273156 -0.0030132683 0.09050779 0.012937905
-0.09175472 -0.05501305 -0.0072924914 -0.11077758 0.009689999 -0.12328048 0.00866251 0.01759359
-0.06809503 0.0068729836 0.007500717 -0.04237399 -0.025661454 0.073773235 -0.013695371 -0.093507
00000000: cd53 053d 1852 9c3c 5d63 8b3c 680b 4b3d
00000010: e18f 8c3d a951 c63c b1a1 9dbc 057f f83c
00000020: 422e d2bd 518c 5ebd 13c5 afbd 68c4 9d3c
00000030: 3da1 3ebd 5d79 14bb 5d55 fb3c 55f7 3d3d
00000040: a966 30bc 8adf 83bc b103 a0bd 2860 1b3d
00000050: af6f c4bc 8ab2 9ebc 8ea9 843d 848a ac3d
00000060: b974 4fbd 8a72 d0bc fcbb 643b 9f15 d6bd
00000070: 0a98 4c3d 73bf cd3d 4041 ad3c 62a1 be3c
00000080: 86af 05bd 95a5 d5bc 051d 8ebc 6f8a 10bc
00000090: c6ee 973d f052 a5bc 12ae 9c3d 309d 8c3d
000000a0: 86e5 4d3d 0446 323d 896a f9bd d675 aa3d
000000b0: 6d4b 99bc 98a5 cdbd fd11 46bc c3dc efbc
000000c0: dd79 393d d907 753d 933a d23d be42 19bd
000000d0: 7ca0 383d e77e a1bd 6002 0f3c 3754 713d
000000e0: 15e9 64bd b139 573c 0d4b b3bd 4006 76bd
000000f0: 4661 023d 76e1 d3bc 46fc 5abc a105 2c3d
00000100: 189e 8bbc 9d73 1a3c 6636 983c d258 6e3c
00000110: 24e5 fbbc 2898 c7bc 8583 49be 2cac a0bd
00000120: 8fb7 33bd 9ce0 c4bd b057 e23c 61e3 d7bd
00000130: 89b0 5b3d c0c9 58bc e759 21bc 616e caba
00000140: 0f81 e9bb 9485 0f3d 678f cfbc 5ab1 313d
00000150: 060a 36be 758f 1e3d 395e ca3d 49e3 e0bc
00000160: 3822 933d 1ab5 9abc 2f63 6f3d 97cc a23c
00000170: 16b6 3f3d 7a85 9bbd ccfa 72bd 960e f53c
00000180: 5abd 903d df46 023d c640 5b3d 7587 a5bc
00000190: 7b70 f0bb 2b04 34bd 5dfc e73c 0982 28bd
000001a0: e5a1 8c3d 0363 b7bb 12d2 6f3c 5ac7 a2bc
000001b0: cf42 f0bc bdf0 183d 49c7 78bc 9c0b acbc
000001c0: 5fa9 a1bb 18f8 7e3c 8b81 3fbc 8690 bcbd
000001d0: fb1e dcbd a77a e7bd 9a71 5f3d cd1c 4abd
000001e0: 938f 95bd e91f 9abd 7f60 ed3c ec80 eebc
000001f0: 0fda 5fbd 4e49 f03d 5d8c 43bc e974 303d
00000200: a444 87bd 17fe febc bfa4 ae3d bcbb d2bc
00000210: 4db4 813d 80d2 02bc 1a34 59bb b0db 153d
00000220: cd32 2bbd 62c1 fa3c cf1c 53bd b2f9 8bbd
00000230: 325f d4bb d124 b83c 9d5f 433d c7d4 fb3d
00000240: 5c78 82bc c68d f23c 79a2 12bd 7f3e 15bd
00000250: 449d a2bc e66f 223c 02ef 5abd 86cd c83c
00000260: e084 213d 016a 923d 36dc 233d 810a a73d
00000270: 1a9a 42bd 7997 a7bc 6a9a f5bc b9bf 0d3d
00000280: 215f ee3c f7e3 593d 625e 963c e5e3 dd3c
00000290: 81ed 003e 4863 38bc 73a6 1fbd 5cca c43a
000002a0: 6936 bcbb c903 c8bc a7f0 5fbd 534b 7e3c
000002b0: 4305 17be 6030 393d c4ef b0bd d2d3 8fbd
000002c0: c3a3 23bc ebec 1e3d e35a 613c 75ed 033e
000002d0: 6ae4 0fbd 44d7 58bd 659a 06bd 8ee3 95bd
000002e0: f9ab b6bd b395 183d 0b86 f23b 55b3 1f3b
000002f0: 5378 1ebc a74b afbd 0832 86bd 043e b53d
00000300: 5a36 ac3d 229d 6cbd 239f c23d cbea 2cbc
00000310: f350 a53d 4490 723d 1553 0e3e 45fa d63d
00000320: 818c aebb a5e0 70bc c60e c13c 9591 eabc
00000330: 15f1 633c 3e0e fc3c 98b1 7a3d 7c88 793c
00000340: 8daa 05bd afd1 7f3d 3906 82bc a795 85bd
00000350: ee39 91bd c500 2c3b d134 383d 5140 843d
00000360: 5c6f 843d 868a 29bd 3379 ba3c 116d c1bd
00000370: 90d3 223d c05f 393e f0eb a63c 1e54 363b
00000380: 929f f23c 261e 853d c468 663d ac59 7cbd
00000390: 52e6 103d 1412 19be 0dc5 49ba e28f 43bc
000003a0: fcc7 ce3b 63f2 223c 0b72 13bd 7f2e 8abd
000003b0: 228c 073c 417a 45bb 265c b93d 82f9 533c
000003c0: e6e9 bbbd 5d55 61bd daf5 eebb 5bdf e2bd
000003d0: cdc2 1e3c 7a7a fcbd 33ed 0d3c 6f20 903c
000003e0: 6875 8bbd c436 e13b 93c8 f53b 5990 2dbd
000003f0: f837 d2bc 6c16 973d 8d62 60bc 9980 bfbd

bias f4 [12]
-0.0567969 0.041462544 0.080983475 0.043971203 -0.053097103 -0.02842595 0.029757893 -0.031983748
0.22125056 -0.2139398 -0.1685909 0.21510032
00000000: dea3 68bd a1d4 293d aada a53d 261b 343d
00000010: 597c 59bd 8add e8bc d3c6 f33c 6401 03bd
00000020: 828f 623e 0913 5bbe 18a3 2cbe 4243 5c3e
