policy/policy_nojitter.pt (torch, 174326 bytes, 8 tensors)

weight f4 [128, 48]
000000 5c 0a d4 3d e2 26 35 bf 70 86 2d be 12 c2 31 3d
       0.103535384 -0.70762455 -0.16945815 0.04339797
000010 aa bf 8d bd db a1 87 bd 25 87 50 be f1 6c 05 bf
       -0.06921323 -0.06622668 -0.20364054 -0.52119356
000020 ea c2 d2 be 07 76 2c bd a5 eb 9f 3c 68 b2 57 3d
       -0.41164333 -0.042104747 0.019521544 0.052660376
000030 98 a3 6b 3f 51 eb bb be 4e 2a 3a 40 df 74 d9 bc
       0.920465 -0.3670297 2.908832 -0.026544986
000040 40 5d 6a be 42 3d d0 3e 35 38 8e bf 3c 9a c7 bd
       -0.22887135 0.40671736 -1.1110903 -0.09746215
000050 b2 b8 1a 3f ed c8 19 c0 59 c4 79 bf 93 82 3a 3f
       0.6043807 -2.4028885 -0.9756523 0.7285549
000060 85 1b 47 bb 6b 33 6e bd 07 f5 e7 bb c3 cb 3b bc
       -0.0030381393 -0.058154505 -0.00707877 -0.011462155
000070 60 da c1 bc 06 6c ac 3b 95 9a 85 bb e4 9b 4f bd
       -0.0236637 0.005261901 -0.0040772655 -0.05068578
000080 6a a6 8d bc d5 8b ec bd 42 94 44 3c 22 ab f2 3c
       -0.017291266 -0.11550108 0.011998238 0.029622618
000090 2b df 94 3e fb c0 74 bd ee 2e 5f be a9 7d df bd
       0.29076514 -0.059754353 -0.21795246 -0.1091264
0000a0 bd e1 81 3d c2 25 b4 3e db e2 8c bd 04 59 ac be
       0.06341884 0.35185057 -0.06879207 -0.33661664
0000b0 59 28 21 3e 99 c2 a5 be 83 48 47 b9 44 54 cd bd
       0.15738048 -0.3237503 -0.00019005132 -0.10025838
0000c0 ae ac f3 3e 54 c5 52 ba 81 91 b4 3e 8a 07 6e bc
       0.47592682 -0.00080402684 0.3526726 -0.014528165
0000d0 0e 28 85 3d ed df 11 be a3 8e a2 bf d4 c9 b7 bf
       0.065017805 -0.14245577 -1.2699779 -1.4358468
0000e0 8f 57 89 3d 0d 14 5e bd d7 3b 89 3c 31 b4 11 be
       0.067061536 -0.05421834 0.016752167 -0.14228894
0000f0 54 81 0b 3d 8d be db bf cf fa 51 bf 59 77 d2 bf
       0.034058884 -1.7167526 -0.8202333 -1.6442672
000100 e2 58 5f 3e 2b 74 e9 3d c2 75 a3 bf ba 5e 83 3f
       0.2181125 0.113991104 -1.2770312 1.0263283
000110 73 5a 80 bf db 7e a0 3f 38 44 26 3f 73 27 b3 3f
       -1.0027603 1.2538713 0.64947844 1.3996414
000120 f1 ca c9 3c 81 89 49 be e8 7a c6 3d a4 55 aa ba
       0.024632903 -0.1968136 0.09691411 -0.0012995494
000130 47 30 36 bd 36 3a 70 bc a9 e1 13 be 7d d3 cd 3c
       -0.044479635 -0.014662316 -0.14441551 0.02512526
000140 52 a9 33 3d 67 6f d8 bc 33 81 bd 3d 3f fe 6c 3c
       0.04386265 -0.026420308 0.092531584 0.014464914
000150 7b 8f 09 3f 3b 50 0e 3e 99 b1 e7 3d 40 cc 02 3e
       0.5373456 0.13897793 0.11313171 0.12773228
000160 f0 06 64 3e 5b 5c 90 bd 13 5c c7 3d 6e 35 0a bf
       0.22268271 -0.070488654 0.09734359 -0.5398778
000170 84 71 2f be 36 20 fe be 95 b2 2a 3f a6 91 29 3e
       -0.17133147 -0.4963395 0.66678745 0.16559467
000180 42 04 24 3e c1 5e ed bf 2e 67 bf be f0 f1 a9 bb
       0.16017249 -1.8544542 -0.37383407 -0.005186312
000190 54 38 e2 bd 23 ef a5 bd 67 6c d5 bf 27 e7 e7 bf
       -0.110459 -0.08102252 -1.6673707 -1.8117417
0001a0 9d 65 32 3e a0 85 50 bd 28 53 0d 3e aa 6a 4f 3d
       0.17421575 -0.050908685 0.13801253 0.050638832
0001b0 cf 61 44 bf 6b cf 91 be a9 35 24 be b2 17 7e bf
       -0.76711744 -0.2847856 -0.16036095 -0.99254906
0001c0 7d 73 a4 be ee c3 9f 3f 42 49 27 40 57 dd 8f be
       -0.3211936 1.2481668 2.6138463 -0.28098556
0001d0 4d 2c 54 bf b3 0a 83 bf bb 01 13 3e 91 f4 ec 3e
       -0.828801 -1.023764 0.14356129 0.4628034
0001e0 83 9a fb 3c 45 4f 21 be 86 3f fe 3a 22 df 13 3d
       0.030713325 -0.15752895 0.0019397594 0.036101468
0001f0 ca fd c0 bc 72 24 87 3d 3a 28 bf ba 8a 71 75 39
       -0.023558516 0.06598748 -0.0014584132 0.00023407317
000200 81 4c a0 bc 22 df 96 bc 48 f1 7f 39 e6 90 0c bc
       -0.01956773 -0.018416945 0.0002440858 -0.008579468
000210 c6 90 9c 3d d6 e1 84 3e 84 d7 4e bb a5 a2 4a be
       0.07644801 0.2595355 -0.0031561563 -0.19788606
000220 95 f8 e0 3e 9c ed b8 bb d4 db 8d be b8 d4 35 bd
       0.43939653 -0.0056435596 -0.27706778 -0.044392318
000230 13 05 97 3e 61 1d 31 be e5 6a 0f be 27 15 3d bc
       0.2949606 -0.17296363 -0.14005621 -0.011540688
000240 c8 bf 4b 3f 7d ab 9f bf e8 36 bb 3d 5a 89 ac bb
       0.7958951 -1.2474209 0.09141332 -0.005265397
000250 cb 1b a5 bd 5d 0d 22 bf 0f 80 0a 3f 06 dd 5f 3f
       -0.08061942 -0.6330164 0.5410165 0.8744663
000260 7b 8f b6 3e b7 f8 c9 bd 36 db 05 be d0 5f 94 3e
       0.35656342 -0.09861892 -0.13071904 0.2897935
000270 e9 9f 65 bf 39 06 1d bf 03 4f 1f bf 73 04 39 3f
       -0.8969713 -0.6133762 -0.6222994 0.72272414
000280 47 48 f5 bf 30 8a 4b 3f 8e 7b a4 bf be 3b 4a bf
       -1.9162682 0.7950773 -1.2850206 -0.7899741
000290 91 23 6b 3f a3 8b 57 bf ef 01 a4 3e 1b b9 e0 be
       0.91851145 -0.84197444 0.32032725 -0.43891224
0002a0 95 a8 80 bb 83 88 ef bc ad 1b a0 3c ff d8 b8 3b
       -0.0039263465 -0.029239899 0.019544447 0.0056411023
0002b0 de ff 54 bc 9b 16 71 bd ca 1e ec bc d4 03 36 bc
       -0.013000457 -0.05885945 -0.028823275 -0.011109311
0002c0 5f 39 fc bc d4 0d 2c 3c 9c c9 a1 bb fd dd e3 3c
       -0.030789075 0.010501344 -0.004937364 0.027815813
0002d0 85 c3 a6 3e c4 b7 b5 3d a9 55 31 bd 39 1d 9d bd
       0.32571045 0.08872941 -0.043294583 -0.076715894
0002e0 02 c2 32 3e eb 69 a4 bc 4a ca 76 be 41 d3 bd 3d
       0.1745682 -0.020070037 -0.24100605 0.09268809
0002f0 f9 60 9e 3d ed ea 33 be e1 20 40 be f1 8b 5d 3e
       0.0773334 -0.17570086 -0.18762542 0.21635415
000300 0d cb 6b bf 17 bc bf bf 2c 6a 1e bf 4c 69 6e 3d
       -0.92106706 -1.4979275 -0.61880755 0.058205888
000310 a9 29 6a be b7 b8 57 be 72 0d 1b c0 5f a5 ee bf
       -0.22867455 -0.21066557 -2.4226956 -1.8644217
000320 a3 19 da 3e aa 5d da 3d b5 fc ae 3e e7 99 aa 3e
       0.42597684 0.10662396 0.34177175 0.33320543
000330 3f 79 06 be 45 1f 9d 3f 48 d3 0d 3d 7c 23 e4 bf
       -0.13132189 1.2275168 0.03462532 -1.7823329
000340 8a 8c b5 be aa e0 f2 bf ec 54 29 3e 14 a5 d5 3d
       -0.35458785 -1.8974812 0.16536301 0.10431877
000350 49 09 17 3e 1b 54 3e 3f f9 49 c3 3e 9b 8c 88 bf
       0.14749636 0.74347085 0.38142374 -1.0667909
000360 86 6c 2a 3d e5 7a f4 bb 3f 65 6b bc 58 8c 5f bc
       0.041607402 -0.007460939 -0.014367401 -0.0136443
000370 ad 3d 8c 3b 2c 5e 72 bd 6b f5 ec bb e3 7d 66 3b
       0.0042798133 -0.05917184 -0.0072314045 0.003517025
000380 b6 bc ce 3b 74 61 64 bb 56 0e 1b bc 16 c6 38 bd
       0.006309117 -0.0034848126 -0.009463867 -0.045110784
000390 c3 63 d7 bd 2d 92 0c 3e d4 36 92 3e b8 d2 1d bc
       -0.10517075 0.13727637 0.28557456 -0.009632759
0003a0 ee 34 a3 3d d9 ee 98 bd 70 32 19 3e 6d eb 1b bc
       0.0796908 -0.074674316 0.14960647 -0.009516579
0003b0 c4 23 f2 3d 0b 98 02 bd 4a ec 7f 3c 74 32 89 3e
       0.11823228 -0.03188328 0.015620301 0.26796305
0003c0 f3 28 4e 3c 07 23 c5 3f f9 f8 81 bd 62 fb f8 3c
       0.012583005 1.5401314 -0.06346316 0.030393306
0003d0 22 8f b9 3d f5 9e 81 be 88 db 15 3f 6b 2a a2 3f
       0.090605035 -0.25316587 0.58538103 1.2669195
0003e0 d7 1d 7e bd fa 36 b7 3d ee b8 3a 3f df a3 40 be
       -0.062040176 0.08946033 0.7293843 -0.18812512
0003f0 91 16 c9 3f 78 f1 1c c0 6e 91 43 bd 58 89 82 3f
       1.5710012 -2.452238 -0.047746114 1.0198164

bias f4 [128]
000000 07 4c a5 3e 1d 61 ee ba 69 64 94 3d ce 4b 09 be
       0.32284567 -0.0018186901 0.07245714 -0.13407823
000010 63 91 28 bf ce 5e e9 3c 1f 90 31 bd bb f9 c7 be
       -0.6584684 0.02848759 -0.043350335 -0.39057717
000020 73 96 21 bf 0f a1 50 be 95 a9 3a bd 06 6f 15 3e
       -0.6312019 -0.20373939 -0.045571882 0.14593133
000030 cb 9e 6f 3e c5 97 09 3e 2e 21 38 3f 35 1e 89 be
       0.23400418 0.13436802 0.7192563 -0.2678086
000040 b6 1e d9 3d 91 2d f2 bd fe b9 11 3e f8 00 0f 3f
       0.10601561 -0.11825097 0.14231107 0.55860853
000050 dd bd 7a be c8 26 85 bf 83 0f 55 3d 0b 55 5e be
       -0.2448649 -1.040246 0.052016746 -0.21712129
000060 9d 00 16 bf b9 4f a7 3e 06 d6 f6 be db 57 ed bd
       -0.58594686 0.3267801 -0.48210162 -0.11589023
000070 4d cf ec be c7 9e ab 3d 16 7b 5f be 97 bd c6 be
       -0.46251908 0.08379894 -0.21824297 -0.3881652
000080 28 cc 39 3e 5f b0 b3 be bd 5e 12 be 2b aa bc be
       0.18144286 -0.35095498 -0.14293952 -0.36848578
000090 b2 94 72 bc 1f c8 45 bf 72 dd c5 be 9c 72 b6 be
       -0.01480596 -0.77258486 -0.38645512 -0.35634315
0000a0 69 ca 07 be c3 8c 76 be 85 2d 00 3f 7c cf a4 be
       -0.13260807 -0.24077134 0.5006946 -0.32189548
0000b0 ac ca c9 3e 51 fd 90 3e 90 e7 53 3f 17 d5 05 3f
       0.3941244 0.28318265 0.8277521 0.52278274
0000c0 28 f5 8c 3e c1 f0 f3 bd 61 8b a1 3d 5e 8d 72 3d
       0.2753079 -0.119111545 0.078879125 0.05921685
0000d0 00 b3 73 bd d4 75 ce bd 18 3f 5c be 6d 98 c5 3e
       -0.05949688 -0.10081068 -0.21508443 0.38592854
0000e0 2f ba e3 be 95 6a 98 3e 19 8e 1e 3f 1d ff 9f bd
       -0.44477984 0.29768816 0.61935574 -0.07812331
0000f0 99 c4 2d be 3c 86 32 3a a9 91 a7 be db df d7 be
       -0.16969527 0.00068101636 -0.32728317 -0.42162976
000100 ad 43 46 bf 82 63 f6 bd 01 85 22 bf ed 79 41 be
       -0.77447015 -0.12030698 -0.634842 -0.18894167
000110 41 d5 99 be d4 3a c1 be 92 65 e7 be f6 7b 45 bf
       -0.30045512 -0.37740195 -0.4519468 -0.77142274
000120 01 88 2f 3f 53 9d 26 bf ff 60 1f 3e 9a 36 73 3e
       0.685669 -0.6508381 0.15564345 0.23751298
000130 10 31 ae 3e 7b 93 1b bf 5d 83 87 be 0d ba 91 3e
       0.34021807 -0.6077191 -0.2646741 0.28462258
000140 d5 83 b3 be bc 6a 1a bf b3 88 18 3f 2e b8 04 bf
       -0.35061517 -0.60319114 0.59583586 -0.51843536
000150 53 78 af bd 38 17 8c 3e 47 80 3a 3e b8 30 28 be
       -0.08567872 0.27361465 0.18212996 -0.16424835
000160 85 11 f5 bb ea b1 5e 3d 48 93 14 3f 5e 3c ac 3e
       -0.007478895 0.05436889 0.58037233 0.33639807
000170 d4 c8 df 3d 8f 5c cc be 82 cd fb bd 53 a4 7d bf
       0.10926977 -0.39914367 -0.12295057 -0.99078864
000180 03 a2 3a bf 0d 03 34 bf f2 92 ea 3d 48 c7 ce be
       -0.7290346 -0.70317155 0.11453809 -0.40386415
000190 67 9a aa 3d 46 09 c8 be a9 d9 36 3e 08 d2 a0 bd
       0.08330231 -0.39069575 0.17856468 -0.0785256
0001a0 97 04 0a 3e 54 90 a4 bd 18 2a 4d be a4 8b 02 3f
       0.13478313 -0.08035341 -0.20035589 0.50994325
0001b0 cd 31 fc be 2a 1d 69 3e 31 0b aa be 99 54 0c be
       -0.49256745 0.22765031 -0.33211663 -0.13704146
0001c0 a3 fa f2 3e 61 6d dd be 44 ac 26 be ab cb 2d bf
       0.47456846 -0.43247512 -0.16276652 -0.678889
0001d0 67 d4 56 be a5 c8 68 3f b3 8a 0c be e2 1d e9 3d
       -0.20979463 0.9093116 -0.13724785 0.11382653
0001e0 35 0a f5 3e 76 74 10 be 04 74 ae be 62 43 18 bf
       0.4785935 -0.14106926 -0.34072888 -0.5947782
0001f0 13 bf bb be 94 4d 89 be b3 69 5e bf 90 76 27 bf
       -0.36669216 -0.26817 -0.86880034 -0.65415287

weight f4 [128, 128]
000000 29 5b c6 be e6 a9 8d be ff 15 14 3e 03 05 05 be
       -0.38741425 -0.27668685 0.14461516 -0.12990193
000010 de 28 0c 3e 75 20 32 3c 24 53 24 be 89 19 ba 3e
       0.13687465 0.010871996 -0.1604734 0.36347607
000020 4a 96 be bd e3 f6 26 bc ba 0a 2b be 07 55 23 bd
       -0.09306009 -0.010190698 -0.1670331 -0.03987601
000030 82 67 08 bf 4e 71 de bc d9 11 6f be 91 d4 48 be
       -0.5328294 -0.027153637 -0.23346652 -0.19612338
000040 6d e5 ad 3c 6c dc b2 bd fd d5 f7 bc 89 e2 29 3e
       0.021227563 -0.087334484 -0.030253405 0.16590323
000050 0d 87 6b 3e fb b9 33 3d b7 52 a4 bd 2b b0 7c bd
       0.23000737 0.043878537 -0.08023589 -0.061691444
000060 24 40 6d bc 91 ae 12 be 9f 0a a6 3b a1 b2 89 be
       -0.014480624 -0.14324404 0.005067184 -0.26894096
000070 6a 2e 9c bb af 63 99 3d fc 03 9e 3e 6c 95 9e be
       -0.004766275 0.07489716 0.30862415 -0.30973375
000080 34 e2 ce 3d 52 be a8 be dd 88 35 bc 05 c5 0f be
       0.101017386 -0.32957703 -0.011079994 -0.1404
000090 cd 98 93 3d 6d e9 b9 3d 63 6f 92 bd 83 a6 3d 3d
       0.07206879 0.090777256 -0.071501516 0.046301376
0000a0 a3 79 e6 3e c5 d7 33 be 7c 6f b9 3d 4d 39 06 3d
       0.45014676 -0.17562778 0.09054467 0.03276949
0000b0 6c 18 73 3e 08 8d 77 3e 5e 5f d3 bd 56 4b 4c be
       0.23739785 0.24174893 -0.10320924 -0.19950613
0000c0 6a 6b 66 bd 4e 40 a1 3d ba 8c d0 bd 14 55 9f 3c
       -0.05625478 0.07873593 -0.101830915 0.019449748
0000d0 12 6b b5 3d a1 e9 8d 3d 87 43 f5 3c b2 75 ae bd
       0.08858313 0.06929327 0.029939426 -0.08518542
0000e0 b3 b3 c4 bd 25 b5 07 be ff 3c 98 bd 47 3c d7 be
       -0.096045874 -0.13252695 -0.07433509 -0.42038175
0000f0 c0 17 60 3d 17 5d b1 3d 53 13 61 be 24 a7 79 3e
       0.05471015 0.086603336 -0.21980028 0.24380165
000100 a3 4c a9 3e 0c 3f ed bd 20 45 1c 3e f9 ee 56 3e
       0.33066282 -0.11584291 0.15260744 0.20989598
000110 b8 d5 da bc 61 4f c8 be af 3e 8b 3c 2b 12 87 3d
       -0.026713237 -0.3912306 0.016997663 0.06595262
000120 2a f4 62 bd 9e 90 7f 3e df 0b 66 3c e0 f8 34 be
       -0.055408634 0.24957511 0.014040916 -0.17673063
000130 ea 7a 0d be 08 d9 41 bd 8b 20 01 3d e8 68 15 be
       -0.13816419 -0.047326118 0.031525176 -0.145908
000140 28 62 f0 bd fe 66 7c 3e 66 c9 91 bd d7 16 81 3e
       -0.11737472 0.24648663 -0.07118492 0.25212738
000150 0b 3b 91 3e 8e e3 87 be d0 ed bb be 39 8e 43 3e
       0.2836536 -0.26540798 -0.36704874 0.19097222
000160 73 88 b0 bd 1c 9f 64 be f2 35 53 bd d8 0a 48 3e
       -0.086197756 -0.2232632 -0.051565118 0.19535387
000170 3c 88 73 be 24 e4 29 bd b0 e7 95 bd db ab 5d 3e
       -0.23782438 -0.041477337 -0.073195815 0.21647589
000180 ae 60 a4 bb 8e 41 b0 3e 9e 25 95 be d8 71 3c be
       -0.005016408 0.34425014 -0.29130262 -0.18402803
000190 00 ef c1 3b 9a 3f 99 be 37 c3 42 3d 22 29 26 be
       0.0059183836 -0.29931337 0.047549453 -0.16226628
0001a0 62 1f 82 be 51 9c 56 3e 08 1d 2c be 1e 2c 55 be
       -0.25414568 0.20958067 -0.1680795 -0.2081761
0001b0 9b 2d 94 bd 87 3f 97 3d a8 00 8a 3e 12 b9 cb 3d
       -0.07235261 0.07385164 0.26953626 0.09947409
0001c0 70 cc 0f bd 07 62 db bd c5 a2 d0 bd 3c b5 1c 3e
       -0.035107076 -0.107120566 -0.10187296 0.1530351
0001d0 92 1b bb bd a2 52 b6 3d b0 dd 39 be c4 a7 67 be
       -0.09136118 0.0890248 -0.18150973 -0.22622591
0001e0 86 9b 00 be 25 30 4c be a8 81 df be 14 ee a0 3d
       -0.12559327 -0.1994024 -0.43653607 0.0785791
0001f0 22 ae b3 3d 98 e0 91 3e 3f 43 da 3d 5d af 42 3e
       0.087734476 0.28491664 0.106573574 0.19012208
000200 93 0c 05 be c3 0a cb 3d c3 51 7c 3d 18 e7 60 3d
       -0.12993078 0.09914162 0.06160141 0.05490789
000210 2b d3 9b be 0c fd 89 3d 61 ba c4 bd 42 ab 17 3e
       -0.30434546 0.06737718 -0.096058615 0.14811423
000220 33 21 d1 3d 8e 46 ef bd 19 19 08 3e cd e7 61 be
       0.102114104 -0.11683379 0.13290824 -0.22061081
000230 90 c2 c8 3d 18 29 84 be da ad 82 bd 56 1c f6 3d
       0.09802735 -0.25812602 -0.06380816 0.120171234
000240 d3 46 45 be 90 96 09 3e 9f c2 34 be d7 59 14 3d
       -0.19265299 0.13436341 -0.17652367 0.03621849
000250 25 ec 0c 3e d4 48 a7 be f8 3a b7 bd f8 93 c1 3c
       0.13761957 -0.3267275 -0.08946794 0.023630127
000260 ca 26 ea 3b b8 23 04 3c c4 c3 f5 bc 79 d2 c0 bd
       0.0071457373 0.008065157 -0.030000575 -0.094151445
000270 b6 01 c3 bd 9b 07 da bc 41 87 71 be b7 93 d5 bd
       -0.09521811 -0.026614955 -0.23586752 -0.10428565
000280 ce 70 f0 3c c6 d6 1b 3e 5f 5c ea bd b3 03 c7 3d
       0.029350664 0.15218648 -0.114434 0.097175024
000290 a4 63 83 3e 43 b8 7f bc 4b 7d a5 bd 5a b3 3b bd
       0.25661957 -0.015607896 -0.08080538 -0.04582534
0002a0 8c 1e 21 bd ee 26 f5 bc 02 cf eb 3d 79 e6 11 bd
       -0.039335772 -0.02992579 0.11514093 -0.035620186
0002b0 07 e7 e5 bc 74 30 be be c1 59 f9 3c b4 c2 9b 3d
       -0.028064264 -0.37146342 0.030438306 0.07605496
0002c0 27 4e bc 3e 11 d5 80 bd 5f db 79 3e d0 c9 63 bc
       0.36778376 -0.06290639 0.2440009 -0.013903096
0002d0 80 36 79 bd ad 16 48 3e 5f 9f ca bd ee a9 ec bd
       -0.06084299 0.195399 -0.09893679 -0.11555849
0002e0 26 62 b8 3c f6 e0 6b 3d e7 b1 4b be 85 ce 29 bd
       0.022507738 0.057587586 -0.19892083 -0.041456718
0002f0 84 f1 47 be 1b 4e f9 3d aa 4a 8c 3e bc 37 af bc
       -0.19525725 0.121731006 0.27400714 -0.02138888
000300 4a 2d db bd e9 c2 4f bd e7 61 65 3c 42 36 07 3d
       -0.107019976 -0.05072299 0.0140003925 0.03301073
000310 5c 48 1b 3d 13 01 80 be 5e 49 fb 3d ae 8f 0f 3d
       0.037910804 -0.2500082 0.12269853 0.035049133
000320 4c 85 45 bd d8 01 11 3e 4d 48 2c 3e 9a 0c fc 3c
       -0.048222825 0.1416086 0.16824456 0.030767728
000330 b0 0e 0d 3d 65 f9 20 3e 5f 97 96 3e b3 65 8f 3d
       0.034437835 0.15720136 0.29412362 0.070018195
000340 75 a7 dd bd f9 07 3c be fa 10 30 3e 4a 0d 78 bd
       -0.108229555 -0.18362416 0.17193976 -0.06055955
000350 07 bd d8 3c cf b9 47 3d d9 15 26 3e 83 79 09 3e
       0.026457323 0.048761185 0.16219272 0.1342526
000360 5e 17 10 3e 79 a0 00 bb 83 f2 22 3e 5b 0b c6 3d
       0.14071414 -0.00196269 0.15912823 0.09670135
000370 aa 3c ad be 69 01 3e 3e f3 e2 6d be 6f 69 73 3d
       -0.33835346 0.18555225 -0.23231106 0.05942672
000380 23 87 00 bd a0 26 5d be d2 7b 2b 3d 63 3e 1d 3e
       -0.031378876 -0.21596766 0.04186613 0.1535583
000390 51 42 b7 3b 72 25 d7 bc c6 b8 18 3e a1 47 eb 3d
       0.0055926223 -0.026262973 0.14914235 0.114882715
0003a0 9e ab 04 3e 08 56 c0 be 9a e6 07 3d db 97 d0 bd
       0.12956092 -0.37565637 0.033178903 -0.10185214
0003b0 0d 10 0b 3d a6 7e 27 3d 1c 97 2e 3b 2f 6c bb 3d
       0.033950854 0.040892266 0.0026640361 0.09151494
0003c0 61 c3 50 3e d1 0f 85 3e d6 74 44 3e 63 0c 7d 3d
       0.20387031 0.2598863 0.19185194 0.06177939
0003d0 b1 12 10 bc d2 10 a3 bd 43 00 34 3e 9d 0d d8 3d
       -0.008793519 -0.079621926 0.17578225 0.105494715
0003e0 ee 65 74 3e 84 33 cb bd 31 13 89 3d 3c 15 e4 bd
       0.23867008 -0.09921935 0.066931136 -0.11136863
0003f0 5c 30 61 be c8 7c 11 bf a5 8f 29 be c7 86 40 3e
       -0.21991104 -0.56831026 -0.16558702 0.18801413

bias f4 [128]
000000 6a d9 00 bf 4d 3a 84 be 8a 63 d3 be bb 16 98 be
       -0.5033175 -0.2582573 -0.4128688 -0.29704842
000010 c8 49 64 bf f7 a4 92 be b2 3f 4c bf 64 f5 8f bd
       -0.8917508 -0.28641483 -0.7978469 -0.070292264
000020 73 af f7 be a6 c0 57 be f9 f9 a4 be a0 4e 82 bd
       -0.48376045 -0.21069583 -0.32221964 -0.06362653
000030 61 90 19 bf 4d cf 26 bf 9a 9d 93 bd 2e bd 08 bf
       -0.5998593 -0.65160066 -0.072077945 -0.53413665
000040 9f eb e5 be a1 67 3e 3e 54 7d 12 bf 29 f7 8d be
       -0.44906327 0.18594219 -0.57222486 -0.2772763
000050 c7 c5 ce be 5b 05 00 bf a1 13 46 bf 6e f5 6a be
       -0.40385267 -0.5000817 -0.773737 -0.22945186
000060 9e af 09 be d4 8f 19 bf 13 1a cf be 27 14 d5 be
       -0.13445899 -0.5998509 -0.4044958 -0.41616938
000070 e5 5b 8a 3c 53 59 84 bd bb 02 bf bd 08 7c a8 be
       0.016889522 -0.0646235 -0.09326693 -0.32907128
000080 45 80 2f be b4 9b f6 be 5c ce 10 3d 5d 8a 25 bf
       -0.17138775 -0.48165667 0.03535305 -0.6466425
000090 53 f8 55 be 4c c2 c0 be 7c 99 16 bf c3 a1 e6 be
       -0.2089551 -0.37648237 -0.5882795 -0.4504529
0000a0 5a ce 99 be ef 60 14 bf 33 c5 a2 be 70 39 89 bf
       -0.30040246 -0.5796041 -0.31791076 -1.0720654
0000b0 2a bd 3b 3d cb ad 3f bf 21 6f 69 3c dd c5 2b 3d
       0.045834698 -0.7487456 0.014247687 0.041936744
0000c0 6e bb 99 bd 36 12 1d bf be 95 6f bf 79 d4 97 be
       -0.075064525 -0.6135591 -0.93587863 -0.2965429
0000d0 1e 4f 71 be b7 2e 36 bd cf f7 a9 3d 81 14 9a be
       -0.23565337 -0.044478144 0.08299219 -0.30093768
0000e0 34 9e 48 bf 7d 0d 89 be e5 5f ba be 98 27 83 be
       -0.783664 -0.26768103 -0.36401287 -0.25616145
0000f0 3e 32 5a be 90 c8 66 bd e2 cf fa bd ea c8 86 be
       -0.21308228 -0.056343615 -0.12246682 -0.2632516
000100 fd 29 da bd ed f3 2c bf 0c ee 97 be e8 2d 63 bf
       -0.1065254 -0.675597 -0.29673803 -0.8874192
000110 20 f8 94 be bd f3 26 be 5f a3 98 be 93 40 98 be
       -0.29095554 -0.16303916 -0.29812142 -0.29736766
000120 79 c6 23 bd 9f b4 96 be 81 04 32 be 65 7a ef bd
       -0.0399842 -0.29434678 -0.1738453 -0.11693267
000130 86 fa 12 be 3e e5 89 bf 91 0c b7 3c ac dc 34 bf
       -0.1435338 -1.0773084 0.02234486 -0.7064922
000140 49 27 11 bf a9 4c 61 bf 8a ea f4 be 79 f7 1a be
       -0.5670057 -0.880076 -0.4783519 -0.15133466
000150 5a 98 5c bf 7d b1 40 be 2e 13 87 be 2e 5e cf be
       -0.8616997 -0.18817706 -0.2638182 -0.4050154
000160 46 b5 c8 bf e5 07 75 be 48 b4 89 bd 67 0e a2 3d
       -1.568032 -0.23928793 -0.06723839 0.07912903
000170 e1 75 67 bf 71 cb 19 3e af bd a7 be 31 d8 44 be
       -0.90414244 0.15019013 -0.32761905 -0.19223095
000180 25 ed 45 bf 51 d1 65 be 21 cc ad be c4 9a 01 bf
       -0.7731498 -0.22443129 -0.339448 -0.5062678
000190 e4 c2 ba be 9e 9c 47 3d 88 bd 02 be 2c cb f8 bb
       -0.36476815 0.048733346 -0.12767613 -0.0075925793
0001a0 59 90 2b bf bf 13 44 bf bb 37 e3 bc 06 0e b6 be
       -0.6701713 -0.7659263 -0.027736535 -0.35557574
0001b0 39 e3 db be 86 fb f2 be 18 8a bf be 25 ba 1e bf
       -0.42946795 -0.47457522 -0.37410045 -0.62002784
0001c0 a3 7b db bd f6 21 08 bf 3f 4c cb be fa cc 5a bf
       -0.10716941 -0.5317682 -0.3970661 -0.8546902
0001d0 28 29 d7 be ad 0d 23 bf 4f d7 0c bf 8c 2e 29 bf
       -0.42023587 -0.6369274 -0.55016035 -0.6608665
0001e0 8a 61 24 bf 8b ff bf be ef 41 3d be 06 ff 1a bf
       -0.6421133 -0.3749965 -0.18482183 -0.60545385
0001f0 92 82 ea be 85 d0 5f bf 03 48 58 be 41 b2 a5 be
       -0.45802742 -0.8742755 -0.2112122 -0.3236256

weight f4 [128, 128]
000000 62 8a 52 bc b1 52 d6 bd b7 3a bb bd 92 7d 28 3e
       -0.012850376 -0.10464991 -0.09142058 0.16454151
000010 d8 5a bc bd ea 81 8e be 58 5f 3b 3d fb ae de bd
       -0.091970146 -0.27833492 0.045745224 -0.108732186
000020 01 77 10 3d 65 10 b3 bd d2 02 8d bd 04 f9 d1 3d
       0.03526974 -0.087433614 -0.068853036 0.10252574
000030 b2 9c 9e 3d c0 67 b1 3d 78 63 2b 3d 17 d4 58 3e
       0.07744731 0.08662367 0.041842908 0.21174656
000040 c5 95 76 3e cf 52 24 bd 7e 56 1f 3c a1 ad 2e bd
       0.2408057 -0.040118035 0.009725211 -0.042646054
000050 94 32 70 be f7 78 d9 3c 06 93 ec bc 49 7a 28 be
       -0.23456794 0.026546938 -0.0288787 -0.16452898
000060 b8 9d a1 3c e2 e8 17 3b 4f 7f 22 be 2e af c2 bd
       0.019728526 0.002317958 -0.15868877 -0.09506069
000070 52 0f 58 be 40 5c 4b be 23 cc 22 3d ff 84 03 3d
       -0.21099594 -0.1985941 0.03974546 0.032109257
000080 5c 81 64 bd 6f af 1b be 47 db 3c bd 50 da cd 3d
       -0.05578743 -0.15203641 -0.046107557 0.100514054
000090 ef fa 22 3e fe ca f0 3b 06 17 d9 3d 1e 60 7e be
       0.15916036 0.0073484173 0.106000945 -0.24841353
0000a0 c0 2e 35 be 85 1a 2f 3e 1a 16 39 3e c6 8f 68 3d
       -0.17693615 0.1709996 0.18074837 0.056777738
0000b0 20 02 41 3d d3 48 ba 3d e7 89 86 bd 10 27 62 3e
       0.047121167 0.09095921 -0.065692715 0.22085214
0000c0 a8 eb 8c be 79 21 8b 3d f5 d5 51 bc 68 3d f4 bd
       -0.2752354 0.06793494 -0.012807359 -0.11925775
0000d0 4c 53 4a bd a7 0c a6 3d 5d e6 bc 3d 29 22 38 3e
       -0.049395844 0.08107882 0.09223626 0.17981781
0000e0 13 5b 20 bd af 05 fa 3d 2a 26 85 bd 9d 07 ef bd
       -0.039149355 0.12208115 -0.0650142 -0.11671374
0000f0 b5 d4 3a be 39 5d b2 3d 0f 31 a6 3e 5d d3 f8 3c
       -0.18245204 0.08709187 0.32459304 0.030374223
000100 46 cb 30 3e 32 33 77 bd 5d b4 13 be a5 88 e4 3d
       0.17265043 -0.060351558 -0.14424272 0.111588754
000110 d8 2d 2b be 24 3e f6 3c 3a d2 a3 bd 1a f5 7b bd
       -0.16716707 0.030058928 -0.07999082 -0.061513044
000120 46 22 09 be c4 86 08 3e 33 bc 10 3e ac 92 99 be
       -0.1339198 0.13332659 0.14134292 -0.29994714
000130 ea 8c 6b 3d 5e 74 9a 3d 03 30 11 3e 12 8e 35 bc
       0.057507433 0.075417265 0.14178471 -0.0110812355
000140 b9 a3 4b be 61 c3 a4 be 55 f0 6b bd 1b 99 2e 3d
       -0.19886674 -0.32180312 -0.057602245 0.04262648
000150 e5 b0 23 be c0 bd 12 bd 80 d1 57 3d aa ff bc 3d
       -0.15985449 -0.03582549 0.05269003 0.092284516
000160 22 47 7a 3d e9 46 4e 3e b5 25 0b bd 7d a0 0d be
       0.061102994 0.20144238 -0.033971507 -0.13830753
000170 f9 c7 37 3d 24 22 56 3e e3 6d 1a 3c 8d ea 8e 3d
       0.044868443 0.20911461 0.009425613 0.06978331
000180 70 62 6b be b7 c6 2c 3e 98 ba 5a 3d e5 65 58 3c
       -0.2298677 0.16872679 0.053400606 0.013207887
000190 cf c0 2c 3e 37 6f 94 be 3e 79 60 bd 9d 95 4f 3c
       0.16870426 -0.289911 -0.054803126 0.012669948
0001a0 c6 ef a8 3d b1 65 60 3d 1c 5b 30 3e e5 b9 ea 3d
       0.08248858 0.05478448 0.17222255 0.11461238
0001b0 ac c5 0f be 9a 73 91 3d 1d 64 8b bd 53 d3 87 3d
       -0.1404025 0.071021274 -0.068062045 0.06632104
0001c0 0a 58 e2 3c 6d 52 df bd a0 b7 c0 3c 7f 17 86 bc
       0.02762987 -0.10904393 0.02352506 -0.016368626
0001d0 94 3e d6 3d df 3e 72 3e 5b f4 99 3e 3a e4 01 3e
       0.104611546 0.23656796 0.3006924 0.12684718
0001e0 d6 20 be 3d 86 7e c2 3d a5 07 06 be e2 5b 93 3d
       0.09283607 0.09496789 -0.13088854 0.0719526
0001f0 17 5a c7 bd b4 ea 17 3c 39 86 15 3d e6 98 2a 3e
       -0.0973398 0.009272266 0.036504958 0.16659889
000200 f5 8b 5a be 11 1c 10 bb 3f 12 30 be 14 48 f5 3d
       -0.21342452 -0.0021989385 -0.1719446 0.119766384
000210 4b db 7a bd b9 56 1c be 65 2f f9 bd 88 cd 61 bd
       -0.06124429 -0.15267457 -0.12167243 -0.05512765
000220 6c fa 51 bd d0 f0 fd bd da 99 9f 3d 9d c3 92 3c
       -0.05126421 -0.12399447 0.07793017 0.017915541
000230 f1 1b e2 bc 55 f5 eb bd d9 be bc 3d 9b 8c b2 3c
       -0.027601214 -0.11521403 0.09216089 0.021795562
000240 ef 5a 76 3c c2 a2 ea 3d c1 2d 8a bd 3e 72 22 3d
       0.015036329 0.11456825 -0.06747008 0.03965973
000250 6b d5 27 3e 3d 02 b5 be af 53 17 be a6 de 58 bc
       0.16390006 -0.3535327 -0.14778017 -0.013236677
000260 d5 f8 f5 bd 7f 63 48 3d 54 ae 93 3c da af dd 3d
       -0.120103516 0.048923012 0.018027462 0.10824557
000270 fb bf 1a bf df d8 3a be c5 9b 6f be e4 42 97 be
       -0.6044919 -0.18246792 -0.23399265 -0.2954322
000280 09 bb 5c 3e d6 1b 61 3e ef 63 7f bd 45 ff 8d 3c
       0.21555723 0.21983275 -0.062351163 0.017333636
000290 db d5 14 be ec 6a 03 be 08 2d 64 3d b8 1e bb bc
       -0.14534704 -0.12833756 0.055707008 -0.022841796
0002a0 8e b9 56 3e 55 bb 7f 3e 4c fd 04 be ed f4 95 3d
       0.20969221 0.24973805 -0.1298725 0.073221065
0002b0 57 f4 f5 3d b0 d5 03 3d 4d 32 86 3d 5c 57 ea 3d
       0.12009495 0.03218621 0.06552563 0.11442444
0002c0 5c a9 68 be 22 92 c7 bd b7 d6 ec 3d 0c 4b a5 3c
       -0.22720855 -0.097446695 0.11564391 0.020177387
0002d0 e0 87 2a bd 02 04 36 be 84 c5 22 bd 9e af 01 be
       -0.041633487 -0.17774966 -0.039739147 -0.12664649
0002e0 ab cc 02 bc 37 1e 22 be ed f2 3e bd 50 a5 32 3e
       -0.007983367 -0.15831839 -0.04661839 0.17445874
0002f0 81 b5 ea 3d 91 fa 99 3d ea 33 da 3d ee 76 33 be
       0.114604004 0.07518495 0.10654433 -0.17525837
000300 95 c6 01 3e c1 ce 67 be e1 b2 69 be 03 4d f5 3d
       0.1267341 -0.22637464 -0.22822143 0.119775794
000310 1f 63 74 3e 2d 83 c8 3d d0 e3 2b 3d e3 0f b2 bc
       0.23865937 0.09790645 0.041965306 -0.021736091
000320 02 02 aa 3d 8b 9e d6 bd c3 78 14 3e 91 4e 87 3d
       0.08301164 -0.104794584 0.14499192 0.06606782
000330 96 49 aa bd fa 60 0b 3d c2 97 b8 bc 41 2a 58 3d
       -0.08314817 0.03402803 -0.022533301 0.05277467
000340 93 15 4f 3e 78 0d cb 3d 4f 5a e5 3d 66 f9 c5 3b
       0.20223074 0.09914678 0.111988656 0.0060416935
000350 ac 9e d6 bd f5 80 1a be 93 8b 9f 3c 77 96 81 3d
       -0.10479483 -0.15088256 0.019475734 0.06327527
000360 92 10 8c 39 62 7f d3 3d 0e 6d 89 be 70 1c 9d bd
       0.00026715227 0.10327031 -0.26841015 -0.0767144
000370 a9 db d0 bc 3f bb 63 3e 55 7a 74 be 89 55 24 be
       -0.025495367 0.22239397 -0.23874791 -0.16048254
000380 b6 00 7a 3e ee d9 bc 3d 36 f9 de bd ce 7c 0a be
       0.24414334 0.09221254 -0.10887377 -0.13524172
000390 40 ce da 3d a9 20 d4 bc 21 7f e4 3c 14 82 11 be
       0.1068387 -0.02589448 0.027892651 -0.14209777
0003a0 c0 70 56 3d af 3f c7 3e a6 e4 7a ba c4 33 f0 bc
       0.05235362 0.38915774 -0.00095708144 -0.029321559
0003b0 72 a9 38 be b6 42 1f 3e 8e ba 97 be 68 2b ff 3d
       -0.18033388 0.15552792 -0.29634517 0.12459451
0003c0 fe a5 83 3d 8c ac 04 3e b0 65 a5 bd 5c a5 6c 3d
       0.06428145 0.12956446 -0.08076036 0.057774886
0003d0 de 62 e0 bc ba 65 6f be 37 a9 7b bd 07 be 31 be
       -0.027390894 -0.2337865 -0.061440673 -0.17357646
0003e0 13 dd 83 bd d8 a2 92 be 54 93 f1 3c ca 14 98 bd
       -0.06438651 -0.28639865 0.029489197 -0.0742584
0003f0 85 29 5d 3e f9 19 dc 3d 7b 92 56 3d 76 24 d9 bd
       0.2159787 0.107471414 0.05238579 -0.106026575

bias f4 [128]
000000 82 4c 7b be 4b dd 8c bd ac f3 e6 be 2d 63 53 be
       -0.24540904 -0.06878146 -0.45107782 -0.20643301
000010 6a 42 15 be 53 c9 34 be 0b 66 a4 bd a2 b4 7a be
       -0.14576116 -0.17654924 -0.08027276 -0.24482968
000020 bc e6 95 be 28 ab 13 bf 30 c2 6e be 1d a9 90 be
       -0.292776 -0.5768304 -0.23316264 -0.28254023
000030 1f b6 99 be 3a dc 84 be a0 0f cd be 98 db ea be
       -0.3002176 -0.2594927 -0.40050983 -0.45870662
000040 88 59 a3 be db 3b d6 be 40 e0 2d bf 2c 23 af be
       -0.31904244 -0.4184254 -0.67920303 -0.34206522
000050 9e ec 6c be 94 25 aa be 69 b5 51 be 81 e9 a7 be
       -0.23137137 -0.33231795 -0.20479359 -0.32795337
000060 bb 5c af bf 99 69 d8 be a6 98 82 3d 88 71 1d be
       -1.3700174 -0.42268065 0.06376772 -0.1537534
000070 b4 26 a5 be 6c 2d c4 be 18 fc c1 be 3f cc a5 be
       -0.3225609 -0.38315904 -0.37887645 -0.3238239
000080 24 ac 63 be b2 68 b3 be 38 27 ff be 08 b4 69 be
       -0.22233635 -0.35040814 -0.4983461 -0.22822583
000090 d7 1e 42 be 52 70 80 be 02 7e 00 be 56 01 01 bf
       -0.18957077 -0.25085694 -0.12548068 -0.50392663
0000a0 9a b0 59 bf 07 2b 8a be 29 cd 77 be 5b f1 1a be
       -0.850351 -0.26985952 -0.24199356 -0.15131132
0000b0 af f9 7f be 9c 9e 9d be 8b 16 50 be e3 50 28 bf
       -0.2499759 -0.30785072 -0.203211 -0.65748423
0000c0 87 d9 e6 bd 37 c9 15 be 68 96 99 bd 9a 84 31 bf
       -0.11271959 -0.14627539 -0.07499391 -0.6934296
0000d0 46 60 7b bd 5f 1f 2b 3d c6 b1 86 be e2 6f b4 be
       -0.06137111 0.041777965 -0.26307505 -0.3524161
0000e0 62 5e b8 bd b6 17 a5 be 95 ce 3c be 41 aa 4c bf
       -0.09002377 -0.32244653 -0.1843818 -0.79947287
0000f0 db 52 5f bf 83 22 0e be 3e 57 e5 be 9f 8e b3 be
       -0.872358 -0.13880353 -0.44793123 -0.3506975
000100 77 cd 55 be d2 29 ef be 8d ff 23 be 31 11 90 be
       -0.2087916 -0.46711594 -0.16015454 -0.28138116
000110 b2 7d 24 bf 8d 81 ad be 55 4b e6 be 92 c9 54 bf
       -0.64254296 -0.33887902 -0.4497935 -0.8312007
000120 a3 68 a7 be 06 03 ea bd ba b7 9a be f0 7e 8a be
       -0.3269702 -0.11426358 -0.30218297 -0.2704997
000130 a7 38 29 be 46 ed 99 bd c3 30 ba be 74 dc 73 be
       -0.16525517 -0.075159594 -0.36365327 -0.23814565
000140 35 3c 17 bf 4b 12 6b be f2 2e a6 be ae 27 7a be
       -0.59076244 -0.22956197 -0.3245769 -0.24429199
000150 cc dd 21 be e9 4b 1a be 0d e1 ff be a9 f5 c2 be
       -0.15807265 -0.1506802 -0.49976388 -0.3807805
000160 88 0e d2 be b5 44 c4 be c4 cf ac be 97 a2 ca bd
       -0.4102671 -0.3833367 -0.33752263 -0.09894293
000170 d7 dc ad be 30 4c a6 be 48 c1 3c be db fb ab be
       -0.3395755 -0.3248 -0.18433106 -0.33590588
000180 9c 43 ff bd 56 23 88 be 5e 69 8e bf ca 31 88 be
       -0.12464067 -0.2658946 -1.1125906 -0.26600486
000190 e7 ee 05 bf cc 6b aa be 70 df 22 bd e4 1f 98 be
       -0.5231766 -0.33285367 -0.039763868 -0.2971183
0001a0 d3 24 8c be f0 f9 7b be 0b bf b1 be 26 3a 0f be
       -0.27371845 -0.24607062 -0.34716067 -0.13987026
0001b0 1c 39 ea bd a8 47 b0 be 8c bb bd be 3b 6b 07 bf
       -0.11436674 -0.3442967 -0.3705715 -0.52897996
0001c0 01 2c 6d be 3a 06 8d be 75 98 92 be 88 24 52 be
       -0.23161317 -0.27543813 -0.2863194 -0.20521748
0001d0 5f 8a 15 be be e4 4f bf f5 5f a9 be ae f5 a5 be
       -0.14603566 -0.8120841 -0.33081022 -0.32414
0001e0 ad d3 9a be 3d bd 6a be a6 ac 36 be 3b ce bf be
       -0.3023962 -0.22923751 -0.17839298 -0.3746203
0001f0 28 d0 50 bf 3e d6 68 be 7b a9 1b be 76 be 86 bf
       -0.8156762 -0.22737977 -0.1520137 -1.0526874

weight f4 [12, 128]
000000 8a e0 9a bc e0 e2 37 3c 3c 96 1c bd a8 90 e0 bd
       -0.018905897 0.011223525 -0.038229212 -0.10965091
000010 d6 b6 ca bd 26 d8 45 bc 3c 76 89 bc 43 d2 d4 3d
       -0.098981544 -0.01207546 -0.016780011 0.10391667
000020 6b 42 88 bd f5 1f 0f 3b 75 17 b3 bb d0 e7 2c 3d
       -0.06653293 0.0021839116 -0.005465443 0.04221326
000030 76 fa 0b bc 15 f4 c0 bc 18 70 b0 bc 8e 57 a1 3c
       -0.008543601 -0.023553887 -0.021537825 0.01969507
000040 98 ee 27 bc 07 1e 62 3d e4 d9 21 bd 69 85 06 bd
       -0.010249756 0.055204418 -0.039514437 -0.032842074
000050 7d 47 4d bd 7f 47 f8 3b c4 2a 63 bc 21 56 27 3d
       -0.050117005 0.0075768824 -0.013865177 0.040853623
000060 e0 e7 e6 3c 66 ba 43 bd c1 da a2 3d 65 71 a2 3d
       0.028186738 -0.047785185 0.0795188 0.079317845
000070 36 e0 ef 3d 59 f9 cd 3d cc d6 ed 3c 3b c4 8a bc
       0.11712687 0.10057325 0.029033087 -0.016939273
000080 25 7d b1 3b 46 d4 85 bd 2a 4f 70 3a 1c eb 28 bb
       0.0054165297 -0.065346286 0.000916707 -0.0025774902
000090 2e 00 e5 3c d7 53 3b 3d b6 2a a9 3d 31 28 3f bd
       0.027954187 0.045734253 0.082600996 -0.04666919
0000a0 db 5b 3c bc 3a a5 a7 bc 1a 43 2c 3d df 12 05 3c
       -0.011496509 -0.020464528 0.04205618 0.008122175
0000b0 f1 9f 0c 3e 75 30 28 bc 4f 23 e3 3c a0 9b fe 3c
       0.13732888 -0.010265459 0.027726797 0.031080067
0000c0 21 43 bb 3c 1f a7 e8 bd 7b c4 32 bd 09 39 6c 3c
       0.022859158 -0.11360001 -0.04364441 0.014417895
0000d0 b2 dc 51 bd d4 b0 87 bd e8 a2 1c bd 6d 11 80 bb
       -0.051235862 -0.06625524 -0.038241297 -0.0039083273
0000e0 80 d9 b6 bc f6 8c 69 3c d5 3d 2c bd be e9 01 3d
       -0.022320509 0.014254799 -0.042051155 0.031717055
0000f0 41 e0 95 3c 18 94 90 3d fe e7 86 3d d8 00 30 3d
       0.01829541 0.07059497 0.06587218 0.042969555
000100 3c f6 85 3d da 56 41 3d 1a f8 5f 3c a1 df a6 bc
       0.06541106 0.04720197 0.013669992 -0.020370306
000110 8a 21 cc 3d 9d f8 5b 3c 7c 38 eb 3c 93 d5 42 bc
       0.099673346 0.013425973 0.028713457 -0.01189174
000120 71 5e a3 3c f2 90 66 3c 1b aa 3f 3e 7f b1 02 bb
       0.019942494 0.014072644 0.18717234 -0.0019942222
000130 c8 36 9f bb 4c 42 d9 3d 6f 1b 52 bd 04 5f 67 bb
       -0.0048588254 0.10608348 -0.051295694 -0.0035304436
000140 3c 0a 91 bd 48 56 ad bd 8f 87 c3 3d e5 3f a9 3c
       -0.0708203 -0.084637225 0.0954734 0.02066035
000150 2a c4 12 bd 7a 9a 19 3d ba c5 25 3d 13 49 d1 bc
       -0.035831608 0.037500836 0.04047177 -0.02554754
000160 25 13 27 3d 13 65 1d 3b 09 86 d7 3a 03 69 23 3d
       0.040789742 0.0024016544 0.0016443144 0.03989507
000170 8f b5 92 3d d1 3c 6a bc 08 be 1b 3c 23 68 18 3b
       0.07163536 -0.014296726 0.009505756 0.002325543
000180 92 73 09 3d 25 cd 85 bd 5a 7b 9b 3d 02 54 c3 bd
       0.033557482 -0.06533269 0.07591887 -0.095375076
000190 d5 16 d6 3b 33 c0 dd 3c 90 0a 14 3d 7b 06 72 bd
       0.0065334835 0.027069187 0.036142886 -0.05908821
0001a0 38 06 3c 3c f3 ac 9c bd 51 8a 37 3d af 84 3f 3d
       0.011476092 -0.07650175 0.044809643 0.046757396
0001b0 ea a9 bb bc f5 b9 9c bd e8 53 46 3c db 35 2d 3c
       -0.02290817 -0.07652656 0.012104966 0.010571922
0001c0 f0 8a 40 3c 85 9a 07 bd 16 7e ca 3c 5a ac 4a 3c
       0.011751875 -0.033106346 0.024718326 0.012370193
0001d0 37 5a 81 bd cb 54 69 3d 1b 31 ab 3b 7a a5 2f 3d
       -0.06316035 0.05696563 0.0052243597 0.04288242
0001e0 b7 dc c1 bc 21 f6 b4 bb 10 d4 cb 3c 6c 1b 0d 3d
       -0.023664815 -0.005522505 0.024881393 0.03444998
0001f0 37 8b d3 b9 58 52 e6 bc 9e e8 d5 3d 14 c3 d6 3c
       -0.0004034878 -0.028115436 0.10444759 0.026216067
000200 83 8b 93 3c 11 5e 4b bc 03 1e aa 3c 45 46 80 3b
       0.01801086 -0.012412564 0.020766264 0.003914627
000210 e4 8d 7e 3c 51 17 d7 bc 0e bc 78 3c 76 d0 07 bd
       0.015536759 -0.026256235 0.0151815545 -0.03315779
000220 06 5e ed 3b d3 c7 79 3d 1a e7 d1 bc 62 83 80 bd
       0.0072438745 0.060981583 -0.025622893 -0.06275059
000230 82 2a 17 be 85 92 af bb d6 b3 5f 3c 54 fc 72 bb
       -0.14762309 -0.0053580427 0.013653716 -0.0037076669
000240 09 96 43 3d 7f 7a b4 3b b6 f7 5d bd 3b c6 b3 3c
       0.047750507 0.0055077667 -0.054191314 0.02194511
000250 d4 37 97 3d a5 16 07 3d a5 4f a3 3b 3c db ab bb
       0.07383695 0.03298058 0.0049838596 -0.0052446406
000260 c5 24 6b bd 3a a5 dd 3b 8a 80 8a bd 27 6f 91 bd
       -0.057408113 0.0067640813 -0.06762798 -0.07101279
000270 ee aa fd bd aa af 20 bd 7b 41 5e 3d 82 87 a2 3b
       -0.12386118 -0.039230026 0.054261666 0.0049600014
000280 43 24 f1 3c 71 aa f1 3c 9e ba fe bc df 98 9e bc
       0.029436236 0.029500218 -0.031094845 -0.019360004
000290 90 8c 0a be 66 5a 71 bd 98 ec 94 3d 56 b7 f4 3c
       -0.13530183 -0.0589241 0.07271689 0.029872578
0002a0 f3 4f 03 3d 18 6b c8 bb 54 85 a5 3d d3 13 06 bd
       0.032058667 -0.006116282 0.08082071 -0.03273375
0002b0 50 81 63 bd 7c 91 4a 3d 4f 0a 57 bd b5 07 97 3d
       -0.055543244 0.04945515 -0.052500065 0.07374517
0002c0 77 c1 bf 3b 84 61 db bc 7a 61 2b bc d4 4b 95 ba
       0.00585192 -0.026779898 -0.010460252 -0.0011390396
0002d0 8e 0e 47 bd fa 3a 00 3e ec 03 58 3d 34 83 3a bc
       -0.048597865 0.12522498 0.052738115 -0.01138382
0002e0 a0 65 f7 3c 8e fc 1f bc dd bd 10 3c 18 44 84 3d
       0.030199826 -0.009764804 0.008834329 0.064583
0002f0 cb 83 d8 3d 20 5f 2a bc fc 05 89 bc 00 fc 88 bd
       0.105720125 -0.010398656 -0.016726486 -0.0668869
000300 76 3c 76 3d ef d1 25 be 23 8d 07 3d 24 ec 6f bd
       0.060116254 -0.16193365 0.033093583 -0.05857481
000310 b8 9d aa 3d c4 45 8a bd 28 69 c2 3c ec c4 85 bb
       0.08330864 -0.06751588 0.023731783 -0.004082313
000320 6a 23 4a bc fc 80 96 ba 00 2e 50 3e a4 c8 ca 38
       -0.012337545 -0.0011482532 0.20330048 9.669483e-05
000330 6e 6e 97 3c fa 61 33 3d 70 17 41 bd fd ca bf bc
       0.018485274 0.04379461 -0.047141492 -0.023412222
000340 7d 39 4b 3e 94 d3 15 3e 56 cb 41 bd 58 ee 67 bd
       0.19846149 0.14631492 -0.047313057 -0.056623787
000350 f1 90 63 bd 94 62 91 3d 8f 5e b7 bc 92 57 8b 3b
       -0.05555815 0.070988804 -0.022383956 0.0042523826
000360 15 ad d0 3d 96 c5 3c 3d 4e 72 f5 bb f4 ff ca ba
       0.10189263 0.04608687 -0.007490433 -0.0015487657
000370 45 90 65 bc dc ec 0a bd 95 83 65 bc fa 64 ca 3d
       -0.014011447 -0.033917293 -0.014008422 0.09882541
000380 8d 78 5f 3c 58 74 81 3d bc 53 99 3b 07 3e ea 3b
       0.013639581 0.06321019 0.0046791714 0.0071485075
000390 6c 86 58 bd 7c 7a a0 bc 72 ae 6c bd 4b 07 14 3c
       -0.05286257 -0.019589655 -0.05778355 0.009034942
0003a0 7e b4 63 bd 03 42 1c 3d a0 d8 0a 3d 4b 56 35 be
       -0.055592053 0.03814889 0.033897996 -0.177087
0003b0 97 9b 99 bc 88 08 fd 3c 33 4a 00 39 14 01 92 3d
       -0.018750949 0.030887857 0.00012234673 0.07129112
0003c0 89 25 15 3c a7 05 d2 bc cd 79 06 3d f6 cb be bd
       0.009103187 -0.02563746 0.032831002 -0.09316246
0003d0 67 4a e0 bb 88 cb b5 3d ee 85 b3 bc cd 27 f3 3c
       -0.006844807 0.08876711 -0.021914449 0.029682064
0003e0 1c 47 85 bc bd b5 98 3c b3 9d 55 3c 62 61 87 bd
       -0.01626926 0.018641347 0.013038087 -0.06610371
0003f0 8a 29 71 bc 3c ed e8 3d 13 32 24 bd 5f 92 0f 3d
       -0.014719376 0.11373374 -0.040086817 0.0350517

bias f4 [12]
000000 69 33 07 be b0 fe 3b bd 46 39 27 3e 88 00 20 3e
       -0.13203205 -0.045897186 0.16330442 0.15625203
000010 c6 a4 d0 bd c4 cb 4d bd b4 c6 c3 3c 4e 00 cb 3c
       -0.10187678 -0.050243154 0.02389846 0.024780419
000020 0a 1b 84 be 33 61 49 be 0b 40 6e 3e 8d 75 3d 3e
       -0.2580188 -0.19665985 0.23266618 0.18501873
