policy/policy.pt (torch, 174326 bytes, 8 tensors)

weight f4 [128, 48]
00000000: 6aa6 fa3e 5691 4fbe f148 85be 3455 ce3c
00000010: 3c6a 193e 6d14 16be 4a40 dc3f 38c8 2e3f
00000020: 0976 e7be 5f6b bcbe f7de fcbd 9a5a ff3b
00000030: efe9 0840 994c df3d e96c 8b3f 326d d0be
00000040: 4830 143f 7d26 673f c087 b03f 692e 29bf
00000050: fe9f c9bc cd8e 37bf cee0 3abf ce10 f13f
00000060: d8b3 d53c 565a bcbc 7437 afbb 5bd0 acbc
00000070: 8f2c 5f3b d8f3 b2bc 2784 dd3b 0ad5 5cbd
00000080: 0570 cf39 f3a3 a5bc 8711 96bc c697 cbbb
00000090: e3b5 69be 8356 8bbb aeb2 113c 99ef d13e
000000a0: 0265 9dbb ca9e 333e f235 3d3e a6ea 5c3d
000000b0: 2851 683d 8bb9 6b3e a86f 043e 905d 1abe
000000c0: 36c5 273e 5d92 1d3f 246b 443e 9036 7a3d
000000d0: f50f 823e 376b 6cbe 85b9 1140 3d60 a0be
000000e0: 8888 0e3f 827f aebe b800 b63e 474b cf3d
000000f0: 93d0 d03e bbf8 62bf cbe7 e5bd c67d a7be
00000100: 70c9 653f c011 a4bf 57f1 a4bf 3048 003d
00000110: ceb6 b33e 2ff0 09c0 2aac ed3f 62ee 963f
00000120: 3000 d23c 5df4 c9bd c742 60be d796 1c3e
00000130: 2a39 753d 29d2 7e3d a0fb a13d b080 173c
00000140: 28d3 25bd 0781 9e3a 5dfb bebb f6e2 2c3d
00000150: e9dc b03e 4bd3 12bd 777f a5bd 77ac dd3d
00000160: 2907 e83d ee20 5b3b 514c c4bd 174f e7bd
00000170: 6ae6 103e ada7 90bc 61ef 9cbd eb53 16bf
00000180: d6f0 d03e ff44 693f fd15 95bc fd8d b53c
00000190: ede5 aabd 65a5 243e 9cc4 3bc0 5008 583f
000001a0: 72b2 f13d 3c15 f4bc 109a debe cf97 3abe
000001b0: f248 debd 0431 eebe 8d29 1e40 087b e1be
000001c0: cad6 7e3e 620c 8dbf 1529 0cbf 080a ff3e
000001d0: 3bc4 67bf f1b9 343e 6ad2 893f 7fe6 86bf
000001e0: 16d1 ee3c 7c60 3abc f586 703c ad94 853c
000001f0: 846b 653b bf19 97bd 07f9 08bd ac0c debc
00000200: 99e0 463c 2a5b e63b 0565 513c 5b7c 4bba
00000210: 4dad d6bd 95af d6bd d00f b33d 72c1 cd3d
00000220: c8b7 10bd ee9d 653d e26f 3abd 1318 a2be
00000230: c002 bdbd 5cb5 13bc 1f16 ddbd 2050 163e
00000240: 14e3 0b3f de11 65be 578e 39be 6a4f ab3d
00000250: 1419 9cbd bc88 50be 859a 7e3f bd41 65bf
00000260: e531 243f 0cbc ee3d c5e8 56be a385 a5be
00000270: 4890 b83f 7917 22bf e57a 88bd 4ada 263f
00000280: 740f 00bf 4d25 92bf a869 29c0 100f 0fbe
00000290: ee5c 9a3f 4d05 373f 149a e03f 3098 9abd
000002a0: 7550 0e3d a508 bdbd c7ce 563d bf9a 60bb
000002b0: 4639 70bd 2d87 abbb 33a4 263b 6ef5 8bbd
000002c0: 7e8b be3c 02cc 9e3a b1d5 30bd e602 c13c
000002d0: a6b0 ee3e a41e d03c 72a4 4f3e 33c4 f73d
000002e0: 2cb4 e2be 4252 113e 9a15 1cbd 3b8a 0d3e
000002f0: 6d0e b33d c719 e03d da00 0ebe 3f99 123d
00000300: 482e 7bbe 6e1b b7be 5eee 8d3e f454 8dbd
00000310: 8e5b c03c ca7d 8fbd 8a2b b13f 0b97 c23f
00000320: aa4e 16be 28e5 e53c 08b8 8a3e 7b87 4e3e
00000330: 879b a73f a170 703f cfb6 e1bf a225 50be
00000340: 04aa 803e c077 773f 190c 583e 535d fe3e
00000350: cd86 a83e 7f5f 58bf 8026 6140 80c0 233f
00000360: d96c 6b3a a7f2 353c 352b d9bc 5d3e 863b
00000370: 451e 72bc 93f7 96bc d6fc 34bd f55a 2d3d
00000380: e96f 2f3c e0f8 513d eee6 363d 9222 a23c
00000390: 6642 9d3d 0855 6f3e 509f 60be 8902 b33d
000003a0: c749 08bc 3bd4 a93d dbe1 d73c 311d 95bd
000003b0: e3d0 b5bd d083 d0bc 4dec 833d ffc2 63be
000003c0: 3363 c93e c9d8 0cbf 6916 df3d 4e2f 57bd
000003d0: 8e50 873e 3de9 fc3e 63da 613f c868 9b3f
000003e0: 44a1 c63e db03 523f f965 213f c2de 9bbe
000003f0: 90c8 c43d 986f 9bbf f63e 7fbf f264 0b3f
0.4895509 -0.20270285 -0.26032212 0.025187112 0.14981931 -0.1465623 1.720712 0.6827426
-0.4520724 -0.36800668 -0.12347215 0.007792783 2.1392782 0.10903282 1.0892612 -0.4070831
0.5788617 0.90293103 1.3791428 -0.6608644 -0.024612423 -0.7170227 -0.72999275 1.8833253
0.026086733 -0.022992294 -0.0053471867 -0.021095445 0.0034053659 -0.02184479 0.0067601386 -0.053914107
0.00039565578 -0.020219779 -0.018318905 -0.006213161 -0.2282329 -0.0042522564 0.008892698 0.4100311
-0.004803301 0.17541042 0.1847761 0.053934716 0.05671802 0.23019998 0.12933218 -0.15074754
0.16383824 0.6155146 0.19181496 0.06108719 0.254028 -0.23087774 2.2769482 -0.31323424
0.5567708 -0.34081656 0.35547423 0.1012178 0.4078413 -0.8866078 -0.112258516 -0.32713145
0.89760494 -1.2817917 -1.2886151 0.031318843 0.35100406 -2.1552846 1.8568165 1.1791499
0.025634855 -0.09861062 -0.21900474 0.15291916 0.05986897 0.062212143 0.07909322 0.00924699
-0.040484577 0.0012092897 -0.0058283047 0.042208634 0.3454354 -0.035846036 -0.080809526 0.10823911
0.11329491 0.0033436376 -0.09584869 -0.11294382 0.14150396 -0.017658079 -0.076628454 -0.587218
0.40808743 0.91120905 -0.018198961 0.022162432 -0.08344636 0.16078718 -2.933875 0.84387684
0.11801614 -0.029795282 -0.43476915 -0.18221973 -0.10853757 -0.4652177 2.471286 -0.44039178
0.24886623 -1.1019404 -0.54750186 0.4981234 -0.905338 0.17649056 1.0767338 -1.0539092
0.029152434 -0.011375543 0.014680614 0.016306246 0.0035006711 -0.073779576 -0.033440616 -0.027105652
0.012138509 0.0070299106 0.012780433 -0.0007762366 -0.10482273 -0.10482708 0.0874325 0.100466624
-0.035331517 0.056058817 -0.045516856 -0.31658992 -0.0922904 -0.009015407 -0.10795235 0.14679003
0.5464337 -0.22370097 -0.18120705 0.083647564 -0.07621971 -0.2036466 0.9945453 -0.89553434
0.64138633 0.11656961 -0.20987232 -0.3232852 1.4419031 -0.63317066 -0.06664065 0.6517683
-0.5002358 -1.1417633 -2.6470737 -0.1397059 1.205961 0.71492463 1.7547021 -0.07548559
0.0347447 -0.092301644 0.052443292 -0.0034271923 -0.05864837 -0.00523462 0.002542746 -0.068339214
0.023259874 0.0012115242 -0.043172542 0.023560952 0.46619147 0.025405236 0.20277575 0.12097969
-0.44278085 0.14191535 -0.03810654 0.13822262 0.08742986 0.10942417 -0.13867512 0.035790678
-0.24529374 -0.35763115 0.27720922 -0.06900969 0.023481157 -0.07006414 1.3841412 1.5202345
-0.14678445 0.028063372 0.2709353 0.20168869 1.3094338 0.9392186 -1.7633914 -0.20326856
0.25129712 0.966671 0.21098365 0.49680576 0.32915345 -0.84520715 3.5179749 0.63965607
0.0008980758 0.011105216 -0.02650986 0.0040967898 -0.014777725 -0.0184286 -0.044186436 0.04232307
0.010707834 0.051262736 0.044653825 0.019791875 0.0767868 0.2337228 -0.21935773 0.08740718
-0.008318371 0.08292433 0.026352813 -0.072809584 -0.088777326 -0.025453478 0.06441555 -0.22242354
0.39333495 -0.5501829 0.10892946 -0.052535348 0.26428646 0.49396697 0.88223857 1.2141352
0.3879491 0.8203713 0.6304622 -0.30443388 0.09608567 -1.2143431 -0.99705446 0.54450905

bias f4 [128]
00000000: 241f b13e cea0 07bf 17d2 7c3d 6499 f1be
00000010: 6528 043c beca f9be 4f75 e5be 4e1b 06be
00000020: a42b 00bf 2e98 dfbe bc2e e03d ae78 2b3f
00000030: 5659 31bf 61d0 1ebf 0702 353f f4d9 eebe
00000040: 9a0e 81be 606d 2f3d 8468 ec3d 6965 cc3e
00000050: a294 edbe d9d8 863d bba2 12bf 1160 8e3e
00000060: 3546 d7bf 01ef 253f af7d 68be 9f77 bcbd
00000070: 2fee 6bbe efe4 48be 1674 6abe 9ea9 b6be
00000080: 4ce9 e2be 6713 bcbe 1ec6 40bd ae9b a6be
00000090: 9217 b4bd 85b9 d7bf c06e 35be 852d 4bbe
000000a0: e17e 54bf 0d40 96bd ad92 6ebe e98f 733a
000000b0: 3864 073e e34d cbbe 518e a93e 2252 99bd
000000c0: 300d 1dbe 0128 11bf 8dc4 18bc b336 6fbe
000000d0: e360 9f3d b8d6 f53c 2ba4 adbd 0b66 773e
000000e0: 1479 8abd 1ecc 77be 2d1a 0d3f d2c4 283e
000000f0: 11e2 d9bd 08b3 81bd b8d0 49bf a344 063f
00000100: 070e 9ebe 210f 633f 3932 863e 500a 91be
00000110: 79a5 e23c 8e3e f1bd 58e1 b7be 39a5 1d3d
00000120: 65a2 433e dc2f abbd 04c3 e4be e804 2a3f
00000130: 1a8c 593e 5b5b 843d 4cd1 debe ee85 40be
00000140: a11d 88bd 06a0 f3bd 6b29 74bb 0218 0fbf
00000150: f9bb 613e 1e18 113f a661 a0be c1c4 05be
00000160: 575f 243f ac75 91bf 0e59 a13e 97ad b03d
00000170: 9b2d e5be 5131 12bf 4400 debd 20db a2bf
00000180: 0994 10be 21d2 fabd 4a92 9cbc 2269 bcbe
00000190: 0a19 cf3e 3e65 f9be 4234 013d 9685 683c
000001a0: 714f c4be abf2 59be 7805 c23e 5321 09bd
000001b0: eeab d23d 3230 f93e ba9c 33bc 3ebe 6cbe
000001c0: 4e60 3b3e 27ad a3be 6ce3 8bbd 6532 07bf
000001d0: 11eb a3bd b5c8 53bb 7e7d 90bd 0072 14be
000001e0: d8a8 63bd 2835 39be 4378 92be ff95 07be
000001f0: 8c76 d4be 6473 babb e9d5 8fbf 11d3 ebbe
0.3459407 -0.52979743 0.061723795 -0.4718734 0.008066271 -0.48787493 -0.44816062 -0.13096353
-0.5006659 -0.4367079 0.10946414 0.6698102 -0.6927694 -0.6203671 0.7070622 -0.4665066
-0.25206453 0.042828918 0.11543372 0.3992112 -0.4640246 0.06584329 -0.57279557 0.27807668
-1.68183 0.64817816 -0.22704194 -0.092025034 -0.23040079 -0.19618581 -0.22895846 -0.35676283
-0.44318616 -0.36733553 -0.04706394 -0.3254065 -0.08793558 -1.6853491 -0.17718029 -0.19841583
-0.830061 -0.073364355 -0.2329814 0.00092911586 0.13221824 -0.3970786 0.3311639 -0.07486369
-0.15337062 -0.56701666 -0.009324205 -0.2336071 0.077821516 0.030009612 -0.08478578 0.2416002
-0.06761375 -0.24198958 0.55118066 0.16481331 -0.10638822 -0.063329756 -0.78834105 0.5244848
-0.30870077 0.8869496 0.26210192 -0.2832818 0.027666794 -0.117795095 -0.3591411 0.038487647
0.19104917 -0.08358738 -0.44680035 0.66413736 0.21244851 0.06462737 -0.43519056 -0.1880109
-0.06646276 -0.118957564 -0.0037256132 -0.5589601 0.22044362 0.56677425 -0.313245 -0.13063337
0.6420798 -1.1364036 0.31513256 0.0862686 -0.44761357 -0.571065 -0.108398944 -1.2723122
-0.14118971 -0.1224711 -0.019112725 -0.3679896 0.4044879 -0.48710054 0.031543978 0.014192006
-0.3834186 -0.21283977 0.37894797 -0.033479046 0.10286699 0.48669583 -0.0109626595 -0.23119447
0.18298456 -0.31968042 -0.06830487 -0.5281127 -0.0800382 -0.0032315676 -0.07055186 -0.14496613
-0.055580944 -0.18086684 -0.28607377 -0.13240813 -0.41496694 -0.005690025 -1.1237155 -0.46059468

weight f4 [128, 128]
00000000: 3ec1 02be a48d 4f3e 4c0f 84bd 3594 523d
00000010: 69ea 723e 21e2 2a3e 7500 d03d b2b0 f33c
00000020: 4513 b1bd 1716 a83e ffd7 f1bd b403 63be
00000030: 9938 2c3c 9081 ddbe 2132 8b3e 01d7 eb3c
00000040: 361e c9be 46fb 47be 6edc 88bd 08eb 16be
00000050: 8bd6 96bd c792 d1bd dde3 29be a34a 423c
00000060: 0b76 423e f717 e23c 5a2a 86bb e41d 3bbe
00000070: 0819 a93c 286e 8dbe fe02 6fbe eae6 57be
00000080: 8513 e2bd e161 183e f462 703e 3294 913e
00000090: b6c5 e0bd e943 373e fabf f73d eb01 c73e
000000a0: 3a67 a03d d7ed 9abc a471 e93e a996 67bd
000000b0: 3c7b 7fbd b876 8e3e 8cab 4bbe 77b6 d1bd
000000c0: 5b5e d33e 677f 7cbd 9091 26be ba03 7dbe
000000d0: cc4c 58bd 77fb 44be dda0 3e3e 8307 3e3d
000000e0: 29ce 7fbe d3ba 093d 7d1f 0ebe 75c1 023d
000000f0: ac29 27bd 69f5 9cbe c8d5 fc3b 5d76 84be
00000100: 86ec 29be 65c5 29be 6dc0 0a3e 7164 2abf
00000110: 362e 94bd 2a77 9e3d 2e9b c4be 34f1 773c
00000120: f745 aebe 127e a7bd df29 c4ba a6b9 fcbd
00000130: 16c1 87be 3369 093e b703 993e e1e6 563d
00000140: f537 b5bd a7a0 2b3e e472 d3bc 9db4 a8bb
00000150: b291 a23e 4ded 8b3d c22d 99be 5a55 2b3e
00000160: ec56 85be 5094 873d b9df ecbc 341f 9ebd
00000170: 6071 ce3d b845 90be 528e 9c3c 02a6 88bd
00000180: 07ae 813e 17ce 603e e9c6 ae3d 140b e8be
00000190: d8b1 44be 38c4 f63c dbca 1abc 828a 133e
000001a0: b744 0dbd fd7a adbd ec27 71be 0651 49be
000001b0: 3221 e03c 5b94 10bd f77b eebd 5307 1b3e
000001c0: 9a25 94bd 0c22 b33e 70d6 2e3e 54fd 23bd
000001d0: 048c 1ebe f873 43be e9bd 1ebd 3a72 253d
000001e0: 2472 69bd 684d 893e e27a 25bb 7519 6cbd
000001f0: 934d f3bd 40fa dcbd 2862 80bf 5353 433e
00000200: d52d 5a3d 9b6c 9a3e d773 12bf d86d fd3d
00000210: 3f69 1d3e 226d e2be 3cfc b43d fb25 913d
00000220: b353 3cbd bc0a b13d 7c74 a7bc 2102 6cbe
00000230: 397a 1e3c 46a3 d9bb 85c1 01bf f740 143d
00000240: 8784 093e 2578 72bd d7e4 3ebc 6a5e 0cbe
00000250: f02d 7fbd adb1 693e 6ba5 2fbe 5164 8c3c
00000260: 2f3a 0d3e 4bb5 4dbd b34f 3d3e 7198 05be
00000270: ae21 cebe f210 2fbd 79bd b83e 65ef 0abe
00000280: 7598 85bd 6b50 0fbe c1e9 0abd 03bb e2bd
00000290: f0fd f13d 56ff e33d c336 483e 93ee 09bd
000002a0: 8bb4 783d 6c60 87be 1932 cbbc 5bc0 8ebe
000002b0: 0ff8 203d 45ab 24be 7a25 a93d 417e 94be
000002c0: 0222 0abe 98fd 283c b857 87be e881 303e
000002d0: 593f 653e bd64 0f3e 60a0 253e dcd6 2abe
000002e0: 486a 9a3e 4fac 2abe 2f83 993e 91e7 9abe
000002f0: e0ff efbc 3169 4dbe 4ecd 793d b263 853e
00000300: 695d 413d 97f6 72be 9ca0 fcbc 9466 27bd
00000310: 5554 a9bd 8d7a bd3d ef27 54bd c821 14be
00000320: d356 c0bd 3f29 353e a456 4e3d 5bec 6cbd
00000330: 2d9e 30be 96aa 863e 39cc 1dbd d700 763e
00000340: 9f64 40be 5422 a3be 8398 adb9 5ca3 a9bd
00000350: 7aca 463e 1c3c 78bd 355a 56bd d560 9d3e
00000360: 2a16 4abe 4e1e 993e c20d b1bc 34be 403d
00000370: cbfc 62bd db30 c4bd 3fe7 183d 6020 2a3e
00000380: 7527 a6bc eb11 513e 21bd 01be 3215 5fbd
00000390: 33dc 3abc 34b5 b43d 585f 48bd e252 8ebe
000003a0: 67ff 12b9 8147 ff3d 5088 b73d d3af f43c
000003b0: 0eca 493e 23da 94be a4a8 453c dcd2 c03e
000003c0: 0e7b 45bd c82c a03d 11aa 54be 42c1 6bbc
000003d0: 8ef3 d93d 5909 4a3e d1aa 0abe d7f0 2ebe
000003e0: 2449 56bd e02e babc 5e14 8c3e a4ed d1bd
000003f0: 8615 3e3e 0470 9cbe 32a2 6fbc a2ee 85be
-0.12769029 0.20268875 -0.0644823 0.051410872 0.23722233 0.16687824 0.10156337 0.02974734
-0.086462535 0.32829353 -0.11808776 -0.22169381 0.010511541 -0.4326291 0.27186683 0.028789045
-0.39280862 -0.19529447 -0.066826686 -0.14738095 -0.073651396 -0.10233074 -0.16590829 0.011858615
0.18990342 0.027599318 -0.004094404 -0.18273121 0.020641819 -0.27623105 -0.23340985 -0.2108418
-0.11038879 0.14881088 0.23475248 0.28433377 -0.1097521 0.17897 0.120971635 0.3886865
0.07832189 -0.018912239 0.45594513 -0.056540165 -0.062373385 0.2782495 -0.19889659 -0.102398805
0.41282925 -0.061644938 -0.16266465 -0.24708453 -0.052807614 -0.19236551 0.18616052 0.046393882
-0.24980988 0.033625435 -0.138792 0.031922776 -0.040811226 -0.30655983 0.0077159144 -0.25871554
-0.16594133 -0.16579206 0.13549967 -0.6655951 -0.072353765 0.077375725 -0.38399643 0.015133191
-0.34037754 -0.08178343 -0.0014966092 -0.12340097 -0.265145 0.13419037 0.29885647 0.052466277
-0.088485636 0.16760503 -0.02581162 -0.005148484 0.31751782 0.06832371 -0.29917723 0.16731778
-0.2604288 0.06620085 -0.028915273 -0.07720795 0.10080218 -0.2817819 0.019110832 -0.066722885
0.25328085 0.21953617 0.08534033 -0.45320952 -0.19208467 0.030122861 -0.009447779 0.14408305
-0.03448936 -0.08470724 -0.23550385 -0.19659814 0.027359579 -0.035297733 -0.11644738 0.15139513
-0.072337344 0.34986913 0.17073989 -0.040036514 -0.15483099 -0.19087207 -0.03875533 0.040392138
-0.05699362 0.2681687 -0.0025250246 -0.057641465 -0.118800305 -0.10789919 -1.0029955 0.19074754
0.053266365 0.30160984 -0.5720801 0.12374467 0.1537218 -0.44223887 0.088371724 0.07087322
-0.04597826 0.086446255 -0.020441286 -0.23047687 0.009672695 -0.006641778 -0.5068591 0.036194768
0.13429461 -0.05919661 -0.011651239 -0.13707891 -0.06229967 0.22821684 -0.17152946 0.017137678
0.13791727 -0.050221723 0.18487434 -0.13046433 -0.4026007 -0.04274077 0.36082056 -0.13567884
-0.065232195 -0.13995521 -0.03391433 -0.11070826 0.11816013 0.11132686 0.1955214 -0.033674788
0.060719054 -0.26440752 -0.024804162 -0.2788113 0.039299067 -0.16080959 0.08259101 -0.29002574
-0.13489535 0.010314368 -0.26434112 0.17237055 0.22387446 0.14003272 0.1617446 -0.16683525
0.3015921 -0.16667293 0.29982898 -0.30254796 -0.029296815 -0.20059659 0.06098681 0.26052624
0.047208223 -0.23726879 -0.030838303 -0.04086931 -0.08268038 0.0925189 -0.051795896 -0.14466012
-0.093915604 0.17691515 0.050375596 -0.057842594 -0.1724784 0.26302022 -0.03852484 0.24023758
-0.18788384 -0.31862128 -0.0003311076 -0.082831115 0.19413176 -0.0606042 -0.052332122 0.3073794
-0.19735017 0.29905933 -0.021613006 0.04705639 -0.055416863 -0.09579631 0.03732991 0.16613913
-0.020282486 0.20416991 -0.12669803 -0.054463573 -0.011405039 0.08823624 -0.048919052 -0.2779761
-0.0001401879 0.1246481 0.089615464 0.029868996 0.19705984 -0.29072675 0.012064133 0.37660873
-0.048213057 0.07821041 -0.20768 -0.014389338 0.106421575 0.19730128 -0.13541724 -0.1708406
-0.052315846 -0.02272743 0.2735929 -0.102504045 0.18562898 -0.3055421 -0.014626073 -0.26158625

bias f4 [128]
00000000: e682 31bf 270b 82be dca8 4bbf 086f a8be
00000010: 2050 30bf 3668 23bf 9053 52bf 53c2 4ebf
00000020: 7263 7abf d4c2 03be 34d7 d1be b39a d6bd
00000030: 6f8f ecbe d265 02bf 549d 62be 82b8 febd
00000040: af34 28be cc7b b5be bf30 adbf 686d 03bf
00000050: 6c16 1ebf 1802 f4be c43e 9b3d 067a a5be
00000060: eb45 1dbe fcb1 24be b8a3 84be 7567 83bc
00000070: 9679 94bd 0ab5 d0be 297a dcbe 44dd 22bf
00000080: 0736 59be 3189 963a 4c3a 80be 40a9 d9be
00000090: 541a 8cbe 8f09 b0be 2e8f 8abe cd91 11bf
000000a0: 2cfd 1ebf 06e3 e6bd eda4 41bf 6c0c ccbe
000000b0: 5727 433d bd3c debe 7e4d c9bd 3c31 c4be
000000c0: ae99 c0be 8b27 59be d9a1 97bf 7977 5f3e
000000d0: 4f9b 0cbe 79e9 babe 97c0 823e 4a9c afbe
000000e0: c664 35bf 7ee5 7a3d 65bf 44be 8516 723e
000000f0: be3e d2be da9b 6b3d 5e2d a1be 658f 103d
00000100: e473 89bc aef7 0a3e 42d2 76bf 8580 d4be
00000110: 1736 48bf 945a 44be b503 4abd 725d 2cbe
00000120: 2fa8 bdbd fa64 40bf b744 b3bd a0ac cabd
00000130: f0a1 49be 60b5 a8be 9abd 32be 0202 2bbf
00000140: 4869 b8be 13d1 aabd 77fa a0be 39da ecbd
00000150: 6f2c 04bf 69e5 05bd d9ba 183e 89b8 fcbe
00000160: 86b7 b4be b69e 6ebe e167 edbc f9ea 22bd
00000170: b4c5 56be e816 c33c 5a50 15bf 0256 9bbe
00000180: 8cff babe 0e4b cdbe b43a 04bf 4e3c 98be
00000190: 0e44 27be 98d8 95be 0fd5 393c abaa 92bd
000001a0: 3233 fdbe 1f8b 95bf cd96 d2be f7a4 55be
000001b0: 0e26 0bbf 05cc 15bf 22e0 1fbf 6a11 06bf
000001c0: 0645 7f3d 357d d8be cb98 debe 7fc6 dfbe
000001d0: 3d3e e5be 9161 fabe c56d 04bf a62f c1be
000001e0: 481b c4be f8e2 21bf 4ea9 463e f695 3abf
000001f0: 715f ecbe 18dd a9be 823d 0ebf 47a5 2d3d
-0.6934036 -0.25399134 -0.79554534 -0.3289721 -0.6887226 -0.6383089 -0.82158756 -0.80765265
-0.9780799 -0.1286729 -0.409845 -0.10478725 -0.4620318 -0.50936615 -0.22130328 -0.12437536
-0.16426347 -0.35446012 -1.3530501 -0.51338816 -0.61752963 -0.47657847 0.07580331 -0.3231966
-0.15358703 -0.1608352 -0.25906157 -0.016040543 -0.07249753 -0.40763122 -0.4306195 -0.63618875
-0.21212016 0.0011484978 -0.25044477 -0.4251194 -0.27363837 -0.34382293 -0.27062362 -0.568631
-0.6210506 -0.1127377 -0.7564228 -0.39853227 0.04764494 -0.43405715 -0.098292336 -0.38318813
-0.37617248 -0.2120649 -1.1846267 0.21822919 -0.1373112 -0.3650625 0.2553756 -0.34298927
-0.70856893 0.061254017 -0.19213636 0.23641403 -0.41063493 0.05752168 -0.31479925 0.035293
-0.016778894 0.13571045 -0.9641458 -0.41504303 -0.78207535 -0.19175178 -0.04931994 -0.16832522
-0.09260594 -0.7515408 -0.08753341 -0.09896207 -0.1969068 -0.32950878 -0.1745514 -0.6679994
-0.36017823 -0.08340659 -0.3144109 -0.1156506 -0.516303 -0.032689486 0.14915027 -0.4935954
-0.35296267 -0.23302731 -0.028980197 -0.03977487 -0.20973855 0.023814633 -0.5832573 -0.30339056
-0.36523092 -0.40096325 -0.51652074 -0.2973351 -0.16334555 -0.2926681 0.011342301 -0.071614586
-0.4945312 -1.1683081 -0.41130677 -0.2086371 -0.5435494 -0.58514434 -0.62451375 -0.5237032
0.062321685 -0.42283025 -0.43475947 -0.43706128 -0.44774047 -0.48902562 -0.51729995 -0.37731665
-0.38302064 -0.6323695 0.19400522 -0.7288507 -0.46166566 -0.33176494 -0.55562603 0.04239395

weight f4 [128, 128]
00000000: 88ec 453e e9be 96bd ca3a 533e 244b 49bc
00000010: 192b 6a3d 0086 913a 98e2 333e d15d d23d
00000020: 505c 9a3d 5d24 a1be 740f 6dbf c726 eebc
00000030: 4a8b f13d eafb 42be fb20 efbd 1e68 193e
00000040: 8f68 e13d c19d aa3d ee19 1e3e f806 15be
00000050: 0d5a 313e 3c0d a13d c10e 943d 7680 36bc
00000060: 6b86 9cbd 0cb9 47bd 6d43 dfbe ec10 c8be
00000070: c847 b5bc 8d98 21be c102 2ebe 4d1a 5f3b
00000080: ff8d 5fbe 4a90 b6bd 59bd 0e3c 84ba a43a
00000090: 7fc1 22bb 993a ffbd 324f d8bd 5dba 4bbe
000000a0: bf13 a0bd 59b1 203b f3e1 9d3d 3ee0 1cbe
000000b0: 9c8c ccbd 2f66 09bf 56b0 e6bd 0d64 7e3b
000000c0: 5f8a 613e f39c 52bd 35e1 033e 5556 85be
000000d0: 6fbb 34bd e401 8bbe 6e7f ee3b 5076 bfbb
000000e0: ec8f 1fbe 03ef 8d3d 5518 223b f2ea 603e
000000f0: b7b1 3fbe 84f3 86bd 576f 52bb d975 223c
00000100: c88d 123e 0d6d 09ba 52a4 8e3d b421 efbc
00000110: 6d2d e33d be49 a23d ca3a 62be aaa5 263e
00000120: 67d4 8fbe cb98 313d ebf0 34bd 5831 133e
00000130: 677b 1a3e 3c24 643d d5af 3cbe 341e 393e
00000140: de73 62be 4a58 43bd 36d1 453d d8e1 a93d
00000150: 8e18 173e cfa6 67bd 4f8a f7bc 01cf 68be
00000160: 60a3 08be c3ee cabc 9874 e03a 61a4 b9bd
00000170: 4cec c23d 3f33 40bb 771b fe3b 16cc 853d
00000180: 253d a6bd 8cea bfbd f811 263c 101e 1abe
00000190: 8ac2 0dbc 4dfe 87bf c68e b1bd a697 a1bc
000001a0: 841d 463e 955b 0e3e e153 783e db44 163e
000001b0: db63 0b3d 05b9 073e 77df e63d 69b1 44bd
000001c0: 5572 103d 2015 4c3e ff93 6e3e d3b1 253b
000001d0: eb69 b03d fb0b 603d 50fa 1cbc 7fcc 01be
000001e0: 7ec3 343e 8bd8 823d 4347 70bd 42f4 2fbe
000001f0: 2303 68bf 265d 9ebd 7b7a 6f3e 7bb5 8fbd
00000200: c6a2 ebbd cf55 773d 1d43 03bd f8e5 423e
00000210: b124 dcbd 7848 ff3d 002b 03bf 1fb5 06bc
00000220: 06e7 f0bd ef88 a73c 6d7d f83c 5157 53bd
00000230: e2e1 7f3d 4fd0 bc3d 1862 f5bd c8e6 ef3c
00000240: 018a dcbd b17c 093e d437 4f3e ef0d 9fbd
00000250: 9d16 733e 7b3f 4f3c 1f38 cf3d 9ae5 adbb
00000260: 36af 883d 9cfa fd3c 988b c23d ddf4 2cbe
00000270: b4dd 34be 4734 6d3d 83f4 c2bd 6c51 803d
00000280: 376f 66bd 8391 ee3d ce52 333c 7558 c3bd
00000290: 359f 86be 68cc e83e 466e 7bbd a380 7b3d
000002a0: 7886 ab3d 25df 62be 7b35 17be c874 843c
000002b0: 0805 32be b054 b33d 6df9 153d 2753 803c
000002c0: 3a5e 7a3e 1cda fc3d 4a6e b0bd 42c3 1d3c
000002d0: 323e f2bd 655a 083b 296f d7be e78c 9d3b
000002e0: cd3b a8bd 5f38 14be e51f 6ebd 5f69 9f3e
000002f0: cb35 15bd 9a8b a1bd 6895 d9bc 2b1b 133e
00000300: 9f09 2dbe 7476 c2bd bb89 4d3e a60b 873d
00000310: ea52 28be 75c1 a63d b716 29be 5e67 f43d
00000320: bb3f a13d 1997 163e a323 b9bd fe23 633e
00000330: 9720 8abd 29ae 633d 86d3 b4bd 277c 183e
00000340: 7b55 05be ad4c 13bf 5924 7f3e ecb7 c3be
00000350: bd46 96bb 1b7b 25bf 3955 b63c 7e3a 633e
00000360: 1ee9 1b3e 7f4c 13bd d2a2 a73d 0b86 d0bc
00000370: 50b6 cd3d b7eb 8b3d c3fe 4d3e a794 573e
00000380: 66d9 153c 495f 853d ef79 7a3d 6e98 febd
00000390: 19a3 d0bd 5471 24be 1731 1dbe 189d 2a3d
000003a0: f3b5 3d3d 0c33 f43d b898 0e3e b81e 51be
000003b0: e24e 9cbc c74f 453e b538 b9bc 0678 443e
000003c0: 84e3 0a3e 9209 2d3d be98 c53d 8a6e 93be
000003d0: 684f c73d d87f 243e 8a28 883e a1a0 c03d
000003e0: 665f 033d 39ac 03be e475 7cbc bbaa 1cbe
000003f0: b149 72bd 17fa 66be 9663 263e 1fcb cd3d
0.19328511 -0.07360632 0.20627895 -0.012285981 0.057170007 0.0011102557 0.17566907 0.102718
0.075371385 -0.31473055 -0.92601705 -0.029071225 0.117941454 -0.1904141 -0.116762124 0.14981124
0.11006271 0.083308704 0.15439579 -0.1455344 0.17319508 0.078638524 0.072293766 -0.011139026
-0.07642826 -0.04876046 -0.4360613 -0.3907541 -0.022128955 -0.1578085 -0.16993238 0.0034042776
-0.21831511 -0.0891424 0.008712136 0.0012567793 -0.002483457 -0.124623485 -0.1056198 -0.1989531
-0.07816266 0.002451977 0.07709112 -0.15319917 -0.099877566 -0.53671545 -0.11264102 0.003881696
0.2202544 -0.05141921 0.12878878 -0.2604243 -0.044124063 -0.2714988 0.0072783744 -0.0058429614
-0.15582246 0.069303535 0.0024733741 0.21964625 -0.18720137 -0.06589416 -0.003210982 0.009915792
0.14311898 -0.0005242385 0.06964935 -0.029190876 0.11092649 0.079242215 -0.22092739 0.16274133
-0.28091738 0.043358605 -0.04417507 0.14374292 0.15086137 0.05569862 -0.1842645 0.18077928
-0.22114512 -0.04769162 0.048295222 0.082950294 0.1475546 -0.056555565 -0.030217318 -0.22735216
-0.13343573 -0.024772054 0.0017124591 -0.09064556 0.09517726 -0.002932742 0.007754739 0.06533067
-0.08117131 -0.09370908 0.01013612 -0.1505053 -0.008652339 -1.0624481 -0.0866981 -0.019725632
0.19347197 0.13902123 0.24250747 0.14674704 0.034030776 0.13254173 0.11273091 -0.048020754
0.035265286 0.19929934 0.23298644 0.0025282993 0.08613952 0.054698925 -0.0095811635 -0.12675665
0.176527 0.063889585 -0.05866171 -0.1718302 -0.90629786 -0.077326104 0.23386566 -0.070170365
-0.11505656 0.060384568 -0.032046426 0.19033039 -0.10749186 0.12464994 -0.5123749 -0.008221894
-0.11762814 0.020451037 0.030333245 -0.051596943 0.062471278 0.09219419 -0.119816005 0.02928485
-0.1076851 0.13426472 0.2023614 -0.077663295 0.23739095 0.012649412 0.10118126 -0.0053069117
0.06674044 0.031003289 0.09499282 -0.16890283 -0.17662698 0.057911184 -0.09519293 0.0626553
-0.056258406 0.11648848 0.010945035 -0.09538356 -0.2629334 0.4546845 -0.06138446 0.061401974
0.08375257 -0.22155435 -0.14766495 0.016168967 -0.17384732 0.08756387 0.036614824 0.01566465
0.24450007 0.123462886 -0.08614786 0.009629073 -0.11828269 0.0020805832 -0.42076996 0.0048080566
-0.08214531 -0.14474629 -0.058135886 0.3113508 -0.036428254 -0.07887955 -0.0265605 0.14365833
-0.16898201 -0.094952494 0.20072071 0.06594019 -0.16437879 0.08142368 -0.16512571 0.11933778
0.07873484 0.14706077 -0.0904 0.22181699 -0.06744497 0.055586014 -0.088294074 0.1489111
-0.1302089 -0.5753887 0.2491621 -0.3822626 -0.0045860694 -0.6464097 0.022257434 0.22190282
0.15225646 -0.035961624 0.081853524 -0.025454542 0.10044539 0.068320684 0.20116715 0.210528
0.00914607 0.06512315 0.06115144 -0.124314174 -0.101873584 -0.16058856 -0.15350758 0.041653723
0.0463161 0.11923799 0.13925445 -0.20421875 -0.019080583 0.19268714 -0.022610048 0.1918641
0.13563353 0.042245455 0.09648274 -0.28795272 0.097319424 0.16064394 0.2659343 0.094056375
0.0320734 -0.12858666 -0.015408967 -0.15299504 -0.05915231 -0.22556339 0.16248927 0.10048508

bias f4 [128]
00000000: 3059 18be 1378 2ebd de60 aabe cac8 3fbe
00000010: 87a1 75be 9b7f 13bf e199 05be c0f7 b9be
00000020: 2ffd 36be 7e56 e3be 91df b2be 273d a1be
00000030: 11c7 68be 758a 73be f8a3 e8be 1a6a 65be
00000040: 0ae5 39be 57b8 b4be 0341 b2be a7ab 33bf
00000050: 21e8 06bf a993 95be a27c 49bd 3ac7 66be
00000060: 7b25 1bbe beda 7bbe 77f0 8cbd f258 36be
00000070: f26b 8cbe 4e0d b1be d172 92bf d1f9 a6be
00000080: d1c3 97be 0dc9 56be 9896 90be 7d47 9bbe
00000090: abcb 87be f293 3bbe 77e4 6dbe e6c8 78be
000000a0: 9cf9 e1bd 11d3 7abe 48dc f2be 0352 0d3e
000000b0: d1ea 12be 7f34 cabe 2f51 a1bc 377a 9dbe
000000c0: 113d 5ebe 56ea 5cbe 24bf b3be 41ea b0be
000000d0: db40 d2bd b3ac eabe 31f5 92be 8a95 00bf
000000e0: cdb9 04be cd80 bfbe 4545 89be c862 d3be
000000f0: 5333 45be ab28 5cbf 8347 5fbe 7c42 2bbe
00000100: e3b0 49be 06c9 e0be 6d9e 24be cd6e 7cbe
00000110: 92d2 60be f961 ccbe c169 0ebe 9872 ccbe
00000120: a54c 8dbe f29b 99be aa84 b9be 3c68 5dbe
00000130: dc1b c3be 80c8 85be 442e c9be ad21 62be
00000140: 7245 04bf 16fa 8abe 8119 2cbe 6940 9ebe
00000150: 87d6 aabd 4491 a3bd 695d ed38 0b53 4fbe
00000160: 5f86 00bf 2e3a 84be 59db 03be 05dd 6dbe
00000170: a5a5 3bbe cbe4 23be d7dc bebe ed2a 18be
00000180: 5817 d4be f94d c4be 9063 cebe e8cd 40be
00000190: 5baf 10bf 5780 44bf 532d 59be 0b41 45bf
000001a0: 9304 08be da88 c2be 5842 00be 9c0a e0be
000001b0: 6059 23be 3181 06bf 2d20 3cbc f724 56be
000001c0: 66af bebe b8c4 8dbd e94c c1be a326 03be
000001d0: 3ca2 82be 99fa 70be 0dd3 b7be 5480 20bf
000001e0: f5b9 96be e98b b3be 3736 b8be dd2d 88be
000001f0: 5124 843c c1a9 74bd 8d77 87be ecf1 a3be
-0.14877772 -0.04259498 -0.3327703 -0.18728939 -0.23987399 -0.57616585 -0.13046981 -0.3632183
-0.1787002 -0.44401926 -0.34936193 -0.31491968 -0.22732188 -0.23783286 -0.45437598 -0.22403756
-0.18153778 -0.3529689 -0.34815225 -0.70183796 -0.5269795 -0.29214218 -0.049191125 -0.22536936
-0.15151016 -0.24595162 -0.068818025 -0.17807367 -0.27426106 -0.34580463 -1.1441289 -0.3261247
-0.29641584 -0.20975132 -0.28239894 -0.3032798 -0.26522574 -0.18318155 -0.23231684 -0.24295387
-0.11033937 -0.24494578 -0.47433686 0.13800816 -0.14347388 -0.39493176 -0.019692032 -0.30757305
-0.21702982 -0.21573767 -0.35106766 -0.34553722 -0.102662764 -0.45834884 -0.2870269 -0.5022818
-0.12961502 -0.37402955 -0.2681066 -0.41286302 -0.1925786 -0.85999554 -0.21804623 -0.1672458
-0.19696383 -0.4390337 -0.1607606 -0.24651642 -0.21955326 -0.39918497 -0.1390753 -0.39931178
-0.27597538 -0.3000179 -0.36234027 -0.21621794 -0.38107193 -0.26129532 -0.3929311 -0.22083159
-0.51668465 -0.27143925 -0.16806604 -0.30908516 -0.08341699 -0.079866916 0.0001131844 -0.20246522
-0.50205034 -0.25825638 -0.12876643 -0.23228844 -0.18324907 -0.16005246 -0.37277862 -0.14860125
-0.4142406 -0.38340738 -0.40310335 -0.18828547 -0.5651757 -0.7675833 -0.21208696 -0.7705237
-0.13282995 -0.37995034 -0.12525308 -0.43758094 -0.15952063 -0.5254088 -0.011482281 -0.20912538
-0.37243193 -0.06922287 -0.3775399 -0.12807707 -0.255144 -0.23533095 -0.35903206 -0.62695813
-0.2943875 -0.3506768 -0.35978863 -0.2659749 0.016130598 -0.059732202 -0.26458398 -0.3202051

weight f4 [12, 128]
00000000: 741d 89bc 6c56 9e3d 3515 303d 7130 923d
00000010: 68ee 513c f062 313c 58e0 1f3d c8b5 013e
00000020: 108d 1a3d fdbc a2bc b00d c8bc 05e7 333d
00000030: 1065 dfba 223e 63bd 8e44 6d3c 7b7f e13c
00000040: 7556 613a 44e1 083c 2d36 713d 99f0 a13d
00000050: 9f18 74bc bd43 343d f85e 8fbc 4f70 213d
00000060: 531c ad3e dff2 c6bc 53ba 193d b46a 0c3d
00000070: 042b b7bc 43cf 873b 9cca d63d 8af9 2cbe
00000080: 9088 843c 465e 83bd cbbf 473c ff20 93bc
00000090: 89bf bdbb d0ca 65bc 319d 343d 2854 0dbc
000000a0: bb02 4cbc 73d4 3c3c a3bc 3abd 98ce bdbc
000000b0: 9e76 0a3d e2bf e73c 56cd 0cbc 3691 7b3c
000000c0: 992d 5dbd c311 afbd 77b3 08bc 4c9a 8abd
000000d0: 5f37 953b 27b2 c23b 9f54 0d3d 7cac 5e3d
000000e0: 8c23 7f3c 8e3d ad3c b944 073e 470e 88bc
000000f0: f54a 4b3c 7e47 173b 9664 f6bc e44d 02bd
00000100: a6a0 2cbd 3121 4b3d 6f92 7d3d 1e78 f73c
00000110: 2e54 3abd 8f97 c43a 0e03 d4bc f951 233d
00000120: 65f6 4bbc 4daa 5cbc fb68 a03c bca2 993c
00000130: 83b7 773b 7c28 93bc fccb 4dbd b57d 513d
00000140: 7f9b ca3c c24d 00be 2436 6f3c 34ed 1e3d
00000150: fe7e 86bc ec79 643d 876f fdbc df9c f03b
00000160: efbe 3ebc 6a8d b5bd 289d 3fbb 6afb 133c
00000170: 79f8 28bd 7d46 6abd 6590 9dba 15f7 05bd
00000180: 7ae4 4cbc 7c73 a83d f1fd 903d 4128 18bd
00000190: f610 15bd 3665 f9bd 1048 72bc 2c75 783d
000001a0: ec09 92bd 2a8e 25bd 957d debc 1cdf 183d
000001b0: a45f cc3d 34cb 193c 013a c3bc 78ed 863c
000001c0: f847 823c 5827 5e3d e2ff 5ebb e85f 753d
000001d0: 7ce5 10bd 5eb2 4abd e2d0 2fbd 644a 7a3c
000001e0: 92f3 36bd befd 58bc 058e 4dbc 7514 7dbd
000001f0: 1177 533c 07a8 073e b6e7 90bc 7add 8b3d
00000200: 8b1c c23d ace1 963b a9be ea3b 4d51 1fbd
00000210: 68a0 a13c 2abb 263d 104f 28bd f1ab 993b
00000220: 73d1 38bd f321 f03c be86 1c3d 8fd4 943b
00000230: 3f94 8cbc 7e01 1fbc 8ec3 c73b 5e7d 43bc
00000240: ed67 8dbc f19a 913c cb7c 19bd a6f1 24bc
00000250: 021f 273d 298d 69bc f913 4fbd 4049 88bc
00000260: 16e3 0a3e d0b6 89bd 9794 4abd ded8 46bd
00000270: 567e 9fbb 8523 8a3d e15e 0ebc 85e6 083d
00000280: 01da eeba b21c b63c e011 f63c d2b2 fabc
00000290: c7e3 cd3c ef4c a33a df0a 133d bdd3 c5bc
000002a0: 368e 22bd 8e4c 523d aae3 8fbc 27da 0e3d
000002b0: bfa8 153d 288e 633d d684 733c c6fb 5b3c
000002c0: 8ef8 e93d a334 383e 85d4 bcbc a490 6c3d
000002d0: 05f9 46bc 8f17 79bd fa7b 69ba e63d c0bd
000002e0: da6f 863c 79d7 173d 81e9 74bd 5ab6 38ba
000002f0: c2f1 923d cf8e 443c 165e 78bd 982a 5abd
00000300: 149e 563c 8a07 7bbd 4478 643d a6c0 47bc
00000310: 54cd 03bc b00e 043d 5e9a fb3d a4f8 92bc
00000320: e217 ba3b b909 543c 3510 9fbd 176b 1ebd
00000330: 5ef3 ad3c 6dd2 a1bc 9649 fb3c 515d 1fbd
00000340: 1bd0 523d 8e64 ad3c 7d02 53bc e974 e0bc
00000350: cc7a 21bd cab1 08be 255c 2ebb be3c 0fbc
00000360: 2eab 94bc bf71 013e 9623 5d3d ffce ef3c
00000370: 5098 d73c 6feb a13c d20b 223d 1fe5 893d
00000380: 3cbf 8ebb b883 e1bd 68c9 c5bd 639a c13c
00000390: bb8f 1ebd 1b7a 523c b592 1abd 6647 e73c
000003a0: 7956 723c 3663 8fba 89f9 8b3c 57c9 d7bb
000003b0: 475c 953c f060 8fb9 c4d9 3b3d cc0e d03c
000003c0: e177 1e3c 6f96 99bd f87c 99ba 3dd8 28bd
000003d0: 3a64 3e3c 77a3 4d3c 23b7 f33b 1a3a 963c
000003e0: 31ab 9cbc 4f6e 3c3e 2705 5dbb cfd7 683c
000003f0: 0ae1 b3bb 161c a43d 82c6 e23c 90c1 63bd
-0.016737677 0.077313274 0.042988975 0.07138146 0.012813188 0.010826811 0.03903231 0.12667
0.037732184 -0.019865507 -0.02442059 0.04392149 -0.0017043669 -0.055479176 0.014481677 0.027526608
0.0008595952 0.008354489 0.058889557 0.079072185 -0.014898448 0.044009913 -0.01750134 0.039413746
0.33810672 -0.024285732 0.03753121 0.034281448 -0.022359379 0.0041445806 0.104878634 -0.16892067
0.0161784 -0.064144656 0.012191723 -0.01796007 -0.005790655 -0.014025405 0.044095222 -0.008626021
-0.012451823 0.011525261 -0.045590054 -0.0231698 0.03380453 0.028289739 -0.008593878 0.015354445
-0.053998563 -0.0854831 -0.008343569 -0.06767711 0.00455372 0.0059416476 0.03450453 0.054363713
0.01557244 0.021147516 0.1320981 -0.01660837 0.012408008 0.0023083384 -0.03007726 -0.031812564
-0.042145394 0.0495922 0.061907228 0.030208644 -0.045490436 0.0014998781 -0.025880363 0.039873097
-0.012448882 -0.013468337 0.019581309 0.018754356 0.003779859 -0.01796364 -0.050243363 0.051145274
0.02473235 -0.12529662 0.0146003105 0.038800433 -0.016417976 0.055780336 -0.03093697 0.0073429192
-0.011642202 -0.08864863 -0.002923796 0.00903211 -0.041252587 -0.05719613 -0.0012021182 -0.03270634
-0.012505645 0.08225152 0.070796855 -0.037147764 -0.03639313 -0.121775076 -0.014787689 0.06065862
-0.07130799 -0.04041878 -0.027159492 0.03732215 0.099791795 0.009386826 -0.02383137 0.016470656
0.015903458 0.05423674 -0.003402703 0.059905916 -0.035375103 -0.04948651 -0.042923816 0.015276525
-0.04466588 -0.013244091 -0.012546067 -0.061787087 0.012906806 0.13247691 -0.017688613 0.06829353
0.094781004 0.004604539 0.0071638417 -0.038895894 0.019729808 0.040705837 -0.041091025 0.0046896865
-0.04512162 0.029313063 0.038214438 0.0045419405 -0.017160533 -0.009704946 0.00609631 -0.011931745
-0.01726147 0.017774077 -0.037472527 -0.010067379 0.040801056 -0.014254847 -0.050556157 -0.01663649
0.13563189 -0.06724322 -0.049458113 -0.048546664 -0.0048673553 0.06745056 -0.008689613 0.033422966
-0.0018222929 0.02223048 0.03003782 -0.030602846 0.025133027 0.0012458841 0.03589904 -0.024148816
-0.039686404 0.05134254 -0.017564613 0.034876015 0.036537882 0.055555493 0.0148632135 0.013426727
0.11424361 0.1798883 -0.023050556 0.057755128 -0.012144332 -0.060813483 -0.00089067186 -0.09386806
0.016410757 0.037070725 -0.059793 -0.00070462155 0.07175018 0.011996939 -0.060636602 -0.053263277
0.013099212 -0.061286487 0.055778757 -0.012191927 -0.0080445595 0.03224057 0.122853026 -0.017940827
0.0056791166 0.012941771 -0.07766763 -0.038676348 0.02123421 -0.01975366 0.030674737 -0.038907353
0.051467996 0.021166112 -0.012879011 -0.027399497 -0.03942375 -0.13349071 -0.0026605215 -0.008742509
-0.018148031 0.12641047 0.053989016 0.029273508 0.026317745 0.019765584 0.039562054 0.067331545
-0.004356293 -0.110114515 -0.09657556 0.023633188 -0.03871129 0.012846495 -0.037737567 0.028232288
0.0147911245 -0.0010939601 0.017086761 -0.006585281 0.018232478 -0.0002734731 0.045861974 0.02539768
0.009672136 -0.07499396 -0.0011710217 -0.041221846 0.011620576 0.01255118 0.007437603 0.018338252
-0.0191246 0.18401454 -0.0033724995 0.014211609 -0.005489473 0.080131695 0.027682547 -0.055604517

bias f4 [12]
00000000: 1a9e debd 884b 83bc b7a4 37bc 6ad7 e13d
00000010: f250 a8bd e927 14be 71e6 f73d 3dff 113d
00000020: 285c 63be 8122 a4be 6efe 963e d7bc 9e3e
-0.10869999 -0.016027227 -0.011208705 0.11027415 -0.08218564 -0.1446835 0.121045 0.035643805
-0.22203124 -0.32057574 0.2949099 0.31003448
